Future implementations/models/balance_policy.pth (torch, 288078 bytes, 6 tensors)

module.0.module.0.params.0.weight f4 [256, 16]
00000000: 43bd 3c3d 5ffd b9bd 7ee0 b5bb 8ec6 933d
00000010: 73b8 623e c63a d6bd 90e6 e33d 0eb7 c1be
00000020: 5f75 0e3e 605a 483e 231d 453e 0df4 b3bc
00000030: 5899 0dbe 1d48 90bc 1979 b8bc 7a5b 813e
00000040: 6db7 593e 198b e5bd d107 5a3e 9f62 d63d
00000050: 4c21 2ebb 241f 333e 9ff7 373e 513a 943e
00000060: c7f1 1f3e 2c45 aa3d ca05 d7bd 11c5 52be
00000070: 7e08 4abe 194f 96be 78d9 763e f2b0 1fbe
00000080: d8c4 d13d 6a3f 033e 8c0e c8bd 2369 fc3b
00000090: 952e 58bd 60ee a63d afc3 2b3e 1820 cf3d
000000a0: 3226 213e d296 16be a22a 003e 6250 e2be
000000b0: 91b3 323e e00b 2ebe e92c 743e 9eb2 303e
000000c0: 076a 03be 0c7b 90bd dd9d 24be 3646 be3d
000000d0: 1d3e 9abe 8c4b b3bd 2836 6fbc 6153 a03e
000000e0: c8b7 143e 176d bf3d 2eb7 713c 3922 933d
000000f0: 5edb 18bd a89d 8d3d dc2c 783d f4a9 61be
00000100: ef71 6fbc 850a 4bbd 4706 04be 41d1 4bbd
00000110: 20ad 603d 0616 60be 6642 63be 3a14 babe
00000120: 1877 3f3e fa8e abbd bee0 b53d 5a5f 6b3e
00000130: 37ee ffbd 14bf 11be 36e2 a1bc 73f0 3ebe
00000140: fa21 4abd 214b 1ebe 86a5 7cbd bd7e 933d
00000150: ff37 063e 2f4d 0bbc 31bb 4f3e ba6d 893e
00000160: b6db 67be 2cfb b23d fe7e cf3d d3e7 b0be
00000170: 969c bdbe e407 363d 89e4 833e 12e9 7d3e
00000180: 2791 303e 33cd 5d3e 0695 b03b b276 003e
00000190: 2bb9 783c c875 e2be 2ca2 5e3e 63ae ddbe
000001a0: 3b0d b33d 9be8 1d3c 78a4 47be e25c 383e
000001b0: e741 5ebe 723e aa3c 4bb2 80bb 0696 12be
000001c0: 6909 a0bd 271a 733e 8aca 6c3e e0d2 59bd
000001d0: 2cfd 0fbe 7378 9dbe dfe1 87bc 2e71 00bf
000001e0: 5426 243e d940 e23d 5d56 e4bc b8fb 093e
000001f0: 9500 5a3e adef 8e3e e689 613e 2f65 0a3e
00000200: d9fc 263c 3aad 24be 696f c0bd a0de 6c3d
00000210: 983f afbd cc40 40be dfbf 84be d78a c6be
00000220: 3057 59bd a9ec 213d 900a 573d de4c d63d
00000230: 9bab 80bd e3fc ecbd c92d 73be 4bee f1bc
00000240: c2db 443e 09ee 503e 3092 163e f8a9 a5be
00000250: 3cb2 143e ec15 763b b493 7b3d d4ae d23e
00000260: 884f 94bd 4c1d 9b3d 89c7 0dbe 288e 053e
00000270: 9c89 863d 6295 9f3d b598 0d3e 6208 d8bd
00000280: de56 67be 1e94 3d3e 2648 2b3e 2d4d 0dbe
00000290: bb9e e1bd 7ff5 0b3d 0829 24be 3382 8d3e
000002a0: 2030 1dbc 31a3 7d3d f19b 273d ec6a 13bd
000002b0: 9fa1 b03e 57e3 82bd 973e 4dbe 8e69 1a3e
000002c0: f48a e2bd a87b 62bc 6820 f8bd fc4f 00be
000002d0: db83 abbd 86c0 8fbe 8d4c 003e bd4c 7bbe
000002e0: d460 023e 7e46 583e eb0d d13d c9ff ac3e
000002f0: 9db4 353e b77c 1f3e 6db6 f6bd e22d 293e
00000300: 050a 973c df4d 05bc aeec 8cbe 4c80 833d
00000310: 2c00 73be e5eb d03e 56b1 c73d 926f e13d
00000320: 6d22 183e e359 b4bc 292d 2e3e d090 82be
00000330: 6bc7 9a3e 379f 863d 8333 79be 01bd 603e
00000340: e07e 45be dd4e 3fbe 8d53 3e3e 7673 353b
00000350: 7c0c 97bd 4280 853d cfa7 61bd ac4b a43e
00000360: 35d2 1dbe 37ce 40be 8780 3c3e 41c6 7fbe
00000370: 12dd b83d 6c76 033d f9e8 353e 99e6 393e
00000380: afce 513e 207f 98bd 3426 09bb b67b 5c3e
00000390: 168f f13d ac86 f83d 972c 30be efe1 f5bc
000003a0: a881 06be fca2 e6bc c4cb d83d b28b dd3d
000003b0: 0c44 7b3e 55ce 32bc bd7a 83bd f994 653e
000003c0: 028c bdbd eaf0 67be bc6d 0cbc 32c5 3e3e
000003d0: 7933 1bbe 5c82 bf3d 534c 87be 2391 50be
000003e0: 0ad2 bfbd 0354 5fbe ac6e 7e3d 9dbb 853e
000003f0: 0a1e ed3d 4ebf 42be e567 dd3c 1569 b5bd
0.04607893 -0.0908153 -0.005550443 0.07215606 0.22140674 -0.10460429 0.11127961 -0.37834972
0.13911961 0.19565725 0.19249396 -0.021966958 -0.13828027 -0.017612511 -0.022518681 0.25265104
0.21261378 -0.112081714 0.21292044 0.10468029 -0.002657014 0.17492348 0.17965554 0.28950742
0.15619574 0.08313975 -0.10499151 -0.20582987 -0.19729802 -0.29357222 0.24106395 -0.15594843
0.10242623 0.1281716 -0.097683996 0.007702963 -0.0527788 0.08150935 0.16773866 0.10113543
0.15737227 -0.14705971 0.12516263 -0.44201952 0.17451312 -0.16996717 0.23845257 0.17255637
-0.12833415 -0.07054719 -0.16075845 0.092907354 -0.30125514 -0.08754644 -0.014600314 0.31313613
0.14523232 0.09346979 0.014753146 0.07184262 -0.03731858 0.06914836 0.060589656 -0.22037488
-0.014614566 -0.04957058 -0.1289302 -0.049760107 0.054852605 -0.21883401 -0.22193298 -0.36343557
0.18697774 -0.0837688 0.08880757 0.22985592 -0.12496608 -0.14233047 -0.019761186 -0.18646412
-0.04934881 -0.15458347 -0.061681293 0.07201908 0.13107298 -0.008502289 0.20286252 0.26841527
-0.22642407 0.087393135 0.10131644 -0.34551868 -0.37033528 0.04444112 0.25760296 0.2479594
0.17242871 0.21660309 0.0053888587 0.12545279 0.015180866 -0.44230485 0.21741551 -0.4329711
0.08742758 0.009637977 -0.19496334 0.18004182 -0.21704827 0.02078173 -0.003927504 -0.14315042
-0.07814295 0.23740445 0.23124138 -0.05317962 -0.14061421 -0.30755958 -0.016587196 -0.501727
0.16030246 0.11047525 -0.027873212 0.1347493 0.21289285 0.27917233 0.2202526 0.13515161
0.0101921195 -0.16081706 -0.0939625 0.0578295 -0.085570514 -0.18774718 -0.25927636 -0.387778
-0.053061664 0.039532337 0.052500308 0.1046388 -0.06282731 -0.11571672 -0.23747934 -0.029532572
0.19224456 0.20403303 0.14704204 -0.32356238 0.14521116 0.0037549688 0.061420158 0.41149008
-0.07241732 0.07573947 -0.13845648 0.1304251 0.06569216 0.077921644 0.13827784 -0.10548474
-0.22591731 0.18513533 0.16726741 -0.13798971 -0.110166036 0.03416967 -0.16031277 0.27638397
-0.009593993 0.06192321 0.0409202 -0.03599064 0.34498307 -0.06391018 -0.20043407 0.15079328
-0.110616595 -0.013823427 -0.12115556 -0.12530512 -0.08374759 -0.2807657 0.12529202 -0.24540992
0.1273225 0.2112064 0.10207733 0.337889 0.1774468 0.15574919 -0.12046514 0.16521409
0.018437395 -0.008136242 -0.27524322 0.06420955 -0.23730534 0.40804973 0.09750621 0.110076085
0.14856882 -0.022015518 0.17009415 -0.25501108 0.3023027 0.065733366 -0.24336056 0.219471
-0.1928668 -0.18682428 0.1858656 0.0027687228 -0.07375428 0.06518604 -0.055091675 0.32088983
-0.15412219 -0.18828665 0.18408404 -0.24977972 0.09026541 0.032095358 0.17764653 0.18154372
0.20489 -0.07446122 -0.0020927312 0.21531567 0.117948696 0.121350616 -0.1720451 -0.03001496
-0.13135397 -0.028153889 0.1058574 0.108176604 0.24537677 -0.010913451 -0.06419895 0.2242011
-0.0925522 -0.22650495 -0.008571085 0.18629912 -0.15156354 0.09351036 -0.26425418 -0.20367865
-0.09366234 -0.21809392 0.062117264 0.261197 0.11577995 -0.1901829 0.02702708 -0.088579334

module.0.module.0.params.0.bias f4 [256]
00000000: 591a c2bd 568f f9bd 4b62 18bd 11b4 1fbe
00000010: 5ab2 4a3e 132f 2fbe 2a61 5b3e 0988 36be
00000020: 24b5 6a3e 6646 1b3e df2c 77be 258f 47be
00000030: 513c d5bc bcfc f93d 7ca2 42be c0c5 5f3e
00000040: d092 d03d 1613 4e3e 4411 a1bd 0b13 de3d
00000050: 4b2f 9f39 10c4 2ebe 7ac2 65bc 0100 3f3e
00000060: fda6 063e 5613 36bd ce67 f73b 6b3a 483b
00000070: 551b c53d e8ae 153e ebcd 063e 70cb 053e
00000080: 5e77 5f3e ba1a b73d 7116 ed3c d156 0fbd
00000090: bdd8 933b 4994 86bd a209 183e 8867 19bd
000000a0: b390 c8bd 05a8 463d 02d5 063d eb9d b73d
000000b0: 92cd 00be 7f4a ba3d 2ae5 673e ef9a 8dbd
000000c0: a6e3 fdbc 29c8 7cbb 9e47 453e a9a3 0c3e
000000d0: 15c9 e4bd 9f75 2fbe 11d2 3abe 70ad 34be
000000e0: b08e 313d e784 893d 288d ba3b 1608 0e3d
000000f0: e437 28be 4bcf 283e 7fd3 0cbe d20b f0bd
00000100: bed8 d53c 057a 61be 08cf 703e 13b0 44be
00000110: 77cc 4f3e 26e9 10be 2e6e 5b3e e963 2ebd
00000120: 5ec0 48be d430 cd3c 31e3 b3bd eaa5 0f3b
00000130: 5ed9 033d f4d7 2f3e 5fe9 aa3c cfe7 1f3e
00000140: fecd 543e 6019 6bbe de11 89bd a355 5a3d
00000150: 2221 67be 1d62 4cbe 3b39 953c a23d 513e
00000160: 26e2 e4bd b011 263e 0997 26be 0c7e b8ba
00000170: 5895 8ebd 7a90 2e3e c284 45be 352b 3bbe
00000180: 0594 c5bd 0494 5ebe e49a c83d f33a 56be
00000190: 72bf 503d 299d 2cbe 2a33 0b3e 0ac5 51be
000001a0: b0f3 58be a86e 4bbe ce93 ebbc 6973 783e
000001b0: eb65 0e3e a84c 5fbe f61b 553e ee17 c53d
000001c0: c56f 893b 581c 79bc e929 ccbd dae7 56bd
000001d0: 1eee 79be d139 4e3e 6bdf 503e d32e 443e
000001e0: 6995 173e 802e 5b3e 788f 0f3e 8803 75be
000001f0: f9c6 7dbe 339c a5bd e2d3 55be 3e9c 92bb
00000200: aba9 443e c416 4ebe 3cac 493e ec10 443d
00000210: 33f9 ef3c 484e 6bbe 2098 3d3d ca2d 61be
00000220: 4f96 efbd 8098 8c3d 31a9 4f3e 3ee6 60bb
00000230: a076 5a3e 66d2 39be 28cc 1abe 138b fdbd
00000240: bd0f 563e 21df 48bd b6b4 67be d503 303e
00000250: be25 723e 87c0 ea3d f49f 40be 9b80 5ebe
00000260: 6761 de3d 08b0 1c3e b448 6fbd 25c5 393e
00000270: 0687 b23d 6383 a0bc c322 583d bf9c 10bd
00000280: 40a9 87be a8c1 abbd 690c 4dbd baab 58be
00000290: f62e 4f3e 2965 633e 4810 0abe 2c83 f039
000002a0: ccde 7e3e 686e e83d afff 75bd b517 f33d
000002b0: 576f 61be 32d6 543d 96d9 4dbd b24c 3dbe
000002c0: 5c56 b13c 2863 4c3e 2e88 243e dc66 163e
000002d0: f207 723c 1ea3 873b 4e7d 4f3e 95f7 703e
000002e0: 22d9 163e 4494 093d 9b04 4a3e a47b 40be
000002f0: 4703 91bd 815a 5bbe 9d7a 173e 56b0 1cbe
00000300: 7172 05be ff9a 36be 5aaa 57be ad98 5d3e
00000310: c124 303e ece4 84bd 43d8 9a3c 3d59 43be
00000320: 8987 dd3d 60dc 363c 8995 eebd 7db0 80be
00000330: 30ed 5dbe fb23 783d c2f1 fe3c e68a 48bc
00000340: ea85 973d 4940 bb3d 2ea7 41be 3383 c5bd
00000350: 4bdd b4bd 414f 6b3d ed77 623e 2f0b 253e
00000360: 6dff 443e 8561 843d 2fcd ef3c ff6a 68be
00000370: f068 e0bd 48c4 9ebd 093d e83d de16 043e
00000380: 8f02 8c3d 5245 9bbd 4ee3 bcbb 0dc4 023e
00000390: 4ea4 983d 407d 0abe 29f1 76bd 79dc 2cbe
000003a0: 9037 00be 1755 9dbc b911 693e 5d80 62be
000003b0: ad54 773e 0781 9abd 1e35 f1bd 5207 e33d
000003c0: c2ab 4d3e 1be3 72be be8e 073e 4abc b2bd
000003d0: 5c68 4f3e 6ca0 61bd 72e7 abbd 9b48 543e
000003e0: 1682 82be 4db8 26bb 3f02 f9bd 2341 57be
000003f0: 88b1 48be 8002 733e ec03 cd3d 0c64 4a3e
-0.09477682 -0.12185542 -0.037203114 -0.15596034 0.19794598 -0.17107801 0.21423784 -0.17825331
0.22920662 0.15163574 -0.2413821 -0.19488199 -0.026029738 0.122064084 -0.19007295 0.2185278
0.10184252 0.20124468 -0.07864621 0.10843476 0.0003036208 -0.1706698 -0.014023418 0.18652345
0.13149638 -0.044452034 0.0075502163 0.0030552398 0.09624354 0.14617503 0.13164489 0.13065886
0.21822879 0.089406446 0.028941365 -0.034994904 0.004511921 -0.06571252 0.14847425 -0.03745225
-0.09793224 0.04850008 0.032917984 0.08965667 -0.12578419 0.0909624 0.22646013 -0.06914317
-0.03099234 -0.0038571453 0.19265601 0.13734306 -0.11171166 -0.17134713 -0.18244196 -0.17644286
0.043348968 0.06714802 0.0056930967 0.03467568 -0.1642757 0.16485326 -0.13752554 -0.117210045
0.026104327 -0.22019203 0.23516476 -0.19207792 0.20292841 -0.14151439 0.21428749 -0.04257575
-0.19604632 0.025047697 -0.08783568 0.002191896 0.03218972 0.17172223 0.020863233 0.15615772
0.20781705 -0.22958899 -0.06692861 0.053304326 -0.22571233 -0.19959302 0.018215766 0.20433667
-0.11175947 0.16217685 -0.16268553 -0.0014075651 -0.06962079 0.17047301 -0.19288924 -0.18278201
-0.09647373 -0.21736151 0.09795168 -0.20920925 0.050963826 -0.16856827 0.13593736 -0.2048532
-0.2118671 -0.19866431 -0.028757002 0.24262775 0.13906066 -0.21806586 0.20811448 0.09623705
0.004194232 -0.015204512 -0.09968931 -0.052467205 -0.24407241 0.20139243 0.20397727 0.19158487
0.14803089 0.21404457 0.14019573 -0.23927128 -0.24782933 -0.08086433 -0.20881608 -0.004474192
0.19205348 -0.20125872 0.19694608 0.0478677 0.029293632 -0.2297908 0.046287656 -0.21990123
-0.11698591 0.068650246 0.20279385 -0.0034316923 0.21334314 -0.18146667 -0.15116942 -0.12380042
0.20904441 -0.049040917 -0.2262753 0.17188962 0.2364721 0.11462503 -0.18811017 -0.21728747
0.10858422 0.15301526 -0.058418944 0.18141611 0.0871716 -0.0195939 0.052767526 -0.035305735
-0.26496315 -0.083865464 -0.050060663 -0.21159258 0.20232758 0.22206558 -0.13482773 0.00045874098
0.24889678 0.11349183 -0.060058292 0.11869756 -0.22015129 0.051962085 -0.050256334 -0.18486288
0.021647625 0.199597 0.16067573 0.14687675 0.014772402 0.004139318 0.20262644 0.23531945
0.14731267 0.033588663 0.1972832 -0.18797165 -0.07080703 -0.21421243 0.14792867 -0.15301642
-0.13031937 -0.17832564 -0.21061078 0.21640272 0.1720152 -0.06488976 0.01890195 -0.1907701
0.10816867 0.01116094 -0.11649615 -0.2513465 -0.21672511 0.06058119 0.031121138 -0.012240147
0.07398589 0.09143121 -0.1891143 -0.09644165 -0.08831271 0.05744863 0.2211606 0.16117547
0.19238062 0.06463913 0.029272644 -0.22697066 -0.10957515 -0.077522814 0.113397665 0.12899348
0.068364255 -0.07581581 -0.0057644015 0.127701 0.07453214 -0.13524342 -0.060288582 -0.16880979
-0.12521195 -0.019205613 0.22760667 -0.22119279 0.24153395 -0.07544141 -0.117777094 0.110853806
0.20085052 -0.23719446 0.13238046 -0.087273195 0.20254654 -0.05508463 -0.08393754 0.20730822
-0.25489873 -0.0025439442 -0.121586315 -0.21020941 -0.19598973 0.23731422 0.10010514 0.19764727

module.0.module.0.params.2.weight f4 [256, 256]
00000000: c0ad 7dbc 53f1 8ebd f00e 373b f13a 973c
00000010: be58 67bb d999 e63c fab6 563d 7b39 543d
00000020: 72dd 55bd 8185 82bd ed9c 133d cdf7 583d
00000030: 017b 9abd 5f9b 80bc 9136 b83c 6fc3 e7bc
00000040: 9e8b ec3b c112 83bc 603d 4c3d 50f4 1b3d
00000050: 6e12 67bc f1e4 223d 66e8 34bd 3f2f 7ebc
00000060: 8e11 433d 1b52 563d f73b e6bb 3f4d 06bd
00000070: c255 193d 42dd 60bd 62d1 aa3c 9f94 7ebd
00000080: f0d1 74bd 763d 35bd 5605 5bbb 3853 a1bd
00000090: c4f9 4dbd 12e4 743d 7641 023b 2255 303c
000000a0: b84c 49bc f95e 853c 72d6 8dbd f68c 39bd
000000b0: d4b2 133c 06b6 8abb da0d 0c3d c027 4d3d
000000c0: 3662 e6bc b8fe d53c 2f7c 17ba deda 1d3d
000000d0: ba76 513b 1436 2e3d c49d 21bd 40f9 3abc
000000e0: 0e9f 4a3d 274a 023c ba67 1c3c 8397 913d
000000f0: 0395 51bd 2072 43bd 26e9 72bd 9d05 843b
00000100: 2ac4 8e3c 4871 103c ad79 143d d2c9 173d
00000110: 4c98 823c 7027 193c 17ef 45bd 7c09 d43c
00000120: ebd1 213b ac52 f13c 0074 3b3d 33f4 1fbc
00000130: d055 393c de01 5cbd 651f ed3c db59 b5bb
00000140: 7e05 dbbc 3633 ba3c dbf9 82bd 868d 80bd
00000150: 35cd 3d3d c621 7bbd 69d1 68bd 6de6 3d3d
00000160: e4f3 81bd cb95 5ebd 9ba6 6abd 317e 853d
00000170: 5d51 9ebc 9be5 c73b 33e8 07bd 522f cf3c
00000180: 6cc8 663a d5d9 45bd 3e39 453c f8b5 663c
00000190: 1f79 073d bfa7 3bbd e2f2 37bd bd4c 01bd
000001a0: 7ed2 64bd cce9 00bd f6a3 79ba e7ca 823d
000001b0: e1cd 4c3d bf12 b5bc 0df6 0d3d 83a3 04bc
000001c0: f4b3 73bd 1f14 09bd e0a2 b2bb c0e0 d2bc
000001d0: d63f cbbc b700 963d 0e66 0d3d 0eb1 7a3c
000001e0: f713 e03c 48a8 893d aa63 a13c 5f65 9abc
000001f0: c7ec 123d 3e04 173c d030 3c3d 6329 f93c
00000200: 90c3 21bd d795 f33b 97de a1ba 74da f8bb
00000210: aa24 38bc 41f9 1bbd 1ac1 803d 9352 adbb
00000220: 5cad 33bd 13aa 60bd 0df0 bbbc a7fb 11bc
00000230: b95d 9aba 869f 343d 85cf 47bd abda 55bd
00000240: 6f63 593d b92e ac3c d600 8ebc 7d37 36bd
00000250: 35dd b3bd 20df 9abd 85dd a2bc 94f7 73bd
00000260: 1089 733d 5a35 0a3d 90ba 223d 9934 14bc
00000270: 69d0 96bb cf00 683d 027a 1bbd dbb0 e13c
00000280: 310e 8ebd 66db 3abd d8cc 073d 1d8c ab39
00000290: 5291 493d c923 54bd d717 dcbc 0969 47bd
000002a0: 9a66 ddbc 3e8c d7bb 4576 94bc 18c9 223d
000002b0: 73ab 803c 9018 98bd b530 3c3d 056f c93b
000002c0: b880 1f3d 29e3 533d f621 92bb aeb0 59bc
000002d0: d641 143c d9a5 bd3d f568 e3bc 35ae 823d
000002e0: 4689 b43c 7e72 8bbc 79d5 77bd c6ac 7a3d
000002f0: 065a 5abd 0392 3c3d ca9f e03c e109 03bd
00000300: a90b 58bd f987 353d 3d31 093d fe85 4cbd
00000310: 39f1 d63b eb15 10bd 862d 63b8 e6cf d5bc
00000320: 356c 5fbd 3097 82bd c13e e4bb ced2 cb3c
00000330: c39b 873d 7731 683d 5ee5 5a3d b89b 793c
00000340: 820d 103c fe59 a83b a729 c13b a58f 813d
00000350: 8f0e 4b3c 6856 8dbc 386f ec3b 2a13 4dbd
00000360: 3a67 983c 55b9 763c 738a 403c f802 6a3d
00000370: 11bb 2f3d 5218 323d 938e 313d 84d2 e73c
00000380: 1dd2 6c3c 91dc 66bd 3c55 883a baaa 41bd
00000390: d725 44bc 6e37 0b3d e61b 23bd 7f64 71bd
000003a0: 714e 8fbd 0899 183c 378d 563d 8619 9ebd
000003b0: 03fc 6d3d 5995 cdbc 8a29 1bbd e50e f6bb
000003c0: 0992 5dbc 7e3c 57bd 6a24 e13b 50ea aabc
000003d0: d19e 8e3b 9763 84bc 5a1e 0abd 0529 39bd
000003e0: 7e59 a8bd 00d4 433c 9ffb 37bd 46d5 543d
000003f0: 0f6d bcbc ff80 983d dea0 65bc 6ef1 2bbd
-0.01548332 -0.06979623 0.0027932487 0.018460723 -0.0035300697 0.028149532 0.052420594 0.05181263
-0.05221314 -0.0637312 0.036038328 0.052970696 -0.075429924 -0.015699087 0.022486957 -0.028291432
0.007218792 -0.016000153 0.04986322 0.03807479 -0.014103515 0.039769117 -0.044166945 -0.015514194
0.047624163 0.052324396 -0.0070261913 -0.03278851 0.0374353 -0.054898508 0.020851795 -0.062153455
-0.059770525 -0.044248067 -0.0033419929 -0.07877201 -0.050287023 0.059787817 0.0019875444 0.010762485
-0.012286358 0.016280638 -0.06925668 -0.045300446 0.009014804 -0.0042331247 0.034192897 0.050086737
-0.028123002 0.026122436 -0.00057786977 0.038538806 0.0031961636 0.04253204 -0.039457098 -0.011411965
0.049468093 0.00795225 0.009546215 0.07108977 -0.0511675 -0.04771626 -0.05930438 0.0040289895
0.017427523 0.008816071 0.03624885 0.037057705 0.015941761 0.009347782 -0.048323717 0.025883429
0.0024691771 0.029458366 0.045764923 -0.0097628115 0.011311963 -0.05371272 0.028945634 -0.0055343932
-0.026736017 0.022729497 -0.063953124 -0.062769935 0.04633828 -0.061311506 -0.056840334 0.04636233
-0.063453466 -0.054342072 -0.057287794 0.0651821 -0.019325906 0.006100369 -0.033180427 0.025291119
0.0008803669 -0.048303444 0.012037573 0.014081471 0.033074494 -0.045814272 -0.044909365 -0.031567324
-0.055864803 -0.031472966 -0.0009523028 0.06386357 0.05000103 -0.022103665 0.03465848 -0.008095625
-0.05949779 -0.033466455 -0.005451545 -0.025741935 -0.024810713 0.07324355 0.034521155 0.015301002
0.02735327 0.0672155 0.019700844 -0.018847166 0.03587034 0.00921732 0.04594499 0.030415243
-0.039493144 0.007433634 -0.0012349662 -0.007594401 -0.01123921 -0.038079504 0.06286831 -0.0052893846
-0.0438665 -0.054849695 -0.022941614 -0.008910096 -0.0011777199 0.044097446 -0.04878189 -0.05221049
0.053073343 0.021018373 -0.017334383 -0.04448651 -0.08782426 -0.07562089 -0.01988102 -0.05956228
0.059456885 0.033742286 0.0397287 -0.009045743 -0.004602481 0.056641396 -0.037958153 0.027550152
-0.069363005 -0.04561939 0.03315434 0.00032720054 0.049210854 -0.05179194 -0.026866836 -0.048684154
-0.027026463 -0.0065779975 -0.018122802 0.03974256 0.015706753 -0.0742656 0.04594489 0.0061472678
0.038941115 0.05173031 -0.004459615 -0.013286753 0.0090489 0.092601486 -0.027760008 0.063808836
0.022038113 -0.017022368 -0.060506318 0.061199926 -0.05330851 0.046037685 0.027419943 -0.031991843
-0.052745495 0.044319127 0.033494223 -0.049932472 0.0065595177 -0.035177153 -5.4163414e-05 -0.02610011
-0.054546554 -0.06376493 -0.0069654887 0.024880793 0.06621506 0.0566878 0.053441398 0.01523488
0.008792283 0.005137681 0.005894858 0.06326226 0.012393608 -0.017253116 0.0072154067 -0.050067104
0.01860391 0.015058835 0.011751759 0.057131737 0.04290301 0.043480225 0.04334886 0.028298624
0.014454392 -0.056362692 0.0010401378 -0.04728196 -0.011971912 0.03398841 -0.039821528 -0.05893373
-0.069973834 0.009313829 0.052380767 -0.07719712 0.058101665 -0.025095629 -0.03788141 -0.0075091
-0.013523587 -0.052547924 0.006870796 -0.020863682 0.0043524285 -0.01616077 -0.03372035 -0.045205135
-0.08220194 0.0119524 -0.0449177 0.051961206 -0.023001222 0.07446479 -0.0140154045 -0.041978292

module.0.module.0.params.2.bias f4 [256]
00000000: 3da6 4b3d d07c a9bc 87bf 433d e816 12bd
00000010: 25c3 1bbd 814c 173d 2937 3c3d e168 4dbc
00000020: af5c aebc c035 33bd 266f 02bd 3ce7 583c
00000030: 8e94 adbc 558f 253d d6bf 2b3d 83cd 66bd
00000040: c5f4 073c 3e3a 163d 32c3 01bd 6426 c7bb
00000050: 1a02 873d 1ee4 39bd 2436 86bc 6e62 e8bc
00000060: 867f 42bd a510 d1bc 2dee 1cbd ff65 2c3c
00000070: 7f36 f4bc 199b c3bc 9a5c 17bd 3e35 f7bc
00000080: 23b8 233d c800 413c 73f5 6fbd fc46 263d
00000090: 90c2 713d 937f 223d 0eb3 58bd 7fa3 853c
000000a0: de9c 46bc 44a9 453d e176 f63c f721 adbc
000000b0: 1e75 4abd a694 0ebd 3b4c 10bd c453 39bd
000000c0: 9543 3abd 029b 2bbc 9938 333d dda3 dcbc
000000d0: 2117 b0bc 7835 18bb 01c5 aa3a 7ef9 5c3d
000000e0: 96d8 23bd 059e 7a3c 8ba0 47bb 814e 22bd
000000f0: 27dc ae3c 778c 323d 4e55 5dbd dc5b b7bc
00000100: 6c8e 313d 537f 563d 4303 653d 5fe9 edbc
00000110: c28e 123d 0778 533d bdc7 2a3d a127 373d
00000120: 864c 0e3d 397b 7cbd a1cf 03bd b417 83bd
00000130: 58d8 823d 0cec 4abd bf40 5dbc 1bee b53c
00000140: 8573 d0bc d540 8a3d 376f 673d 0cb8 5bbd
00000150: a503 8c3d acff 553d 3684 97bb 91be 6c3d
00000160: 0c1d 00bc 8268 fcbb 8bd6 54bd 50a0 81bd
00000170: e6b2 d8bc c38e 6ebd f8a7 1bbc 99c3 7a3d
00000180: bcc8 763d ee60 2c3d 8ca9 163d 5702 0dbd
00000190: 150c 8e3d 8ac1 683d 2d03 29bd 4767 c93c
000001a0: 9d14 013d 103c 193c e91a 20bd 3442 40bc
000001b0: 8b16 b2ba 9235 c63b 656d 5bbd 023b 383d
000001c0: 432e a3bc fa41 0ebd bd36 4f3d 6ea8 483d
000001d0: f657 e739 5b57 12bd 3b37 0ebd 1e51 4bbd
000001e0: 002c 233d 5751 6cb8 07c9 ebba 47db 113a
000001f0: 71ee 813d 9a6c 9cbc 06e3 22bc e9f9 38bd
00000200: ae61 373d 0d5a bd3c ad40 603d c691 09bd
00000210: d24d 17bd 3098 4bbd 6507 b9bc ec3b 9a3c
00000220: b8da 0f3d be76 0dbd 49e2 45bd 7507 a63b
00000230: 26e8 6fbd 08c8 d23c 51f5 4dbd fd51 11bd
00000240: b11f 74bd dc89 fcbc b6c8 d23c 995c 4f3d
00000250: 3551 773c 423a fdbb ee80 523b 2ad5 433d
00000260: 52d1 5dbd 830e 3e3d 73e4 c3bc adea afbc
00000270: 2427 4e3d 909f 3c3d 4b6e 643d 9587 5a3d
00000280: c1f9 483d ab07 273d ba1d 71bd 34a3 41bd
00000290: 8c82 0c3c 1cfe c0bc 7b7e 13bd 48c0 d8bc
000002a0: d8ee 49bc fa48 47bd 37c6 15bb fe5c 5fbd
000002b0: 237c 5f3d 3322 433d 41da 9a3c aae1 27bd
000002c0: b21c 4f3d 3c90 5abc 1ebf 7dbd a444 263b
000002d0: 701f 173d 3c9a 18bc 631c 483d f007 cfbc
000002e0: 6f58 8b3c 7223 163c b48f 983b 970f 69bd
000002f0: b413 873d fa6b 193d 889c e53c 269a a73b
00000300: 9088 44bd ac15 2b3c 007b 433c 70b1 32bd
00000310: 0b99 273d 7e1e 363d 6fff 27bd 4ea1 a23c
00000320: 356e 2a3d fd3b dd3c 81d2 52bd d7c5 433d
00000330: d70f 493c e95e 563d 113d 19bd 95b4 42bd
00000340: 3a92 a63c 707b 073d e020 a2bc e0ca f63b
00000350: a855 07bd a612 51bd 34f9 303d 3dab 8a3c
00000360: ab62 6e3d fd64 3dbc 5faa bc3c 5365 423d
00000370: 61b8 1b3d 246e ddbc 2155 e73a c258 1ebd
00000380: 04b1 15bd 54a2 fabc e33f 24bc c482 ce3b
00000390: 9f9e c83c 6af9 833c a345 dfbc 1d4d 7dbc
000003a0: 4e6a 87bc 6e38 81bd 114f 22bc 7297 babc
000003b0: 3108 5e3d 6a7d 163d e27a ad3c f558 7cbc
000003c0: 612b 87bc 7673 15bd 1c92 e9bc 5287 1d3d
000003d0: cd6d 2a3b 0647 4abd 3138 07bd ca57 42bd
000003e0: 7fa8 74bd 5e9a e73c 6ea5 0abd 2fba 073d
000003f0: bfbc 86bc be74 1ebd b217 223d c888 17ba
0.049719084 -0.020689398 0.047790077 -0.035666376 -0.0380279 0.036938194 0.045951042 -0.012537212
-0.02128443 -0.043752432 -0.03184428 0.013238724 -0.021189 0.040419895 0.041930996 -0.056348335
0.008298104 0.036676638 -0.031680293 -0.0060775746 0.06592198 -0.045383565 -0.016383238 -0.028367247
-0.047484897 -0.025520632 -0.03831308 0.010522365 -0.029811142 -0.023877667 -0.036953546 -0.030176755
0.03997053 0.011779971 -0.058583688 0.04059504 0.05902344 0.039672446 -0.052905135 0.016313313
-0.012122361 0.048257127 0.030085983 -0.02113436 -0.049428098 -0.03480973 -0.03522895 -0.0452459
-0.045474607 -0.010473968 0.043755148 -0.026933605 -0.021495404 -0.002322523 0.0013028682 0.05394887
-0.040001474 0.015296464 -0.0030460681 -0.03962565 0.021345211 0.04359099 -0.05403643 -0.02238267
0.043348715 0.05236752 0.055911314 -0.029041944 0.035780676 0.05162814 0.04169439 0.044715527
0.034740947 -0.06164095 -0.032180432 -0.064010054 0.063889205 -0.049541518 -0.013504206 0.022208264
-0.025445709 0.06750647 0.056502547 -0.053642318 0.06836633 0.05224578 -0.004623915 0.057798926
-0.007819425 -0.007702888 -0.051962417 -0.06329405 -0.026452493 -0.058241617 -0.009500496 0.061221693
0.06025003 0.042084627 0.036782786 -0.03442606 0.06935898 0.0568252 -0.041262794 0.02458538
0.0315138 0.009352699 -0.039088164 -0.011734534 -0.0013587041 0.0060488665 -0.053571124 0.04497815
-0.01991952 -0.03473089 0.050589312 0.048988752 0.0004412529 -0.03572784 -0.03472064 -0.049637906
0.039836884 -5.634254e-05 -0.0017988988 0.0005563986 0.06344307 -0.019094754 -0.009941822 -0.045160208
0.04477089 0.023114229 0.05474918 -0.033586286 -0.03693945 -0.049705684 -0.022586534 0.018827401
0.035120696 -0.03453707 -0.048311505 0.005066807 -0.058571003 0.025730148 -0.05028278 -0.03547858
-0.059600536 -0.030827455 0.025730472 0.050625417 0.015095045 -0.007727892 0.0032120305 0.04781071
-0.0541547 0.04640056 -0.023912644 -0.021474207 0.050330296 0.04605061 0.055769246 0.053351957
0.04906631 0.040778797 -0.05886624 -0.047274783 0.008576047 -0.023558669 -0.036009293 -0.026458874
-0.012325011 -0.04865358 -0.002285374 -0.054532044 0.054561745 0.047640037 0.0189029 -0.040986694
0.050564475 -0.013340052 -0.06194984 0.0025370503 0.036895216 -0.009314116 0.048855197 -0.02527234
0.017009942 0.009163724 0.0046558026 -0.056899633 0.06595555 0.03745649 0.028028741 0.0051148115
-0.0479818 0.010442179 0.011931181 -0.04362625 0.040917438 0.044462673 -0.041015085 0.019852307
0.041609008 0.027006144 -0.051470283 0.047796097 0.012271843 0.052336607 -0.037411753 -0.047535498
0.020333398 0.033076704 -0.019791067 0.007531509 -0.033040673 -0.051043175 0.04320641 0.016927356
0.058199566 -0.011559722 0.023030458 0.04745991 0.038017634 -0.027030058 0.0017649272 -0.038658865
-0.03654577 -0.030594982 -0.010024997 0.0063022096 0.024489699 0.01611014 -0.027254885 -0.01546028
-0.016530182 -0.06309591 -0.009906546 -0.022777293 0.05420703 0.036740698 0.02117676 -0.015402068
-0.016500177 -0.036487065 -0.028512053 0.03845913 0.0026005388 -0.04938414 -0.033012573 -0.047447003
-0.059731003 0.02827185 -0.033849172 0.033136543 -0.016447423 -0.038685553 0.03957338 -0.0005780575

module.0.module.0.params.4.weight f4 [4, 256]
00000000: 033a b1bd 1fc5 113c 072a 583d 28dc 07bd
00000010: b5c8 50bd 9863 4ebc 5722 9f3d bac6 04bd
00000020: 0a91 cd3c 8a63 eabc 5289 cf3c b89d 703d
00000030: acd3 05bd 7c19 e7bb e15d 593d d66e 2c3a
00000040: 420d 40bd 20da 713d 9c61 2dbd a377 953b
00000050: e63d a5bd 8190 0fbd 6d44 82bd 94f1 5ebd
00000060: 75ff 0ebd d6a2 77bc 999e a43d 067c a43d
00000070: 0378 723b 4610 59bc fe1b 253d 7b60 d53c
00000080: d29b 6fbd cf12 bc3b 3a85 43bd e652 6c3d
00000090: ea9a 343d ef7a 29bc 89f1 c8ba 1e4a 86bd
000000a0: 39ae 443d 82f0 933c a5e5 803d c0e3 503c
000000b0: fdfd c9bc 1533 febc 3450 8d3d f698 8d3c
000000c0: 7473 dc3b ebd8 433d a409 7bbc 6c3a 353d
000000d0: 98ea 233b 1598 223a c252 8fbc 1244 9bbd
000000e0: e88f 15bd 82c5 35bd d797 873d 1ce9 1dbd
000000f0: 3021 26bc e98a c0bc 3ce5 653d a96d 39bd
00000100: 9a28 54bc 3f79 393d 2edf 2b3b 12e4 3d3d
00000110: efa7 263d 43bc 26bd 85e9 4bbd 43ac 313c
00000120: 397a 453d f56c 803d bc99 703c f4d6 d63c
00000130: e290 87bd a4de e0bc e664 debc 4be0 fc3c
00000140: 2e5a 883d 2ff4 cbbc 4a0e 073d 7eb5 323d
00000150: 9b50 61bd 3e78 c1bc 48f7 8f3c 5f22 9fbc
00000160: 18fa 6cbc 0ba4 683d 5a03 f0bc 700d 7cbd
00000170: e318 53bd 9bb8 11bd e00b 103d 69b3 10bd
00000180: a172 4ebd cfcc 0fbd d640 f8bc 6c9a 6ebd
00000190: 0865 553d 47b5 843d 6a17 8b3b e8dd 14bc
000001a0: adb2 dabc 6fae 23bc 018a c7bc 7561 49bb
000001b0: 9162 98bb d2b5 453d 3257 483b 2630 393d
000001c0: 6a3f 823d aafd 13bd 5b9e 56bd b666 7abd
000001d0: cdc8 ecbb 0b2e cf39 d57c 323d fc84 fa3b
000001e0: 7e0e 913d 223b 753d 334a 29bc 2338 493d
000001f0: 02ad 59bc c156 48bd d12d 063d 718f a7bc
00000200: 2a89 d2ba 3c42 813c 6625 f63c 3b80 5f3d
00000210: 20f8 963d 6d04 6cbd a84e 39bd 2d22 2e3d
00000220: fade 1fbd a40d 54bc ddd6 3ebd d1f1 f9bc
00000230: 99c5 443c 5b4e 10bc ef65 4f3c e2b5 973d
00000240: 8f73 843d 8c66 9b3d f92e 57bb 1fd3 31ba
00000250: 3f6b 383d ca25 08bd 3664 15bc 51e7 0d3d
00000260: 2cb4 78bd 8cac b4bc 1045 1f3d 3656 fbba
00000270: 15ba 603d 0ce6 0e3d 9a18 95bd 1e40 84bd
00000280: fd94 363d 6857 763d 86cf ae3c 9067 8b3d
00000290: 59fa 8dbc 598d fc3a 0d9a 4abd 5441 413d
000002a0: 97bb 26bc 9879 1d3d 5b0e 1e3c c523 2cbd
000002b0: 6cde 9c3b 8f34 81bd 8c8c 6a3c f587 99bd
000002c0: 3651 e9bc 02a5 a8bd 626f 1f3d fd2d 95bc
000002d0: 3388 21bd ac14 873d 0284 e7bc 5385 273d
000002e0: 9e46 1dbc 99d9 16bd d14d e7bb 106d 163d
000002f0: da98 24bd 9f59 88bd ac1f 3a3d 205b 93bd
00000300: e09c 3ebc f53e 48bd 8eba 9f3d 8a66 a5bd
00000310: d0c0 903d eaa7 79bd cc24 98bd 1893 813d
00000320: a7ff 813d 4bd5 193d b8fb 8a3b 303b 2fbd
00000330: 26e7 5abd 279a f8bb 124e 47bc 50c5 adbb
00000340: d401 483c 8781 81bd 9e93 773d f72a a5bc
00000350: c9d3 0c3d f4b4 333c 6c3a 70bd b798 84bd
00000360: d00f 21bd f356 89bb 7306 cfbc 2ca9 23bd
00000370: ee63 a4bc a12f 923d 45e0 b1bb f1a0 c6bc
00000380: 8f45 4fbd 58f2 15bc 31bd 65bc 7142 76bd
00000390: 728d 183d 920b 243d 9045 913d 8440 1d3d
000003a0: 3aa4 913d 6aad 7d3d 34f9 ff3b 3fce e73c
000003b0: b1b2 673d 0413 73bc af1f c13b 8d2b 693d
000003c0: fe6e 3a3d c76f 54bd 48b1 873d 4653 8cba
000003d0: ecc3 8c3d 040e 7ebd d61a 0abd 3348 debc
000003e0: de01 c1bc f311 5d3c e76a adbc 6f88 a23c
000003f0: 51f1 02bd 19b3 18bb fa87 f0bc e8da 913d
-0.08653643 0.008897095 0.052774455 -0.03316894 -0.05097266 -0.012596987 0.07770222 -0.032416083
0.025093574 -0.028611917 0.025334034 0.058744162 -0.03267257 -0.0070525985 0.053068046 0.0006577795
-0.046887644 0.05904591 -0.042329416 0.004561381 -0.08068447 -0.03504992 -0.063607074 -0.054429606
-0.03491159 -0.015114507 0.080380626 0.08031468 0.0036997802 -0.013248509 0.0403099 0.026046982
-0.05849821 0.005739547 -0.047734477 0.057696246 0.04409305 -0.010344251 -0.0015330772 -0.065571055
0.048017714 0.018059019 0.06293801 0.012749612 -0.024657244 -0.031030217 0.06900063 0.017284852
0.0067276303 0.04781429 -0.015322123 0.04424517 0.0025011655 0.00062024716 -0.017495517 -0.07581343
-0.036514193 -0.04437781 0.06620758 -0.03855239 -0.010139748 -0.023503738 0.056126818 -0.045270596
-0.012949133 0.045281645 0.0026225555 0.046360083 0.040687498 -0.040706884 -0.04978325 0.010844293
0.048212264 0.06270782 0.014685091 0.026225545 -0.06619431 -0.027449913 -0.027147721 0.03086867
0.066578254 -0.02489671 0.03297261 0.043630116 -0.055008512 -0.023616906 0.017573968 -0.01942557
-0.014463924 0.05679707 -0.029298473 -0.061536252 -0.051537406 -0.035576444 0.035167575 -0.03532735
-0.050402287 -0.03510743 -0.030304354 -0.058252737 0.052098304 0.064798884 0.0042447345 -0.00908611
-0.026696527 -0.009990319 -0.024357798 -0.0030728255 -0.004650422 0.0482691 0.003056955 0.045211934
0.063597515 -0.036130585 -0.052397113 -0.06113311 -0.0072260858 0.0003951642 0.04357608 0.0076452475
0.07082842 0.059870847 -0.010332632 0.0491258 -0.013285877 -0.04891086 0.032758538 -0.02045414
-0.0016062607 0.015778653 0.03004713 0.05456565 0.07371545 -0.05762141 -0.045241028 0.04251306
-0.039031006 -0.012942705 -0.04659163 -0.030510815 0.012010002 -0.008807744 0.01265858 0.07407738
0.064673536 0.07587919 -0.0032834394 -0.00067834737 0.045024153 -0.033239163 -0.00911813 0.03464443
-0.0607187 -0.022054933 0.038884223 -0.0019175473 0.05486496 0.03488736 -0.07280083 -0.06457542
0.04457568 0.06014195 0.02133919 0.06806862 -0.01733129 0.0019268199 -0.04946332 0.047181442
-0.010176561 0.03844604 0.009646977 -0.0420263 0.004787257 -0.06308853 0.014315736 -0.07496635
-0.028481107 -0.08234598 0.038924582 -0.018210405 -0.03943653 0.0659574 -0.028261188 0.040898632
-0.009599356 -0.03682861 -0.007058837 0.036725104 -0.040184833 -0.06657719 0.04544036 -0.07195115
-0.011634082 -0.048888166 0.07799254 -0.080761984 0.07068026 -0.06095115 -0.074288934 0.06326884
0.0634759 0.037556928 0.004241433 -0.042781055 -0.053443097 -0.0075867358 -0.0121646095 -0.0053030625
0.012207467 -0.063235335 0.060443513 -0.020162089 0.03438166 0.010968436 -0.058649465 -0.064744405
-0.03932172 -0.0041912734 -0.02527163 -0.039956257 -0.020067181 0.07137991 -0.0054283463 -0.024246665
-0.050603446 -0.0091520175 -0.0140221575 -0.060121957 0.037244268 0.040050097 0.07093346 0.038391605
0.07111402 0.06193296 0.0078116897 0.028296588 0.056566898 -0.014836077 0.0058936696 0.0569263
0.045516007 -0.05186441 0.066256106 -0.001070597 0.06873307 -0.062025085 -0.033717 -0.027134037
-0.02356046 0.013493049 -0.02116914 0.019840447 -0.03196842 -0.002330011 -0.029361714 0.07121831

module.0.module.0.params.4.bias f4 [4]
00000000: f126 653b 0266 cfbc a904 e9bc c27a 603c
0.0034965838 -0.025317196 -0.028444605 0.013701143
