Future implementations/models/balance_critic.pth (torch, 317454 bytes, 5 tensors)

module.params.0.weight f4 [256, 48]
000000 a2 7f 94 3d 11 0b c0 bc f9 10 46 3e 60 b8 8c 3c
       0.072509065 -0.023442777 0.19342412 0.01717776
000010 cc 5d 8d bc 19 7b 07 bc c5 85 60 3e d6 b1 82 be
       -0.01725664 -0.008269095 0.21926029 -0.25526303
000020 1a 85 ae bb ef 63 90 bc 94 04 52 bf d9 bc 77 bd
       -0.0053259255 -0.017625777 -0.82038236 -0.060482834
000030 e8 33 68 be e7 57 75 be 85 bb 33 bd cd 33 f8 bd
       -0.2267605 -0.23959313 -0.043880004 -0.12119255
000040 e0 9a 3f bc f3 f0 6f bd fe fc 76 3e 21 2c 64 3e
       -0.01169464 -0.058579396 0.24119946 0.22282459
000050 a2 96 c3 3e 58 80 4d 3e bc 1c be 3e 40 f1 01 3f
       0.3820086 0.2006849 0.37131298 0.50758743
000060 63 0d 4a 3c dc 9d e0 bc bc 08 52 bf 67 68 c5 bc
       0.012332293 -0.027419023 -0.8204458 -0.024097634
000070 80 3a e1 be fa ad af be e0 0f aa bd 0a 9f ae 3d
       -0.43989944 -0.3431242 -0.08303809 0.08526428
000080 a6 e1 16 3d f4 96 73 3d b7 ef 41 3e f8 83 8b bc
       0.03683629 0.059470132 0.189391 -0.017030701
000090 b1 65 30 3e 23 85 f9 3c 2b c9 7a 3e 32 95 d5 bd
       0.17226292 0.030458992 0.24490802 -0.104288474
0000a0 5e 20 03 3e 84 47 b7 3d 5f 7d 39 bf 84 42 09 be
       0.12805316 0.089491874 -0.72456926 -0.1340428
0000b0 69 66 51 be a1 4d 40 be d6 f0 6f bd 10 83 f9 bc
       -0.20449223 -0.18779613 -0.05857929 -0.030458003
0000c0 03 eb 1f 3e 56 fe ed 3d c0 53 2e bd 8a ef b4 3d
       0.15616994 0.11620776 -0.04256034 0.08834751
0000d0 b2 86 ea bc 77 29 06 3d 0a db 49 bd 69 bc 6d 3e
       -0.02862868 0.032754388 -0.049281158 0.23216404
0000e0 67 6d f6 bc d2 94 23 bd 8b b7 46 be a3 8b 19 be
       -0.030081464 -0.039936848 -0.19405954 -0.14994673
0000f0 27 78 c4 bd b7 41 69 be cf 81 0d 3e f1 5a 68 3d
       -0.0959323 -0.22778974 0.1381905 0.056727353
000100 5b 31 e6 bd 6f c2 ec bc 60 20 83 3d ff b8 5f be
       -0.112398826 -0.028901307 0.064026594 -0.21847914
000110 01 1a fd bd b0 52 60 3d f6 1e d1 3c 12 f5 a4 3e
       -0.123584755 0.054766357 0.025527459 0.32218224
000120 45 aa d2 3d 52 9e 71 3c c4 16 05 be 22 ee ae be
       0.102863826 0.014747219 -0.12996966 -0.34166056
000130 b8 f3 84 3c a4 9e a8 bc af 23 77 3d bc 83 ea bc
       0.016229495 -0.020583458 0.060336765 -0.028627269
000140 7e 1e d2 3d 88 0c 8f 3c 29 f3 f4 bd 57 48 75 bc
       0.10259722 0.01746203 -0.119604416 -0.01497086
000150 74 3e 0a 3e 77 34 69 3d 6f 05 ba bd b3 00 ae 3d
       0.13500386 0.0569348 -0.090830676 0.08496227
000160 03 00 07 bc 9d 78 e5 bd 7a 0b 18 be c3 df 95 be
       -0.008239749 -0.11204646 -0.14848128 -0.2927228
000170 3f 00 72 bd 63 6a 9f bd 3d 43 54 bc 64 cb 0f 3e
       -0.059082266 -0.077839635 -0.012955484 0.14042431
000180 97 83 1e 3d 71 c3 bd 3c de e7 dc bc 6c 6b cc 3d
       0.038699713 0.023164483 -0.026966032 0.099814266
000190 4d be 0c be 6d 1a f1 bd 0b b2 b1 bd a1 38 f0 3d
       -0.13744469 -0.117726184 -0.08676537 0.11729551
0001a0 6c 49 d8 bd 38 50 bd bd fc 2a a5 3c 02 a6 ab be
       -0.10560879 -0.09243816 0.020162098 -0.3352509
0001b0 39 51 45 be 57 1b 69 bd e1 8c 03 be 63 c8 28 bd
       -0.19269265 -0.05691084 -0.1284671 -0.04120673
0001c0 fb 76 14 3e 37 14 e6 3d 3c 4b 6f 3d 52 4f 19 bd
       0.14498512 0.112343244 0.05842136 -0.03742916
0001d0 de 10 ba bd 6d f7 1a 3e e7 e0 8e 3d 4a da 0d 3e
       -0.090852484 0.15133448 0.069764905 0.13852802
0001e0 bd e2 a1 3c b1 eb db ba 10 e3 09 be 25 b2 fe bd
       0.019761438 -0.0016778616 -0.13465524 -0.12436322
0001f0 bd 0a a8 bd 57 8e 66 be 46 40 95 bd ee 04 19 be
       -0.08205173 -0.22515236 -0.0728765 -0.14943287
000200 36 2b c3 3d ce e2 b0 3c 40 80 9d bd b3 20 a8 bd
       0.09529726 0.021592524 -0.07690477 -0.08209362
000210 a4 34 4f bb fd 4c 05 3e 91 41 54 3d e6 fc 19 3e
       -0.003161707 0.1301765 0.05182034 0.1503788
000220 93 7b ef bd b9 3d 34 bc c4 8f 2c bd 69 9a a9 be
       -0.11693492 -0.011001044 -0.042129293 -0.33125618
000230 65 57 89 bd 7a 24 fe bc e8 1c e2 bd 38 fb 41 3d
       -0.06706122 -0.031023253 -0.1104067 0.04735872
000240 8b a4 03 be 4d 24 0d 3d c8 39 7e bc 00 08 36 3e
       -0.12855737 0.034458447 -0.015516706 0.1777649
000250 78 2c c2 bd 33 1c bf bd 38 6f 8f 3d f7 f7 13 be
       -0.09481138 -0.093315504 0.07003635 -0.1445006
000260 48 a8 59 bb c4 59 8a 3c 4e 49 02 3e b2 ea fe 3c
       -0.0033211876 0.016888507 0.12723276 0.03111777
000270 2f 47 4a bd ad 54 34 3d e8 79 80 bd c8 1e 8b 3c
       -0.049384292 0.044026066 -0.06273252 0.016982451
000280 67 f3 32 3d 7b cb 4d bb 2f 11 ac 3c e1 5b 3b 3e
       0.043689158 -0.0031401801 0.021004288 0.18296768
000290 c1 8a c2 bc 60 b5 c4 bd 6c a3 85 3d 2c a7 58 be
       -0.023747804 -0.09604907 0.06525311 -0.21157521
0002a0 3b fe 81 bd 4f 8a ba 3d cd dd e9 3d 53 88 dc 3d
       -0.06347319 0.091084115 0.11419258 0.10768189
0002b0 54 ce 8b 3d f9 68 0f 3d 90 56 9e 3b d3 4c 87 bd
       0.06826463 0.03501222 0.0048320964 -0.0660645
0002c0 75 45 94 3d a8 46 fe 3d 19 ea 18 3e 2b 9f 8f bd
       0.072398104 0.1241582 0.14933051 -0.07012781
0002d0 2f 6a 7b bd e2 58 01 3d 5f 60 ed 3a 11 26 87 bd
       -0.06138056 0.031578906 0.0018110386 -0.065990575
0002e0 36 2d 71 bd bc 75 a4 bd 1a bc 2e 3e 95 29 cb 3d
       -0.058881007 -0.080302685 0.17063943 0.099200405
0002f0 41 49 f5 bd 63 08 8e 3d c9 90 cd 3d cc c7 c5 bd
       -0.11976863 0.069351934 0.10037381 -0.09657249
000300 68 2f ef bd fb c9 c3 3b e8 7e 00 3e 0c 40 94 3d
       -0.11678964 0.0059750057 0.12548411 0.072387785
000310 96 51 2b 3e ce c5 c6 bd b7 94 7d bd a3 83 35 3e
       0.16730341 -0.09705697 -0.061909404 0.17725997
000320 ce 3b 13 be 61 b8 67 b9 99 2b 85 3d b6 83 89 be
       -0.14378282 -0.00022098563 0.06502456 -0.268583
000330 5e d9 03 be 9c 21 33 be b4 19 d8 bd 67 08 28 bd
       -0.12875888 -0.1749329 -0.105517775 -0.041023638
000340 dd 0e 93 3d db f0 9f bc 99 e6 ee bd aa 0a e0 3b
       0.07180569 -0.019524029 -0.11665077 0.0068372088
000350 99 61 9d 3d a6 92 8f bd 07 e1 09 be a4 0f 68 3e
       0.07684631 -0.07010393 -0.13464747 0.22662216
000360 dd d7 82 3d 94 b0 af 3d b3 37 49 3c a2 ab 9d be
       0.06388829 0.085786015 0.012281346 -0.30795008
000370 86 f0 1c 3d e9 fc 0f be 43 ec 8f bd de 89 05 3d
       0.03831532 -0.14061321 -0.07027485 0.032602184
000380 5c d3 da 3d 44 9d ee bd b5 ea 6b 3d 20 62 c4 3b
       0.10684845 -0.1165109 0.05759688 0.0059931427
000390 fa 46 b4 bd 42 6a 1d bd bc 51 ab 3d fa d4 3a 3e
       -0.088026 -0.038431413 0.08365199 0.18245307
0003a0 78 22 1c bd 07 6e 73 bd 93 0e 30 be c6 9a 27 be
       -0.03811881 -0.059431102 -0.1719306 -0.16367635
0003b0 39 e1 87 bd 06 35 04 be e8 6e ca 3b 86 1a c7 3c
       -0.06634755 -0.12910852 0.006177772 0.02430464
0003c0 91 2b 83 3d cf e2 26 bd 53 85 53 3e 10 1a 12 be
       0.06404794 -0.040743645 0.20656328 -0.14267755
0003d0 00 2b 38 be 15 62 4f bd c1 59 76 bb c6 24 3f 3e
       -0.17985153 -0.050630648 -0.0037590119 0.18666372
0003e0 99 fb d8 bc 9d b1 de 3d 1f 13 39 3e 72 75 38 bd
       -0.026487159 0.10873721 0.180737 -0.04503388
0003f0 4f 10 89 3e a3 27 9a 3d 02 ab 4f bd b8 2b c5 3d
       0.26770255 0.07527091 -0.050700195 0.09627479

module.params.0.bias f4 [256]
000000 a5 95 91 bd d4 a4 99 bd 46 86 1a 3e c1 d4 47 be
       -0.071086206 -0.075021416 0.15090284 -0.19514753
000010 a4 f2 58 bd 35 2a 0e 3e 3b 94 c4 bd af b3 1e be
       -0.052965775 0.13883288 -0.09598585 -0.15498231
000020 e5 fc 0e 3e 82 91 8a 3c 6c 72 00 3e 0c 03 f8 bd
       0.13963659 0.016915087 0.12543648 -0.12109956
000030 93 90 ab bd 1a 52 79 3d 7a df d6 3d 7b 6f 40 bd
       -0.08377185 0.060869314 0.104918435 -0.046981316
000040 a9 33 24 be 1e f7 c4 3b 58 49 db 3d a0 7a a9 3d
       -0.16035332 0.006010904 0.107073486 0.08275342
000050 9c 55 0c 3e 4f 8d 2c be de 9e 81 3c a5 db 7c bd
       0.13704532 -0.1685078 0.015822824 -0.061732907
000060 04 44 8d 3d 8e 9d 04 3e 21 4e ab 3d 05 c1 b3 3d
       0.068977386 0.12950727 0.08364511 0.0877705
000070 18 f4 cd 3d b7 b6 1d 3e fb a9 11 3e 99 2b 77 3d
       0.10056323 0.15401731 0.14224999 0.060344312
000080 f7 bc ad 3d 94 5a 19 be 02 16 12 be 93 7a d0 3d
       0.08483308 -0.14975959 -0.14266208 0.10179629
000090 6d 58 b8 bd 26 6e e5 bd c9 29 25 3d ee 9d 29 bd
       -0.09001241 -0.1120265 0.040323053 -0.04141038
0000a0 91 33 ee bd 1e 7c 02 3d 4b f1 08 3e c9 4f e9 3c
       -0.11630929 0.03185665 0.13373296 0.028480427
0000b0 66 4e 2a be 6d 23 23 3e b0 b1 29 be e5 71 51 bc
       -0.16631469 0.15931483 -0.16571689 -0.012783502
0000c0 98 22 61 bd 1d 94 23 3d e7 ad be bc cd 6a 99 bd
       -0.05496463 0.039936174 -0.023276282 -0.07491074
0000d0 fc 81 82 bd d0 bc 42 3c ed d0 12 3d ba f6 4a 3e
       -0.06372449 0.011885837 0.03584378 0.19820681
0000e0 d5 b3 a2 bd eb 07 c4 bd 67 39 34 3e 1d fd a5 3c
       -0.079444565 -0.09571823 0.17600022 0.020262295
0000f0 d3 05 21 be 67 f5 e9 3b 8c de 38 be 46 b5 d8 bd
       -0.15724878 0.00713985 -0.18053645 -0.1058145
000100 e9 11 43 be 29 e8 08 bd 46 cd 81 bd 8b f6 33 3e
       -0.19049801 -0.03342453 -0.06337981 0.17574517
000110 59 f6 ee bd 87 6f 21 bd d2 c9 93 3d 3e e8 c4 bd
       -0.11668081 -0.039413 0.072162285 -0.09614609
000120 89 62 96 3d 52 63 d4 bd 72 7f 93 3d 60 6d 2e be
       0.07343013 -0.10370506 0.07202043 -0.17033911
000130 80 fe 7f ba 4e 3a f5 bb 08 89 54 bd ec 2e 86 3c
       -0.00097654015 -0.007483757 -0.051888496 0.016379796
000140 f7 06 0a 3e 50 34 12 be 13 36 6f 3e 0d f2 b1 bd
       0.1347922 -0.14277768 0.23360471 -0.08688746
000150 d9 98 fd 3d 12 ef 5d 3d 5e 2b 01 be 5f 1e 6c 3c
       0.12382669 0.054183073 -0.126142 0.014411538
000160 7d f6 2f be 6f 9c 83 3d 32 fa 0c 3d 9c 70 f3 bb
       -0.17183872 0.06426322 0.034418292 -0.0074291956
000170 0e f4 a3 bc d5 13 ce bd 3b ec 03 3e 91 e0 10 3d
       -0.020013835 -0.100623764 0.12883084 0.035370413
000180 01 e2 24 bd 22 44 01 3e 1c 7f 56 3d fc 24 0a 3d
       -0.040254597 0.12623647 0.052367315 0.033726677
000190 22 ca 3e be 77 3b 23 3c 07 ee c5 bd b5 b1 06 be
       -0.18631795 0.009962908 -0.09664541 -0.13153727
0001a0 ba a0 01 bc b8 c3 6f be a9 53 df 3d 5d 58 42 3d
       -0.007911855 -0.23414505 0.10904629 0.04744755
0001b0 b0 cd 1d 3c 08 eb 5b bb 17 76 a8 bd 53 f6 9e bd
       0.009631559 -0.0033556838 -0.08225649 -0.07761826
0001c0 21 2b 45 3d 54 55 de bd 67 35 98 bd af f5 2b 3d
       0.048136834 -0.10856119 -0.07432061 0.04198235
0001d0 74 a3 5f bd 88 6e 56 3d 04 37 4e 3e 27 66 97 bd
       -0.05459924 0.052351505 0.20138174 -0.07392531
0001e0 b0 7e fc bc ee 4d 6b bd 40 c2 ea 3d 10 7e aa bd
       -0.030822128 -0.057447366 0.114628315 -0.08324826
0001f0 5e a7 c4 bd b5 38 74 3d c9 fc 93 bd 20 d7 0b be
       -0.09602235 0.059624393 -0.07225949 -0.13656282
000200 5a ed 14 3e 56 79 03 be 05 c0 8c bd 04 56 bb 3c
       0.14543667 -0.12839255 -0.06872562 0.022868164
000210 2c d6 78 be b1 86 05 3e 24 8f 2c be bc 69 15 3e
       -0.2430045 0.13039662 -0.16851479 0.14591116
000220 c8 a8 54 bb bb aa 1b be 2a c0 e1 3d 2b 61 24 3c
       -0.0032449234 -0.15201847 0.110229805 0.010032932
000230 cd 62 31 bd fa a3 55 be 01 b7 84 3d 18 8e 6f 3e
       -0.043307114 -0.20863333 0.06480218 0.23394048
000240 05 e2 9d 3d bb 16 38 be ce 37 bc bd ae 9f 46 3d
       0.077091254 -0.17977421 -0.091903314 0.048492126
000250 35 d3 2c be af 07 47 bd 8f c9 ae bd 87 64 86 3d
       -0.16877444 -0.048591312 -0.08534538 0.06562143
000260 a9 18 af bd 05 12 6e 3b 7c dc ee 3d 70 00 31 be
       -0.085496254 0.0036326658 0.11663148 -0.17285323
000270 39 c1 ad 3b 15 21 e0 3d 81 a6 60 3d 41 26 7d 3d
       0.005302575 0.1094381 0.05484629 0.06180406
000280 5d de d5 3d 44 b0 c7 3d 1f fd 30 3d 1a 82 c7 3b
       0.10442803 0.09750417 0.043210145 0.0060885074
000290 fd d2 0e 3e f7 40 17 3e 49 d5 78 3d 0d 44 18 be
       0.13947673 0.14770876 0.06075028 -0.1486971
0002a0 b4 79 2d be c1 6a 1e 3e 6a e4 eb bc cf 8e cf 3d
       -0.16940957 0.15470411 -0.02879544 0.101346605
0002b0 ae c9 e5 bd dd ab b5 3c ed f6 bc bd fc 3c 22 3e
       -0.11220108 0.022176677 -0.09226785 0.15843576
0002c0 91 24 c9 3d 72 98 24 be f8 b3 fb bd 5c f8 93 bd
       0.098214276 -0.16073778 -0.12290186 -0.07225105
0002d0 94 4f f3 3d dc 63 92 3d 28 4d f9 3c f9 9b e9 bd
       0.11880413 0.07147953 0.030432299 -0.114067025
0002e0 61 3e 1d 3d a7 2d b4 bb 64 a1 a3 bd 19 30 4e 3e
       0.038389567 -0.0054986062 -0.07989767 0.20135535
0002f0 dd 85 2f be 56 cf 09 bd 37 90 e4 3d ef 26 08 3e
       -0.17140909 -0.033644997 0.11160319 0.13296102
000300 67 1a a2 3d e8 f5 52 bd 98 74 b0 3d 41 15 09 3e
       0.07915192 -0.051504046 0.086159885 0.13387014
000310 e1 1b 16 be 41 b8 86 bd cf 42 cd 3d 8f 89 29 be
       -0.14659072 -0.065781124 0.10022508 -0.1655638
000320 ae f3 27 3c 34 e2 e7 bd b0 7f 26 bd fb 5d 8f 3d
       0.010250969 -0.11322442 -0.040649116 0.07000347
000330 fe e1 10 be 28 31 c7 bd eb 4c 38 3d d3 4e 55 39
       -0.14148709 -0.09726173 0.04499523 0.00020342627
000340 2d a9 31 3e ff 3a 8f 3c 18 8e 1b be f2 68 1f be
       0.17349692 0.017484186 -0.15190923 -0.15567377
000350 0c e0 32 3d d8 48 03 3c 08 fa 28 3e d8 76 53 3d
       0.0436707 0.008012973 0.1650163 0.05162701
000360 42 b1 06 3d 9e c3 28 3e dc a2 d4 bc 81 f2 b1 bd
       0.03288389 0.16480872 -0.025956564 -0.08688832
000370 4c 07 d3 bd cf 77 80 3d d7 e7 d9 3d a4 18 9a 3d
       -0.10304126 0.06272852 0.10639923 0.07524231
000380 81 a0 48 bb 96 63 09 be 96 4d e0 bd 83 46 39 3d
       -0.0030613246 -0.13416895 -0.10952298 0.04523326
000390 c1 ce db 3d ae 51 17 be f8 f2 48 3e 5a fe 33 3e
       0.107327946 -0.14777252 0.19623935 0.17577496
0003a0 5f 9b 2d bd 07 4c 41 bd ae d9 32 be 23 85 5d bd
       -0.0423845 -0.047191646 -0.1746585 -0.054082047
0003b0 f4 62 ad bd 09 8a dc bb 06 5b c6 3d 28 93 97 bd
       -0.084661394 -0.0067303223 0.0968533 -0.07401115
0003c0 6b 1e 05 3d cf aa b1 bd 5e 76 66 bc e1 67 20 be
       0.032499712 -0.08675157 -0.014066307 -0.15664627
0003d0 1b cf 2b 3e 41 cc 14 3d 71 29 6d bd 72 08 a9 bd
       0.16778223 0.036327604 -0.05790085 -0.08253564
0003e0 f5 56 c0 bc 96 ac 09 be a0 05 e2 bd de b8 ea bd
       -0.023478964 -0.13444743 -0.11036229 -0.11461042
0003f0 20 26 91 bc f8 81 89 bd dc 98 23 3e ff e9 00 bd
       -0.017718375 -0.06714243 0.1597628 -0.031473156

module.params.2.weight f4 [256, 256]
000000 b7 ee a5 3c 80 6a ed 3c 68 ba 09 bb 27 cf 91 3d
       0.02025543 0.028981447 -0.0021015648 0.07119589
000010 bd 04 0d be 5e bf 2f 3d df 37 97 3d 9f 92 c5 bd
       -0.13771339 0.04290711 0.073837034 -0.096471064
000020 41 58 12 3d 94 a3 35 bc 4f 50 30 bd e1 03 9c bd
       0.035728697 -0.011086363 -0.04304534 -0.07617927
000030 05 d3 97 bc 30 44 cd bd 78 e2 c3 b9 73 46 b8 bd
       -0.01853324 -0.10022771 -0.0003736203 -0.08997812
000040 02 60 8d bd 7f ea 0c 3d e1 b8 0a bd ce 47 e4 bc
       -0.06903078 0.03440332 -0.03386772 -0.02786627
000050 1f 1c af bc 90 0e 9c 3c 4c 70 38 3c 17 68 8a bd
       -0.021375714 0.019049913 0.011257242 -0.06758135
000060 f9 9c 09 3d 14 a9 b7 bb 0c c8 00 3e 64 1e 34 bb
       0.033596966 -0.0056048725 0.12576312 -0.0027483935
000070 ef 70 b1 3b d2 2a de 3d 58 91 d9 3b 7c 2a 8b 3d
       0.005415074 0.10848011 0.006639641 0.067952126
000080 50 b4 64 bd 67 48 b5 3c d8 60 94 3d 94 39 63 3c
       -0.055836022 0.02212925 0.07245034 0.013868708
000090 ca d9 d3 bc a6 a2 1a bd da 02 84 bc c5 60 a5 3d
       -0.025860686 -0.03775277 -0.016114641 0.08075098
0000a0 a0 ec b3 bb ac cd 66 3c 4f 39 86 3d 7b 03 de bc
       -0.0054908544 0.014087122 0.065538995 -0.027101269
0000b0 87 71 c5 3b 08 3a e7 bd 0f a6 5c 3d be 54 ee ba
       0.0060254964 -0.112903655 0.053869303 -0.0018183214
0000c0 4b b5 1b 3c c6 58 86 3d 47 79 f7 3c 2b 12 db 3b
       0.009503673 0.06559901 0.030209197 0.0066855154
0000d0 8b bb 66 3c 3a ee fa bc b5 60 88 3c dd e2 49 3d
       0.0140828 -0.030631173 0.016647676 0.04928862
0000e0 72 4c 83 bd 95 ea d6 3d fb 50 5d 3d 82 44 0b 3e
       -0.06411065 0.10493962 0.054032307 0.13600352
0000f0 ce 9f 9d 3d 32 67 6b 3d 0a af f4 bc dd 58 81 bd
       0.07696496 0.05747146 -0.029868621 -0.063157775
000100 b2 6f 2c bd ca e7 a0 bc 42 28 4e bd 11 1c 09 bd
       -0.04209871 -0.019641776 -0.05033136 -0.03347403
000110 13 6f 93 bd cb e3 53 bd 74 79 0b bc c6 6a 73 bd
       -0.0719892 -0.051730912 -0.008512843 -0.059428
000120 d1 4b c1 bc 30 14 69 3d b8 5f 0d 3b 3a a6 8b 3c
       -0.023595722 0.056904018 0.0021571945 0.017047036
000130 fd 08 f5 bd 54 30 b4 bd 91 3c f0 bc d0 09 a4 3d
       -0.11964605 -0.0879828 -0.029325755 0.08009684
000140 92 ff 48 3b f6 d2 84 bd eb d5 b1 3d 55 1f 8a 3d
       0.003066991 -0.0648555 0.0868338 0.06744257
000150 fa 54 8c 3a 87 20 79 3c 72 3d 71 3d 91 e4 93 3d
       0.0010706477 0.015205509 0.05889649 0.0722133
000160 7c 3c 10 bd 29 40 96 3c bd f5 b9 bd 2e c3 45 3d
       -0.035213932 0.01834114 -0.09080074 0.04828184
000170 dd 51 d9 bc 18 2f 28 3d 83 68 de bc ad 28 75 3d
       -0.026528293 0.041060537 -0.027149444 0.059853245
000180 0c 96 04 bd 81 ab 4a 3d c1 ee bd 3d 8c d0 9c 3c
       -0.03236966 0.049479965 0.09274054 0.019142412
000190 71 d0 48 bc 32 09 33 3d 72 4e 9e 3c 56 31 fa 3c
       -0.012256728 0.04370994 0.019324515 0.030541103
0001a0 24 93 21 bd eb 2c 53 bd 35 99 22 3d a6 10 3f 3d
       -0.039446965 -0.05155651 0.03969689 0.046646737
0001b0 78 b2 db bd 21 85 80 3c 9f 02 c5 bb 7f 82 d1 3b
       -0.107273996 0.01568848 -0.0060122753 0.00639373
0001c0 1f 20 0e 3d 15 2f 16 bd 47 42 88 3d 51 bf 41 3b
       0.0346986 -0.036665995 0.066532664 0.0029563496
0001d0 45 9d 2d bd c4 47 f3 3d 87 ae 5d bd f8 1f d7 bc
       -0.042386312 0.118789226 -0.05412152 -0.026260361
0001e0 1d f8 3d bb 77 55 af bc be 50 07 bd 47 1c d6 3c
       -0.0028986998 -0.021403058 -0.033035986 0.02613653
0001f0 bb 6f 6c bd 6b 16 d1 bd 5b 72 6e 3d 6f 81 9d 3d
       -0.057723742 -0.10209354 0.058214527 0.07690703
000200 56 af 58 3d eb 9c 3d bd 38 2b 0c bd 63 e6 4b 3c
       0.05290159 -0.046292227 -0.034220904 0.012445065
000210 91 d3 00 bd 82 40 d3 bd 47 73 fc bc 78 94 eb 3c
       -0.031451765 -0.10315038 -0.030816687 0.028757319
000220 ac d2 3e bd 27 d2 2c bc d5 42 83 3c a9 a5 2b 3d
       -0.04658763 -0.010548151 0.016023079 0.041906033
000230 9a 50 8c 3d 8f 63 85 bd 7e 14 c5 ba 27 b6 57 3d
       0.06851311 -0.0651313 -0.0015036014 0.05266395
000240 c2 a8 0a 3d 81 6f 59 bd 6a c2 c3 bd 5f f8 ac bd
       0.033852346 -0.053084854 -0.09558566 -0.084458105
000250 a2 5b a3 3d 3f b8 49 3d d4 2c 30 3c b7 e3 d9 3c
       0.07976462 0.049247976 0.010752875 0.02659784
000260 95 90 b1 3d 83 11 a8 3d ab f6 8b ba da 82 b6 bc
       0.08670155 0.08206465 -0.0010678371 -0.022279192
000270 bc 34 b6 bd ee fd ab 3b 8f 74 55 3d 83 5a 1c 3d
       -0.08896777 0.0052487766 0.052113112 0.038172256
000280 56 60 16 bd a6 0a 8d 3d d4 f4 01 3d d3 35 6f 3c
       -0.036712967 0.06886797 0.031727627 0.014600235
000290 c2 79 3c 3d 90 cf 59 bd 7b e2 12 3d 13 dc 31 bd
       0.046014555 -0.053176463 0.03586052 -0.04342277
0002a0 22 46 2f 3d 9d 4f 15 bd ed b0 11 bc 34 68 ed 3c
       0.042791493 -0.03645288 -0.00889228 0.028980352
0002b0 be a9 0f 3d f1 f5 d3 3c 9d db cd 3d 97 a8 33 3d
       0.03507399 0.02587411 0.100516535 0.04386195
0002c0 12 30 f1 bd 2e a1 01 3d 95 80 95 bd ba f0 3a 3d
       -0.11776747 0.031647854 -0.07299916 0.04563973
0002d0 3f 9e 76 bc 35 3e 98 3d 5e 3d 9a ba ea 61 12 bd
       -0.015052377 0.0743374 -0.0011767556 -0.03573791
0002e0 ca 49 aa bd 2f e7 c0 bd 33 f9 89 bd 9a 5e 79 3d
       -0.083148554 -0.09419095 -0.06736984 0.060881235
0002f0 21 79 12 bd 2d a1 3b bd dc 1d 4b bd f1 bd 8a 3d
       -0.03576005 -0.045808006 -0.049589023 0.0677451
000300 d4 3b b5 bd 2a 61 a0 3d d4 26 d9 3c 74 d7 db 3d
       -0.08849302 0.078310326 0.026507773 0.10734454
000310 54 87 c5 bc 6f 1a cc 3c 74 d6 74 3d 73 d3 34 bb
       -0.024112381 0.024914948 0.05977483 -0.0027591854
000320 42 af 77 3b a8 3a 64 bb ac 00 81 3d 3a be b1 3d
       0.003779367 -0.0034825 0.06298956 0.08678861
000330 76 96 a7 3b 03 eb 8c bd a9 b1 26 3e 8e a0 01 3d
       0.005114372 -0.068807624 0.1627871 0.031647258
000340 45 9a 90 bd 30 4c b4 bc df c6 c1 bc 31 1f e1 bb
       -0.070606746 -0.022008985 -0.0236544 -0.0068701734
000350 6a 73 f9 bd 4c 7c 8f 3c 25 79 05 bc 50 5c e0 3c
       -0.121802166 0.017515324 -0.008146559 0.027387768
000360 bf 67 9e bc 21 15 a6 bc a6 b9 dd 3c ee 16 73 3c
       -0.01933658 -0.020273747 0.027066063 0.01483701
000370 c0 47 04 3d 36 d7 6d bc 61 cf a7 bd 5b 14 06 bd
       0.03229499 -0.014516642 -0.08193851 -0.032734256
000380 8e 41 c5 3c c8 00 a7 bd 82 fc 8a 3c 64 0d 8d bc
       0.02407911 -0.08154446 0.016966108 -0.0172183
000390 43 fa 86 bc 70 bc 9d 3c d9 e8 15 3d 4b 1b 30 bd
       -0.016476756 0.019254893 0.036599014 -0.04299478
0003a0 1d 34 89 3d b7 12 3d bd f9 5b ab bc f6 ef 04 3c
       0.06699393 -0.046160426 -0.02091788 0.008113852
0003b0 fa 5f 4f 3d b8 db d0 3d 83 9e 54 bb 70 93 66 3d
       0.05062864 0.10198158 -0.0032443113 0.05629295
0003c0 fa 6c 98 3d 9b 3c 62 3c a0 46 09 3c 60 3a 46 3c
       0.07442661 0.013808395 0.008378655 0.012098879
0003d0 90 80 28 bd 06 af c0 bd 16 41 e2 bd c6 53 b5 bd
       -0.04113823 -0.09408383 -0.110475704 -0.08853869
0003e0 f8 c6 55 bd 43 d4 43 3c 63 14 b2 3d df bd 89 bd
       -0.052191705 0.011952463 0.08695295 -0.06725668
0003f0 4e be 51 bc d5 1f 45 bd 49 75 3b 39 66 44 a4 bb
       -0.01280172 -0.04812606 0.00017877402 -0.0050130365

module.params.2.bias f4 [256]
000000 eb b0 77 3d 3f 79 67 3c 73 3c e0 bd b5 40 ad bd
       0.060471456 0.014128028 -0.1094903 -0.084596075
000010 07 5b 36 bd 69 17 3d bb d0 e8 ad 3c 88 56 7b bd
       -0.044520404 -0.0028853065 0.021229178 -0.06136182
000020 a5 f5 cd 3d eb db 01 3d 9c 39 f2 3d 68 39 15 3d
       0.100566186 0.03170387 0.11827394 0.0364317
000030 28 b6 85 3c 0f f8 02 bd 9e 3f 45 3b 8d 80 67 bc
       0.01632221 -0.03197485 0.0030097733 -0.01412977
000040 b1 13 8d bb 8a 8d 05 3e e5 2b 1a bd 01 2f c1 3d
       -0.004305326 0.13042274 -0.037639517 0.094327934
000050 0e 30 4d 3d e9 6e e8 bc be 0b 50 3d 1c 0e af 3c
       0.050094657 -0.028373199 0.05079245 0.021369033
000060 64 9e 9c 3b 0c 87 c6 3c 44 89 07 bd 01 d7 3e 3a
       0.004779624 0.024234317 -0.03308989 0.0007279963
000070 be 51 ba bd 8d 7e 43 bd f2 59 b2 3b 85 1b d0 bd
       -0.09097622 -0.04772811 0.005442851 -0.10161499
000080 9a a6 82 3d a9 82 af bc 27 40 84 3d 73 5b e6 bc
       0.06379433 -0.021424608 0.064575486 -0.028119778
000090 1f b1 53 bc 09 10 cb 3c 53 77 9a bd 71 4b ec bc
       -0.012920647 0.02478792 -0.075422905 -0.028844567
0000a0 23 43 c7 bc c1 d3 75 3c 54 f4 c6 3d e3 1c 69 bc
       -0.024324005 0.015004099 0.09714571 -0.014228079
0000b0 f9 ac 81 3c dd 38 fe bd 30 2d 04 bd 40 94 f8 3c
       0.01582955 -0.124131896 -0.032269657 0.030344129
0000c0 05 a1 5d bd ae ab 8f bd b3 fb 8d 3d b6 ad 96 3d
       -0.05410864 -0.07015167 0.069327734 0.073573515
0000d0 83 5b 93 bc a1 3d 78 bc 05 36 a6 bd 28 c0 9b bd
       -0.017987972 -0.015151412 -0.08115772 -0.0760501
0000e0 e1 1b da bd 66 78 f6 bd 7e 7d fa bc 61 fc 4a bd
       -0.10649849 -0.12034683 -0.030577417 -0.049557094
0000f0 df 9c cb 3d fb d5 0b be 6e 6c bf 3d 34 5e 81 3d
       0.0994203 -0.13655846 0.09346853 0.06316796
000100 d0 27 0c bd ec 03 6d 3d fc 3f 95 bd 4c dc bb bd
       -0.034217656 0.05786507 -0.07287595 -0.09172878
000110 18 2b a8 bd 0f 71 a4 bd 3f 0d 9d 3c bb eb 3a bd
       -0.082113445 -0.08029377 0.019171355 -0.045634966
000120 5e 0e 17 3d a7 72 02 3d d0 25 f5 bb ce d2 cc bc
       0.036878936 0.031847622 -0.0074813142 -0.025002863
000130 51 86 9b bd 3d d7 00 be 07 14 e7 bc 8b a5 89 bd
       -0.07593978 -0.12582107 -0.028207792 -0.06721028
000140 da df f7 b9 ac c3 27 bd 15 bf 33 bc 47 e7 a9 3a
       -0.00047278294 -0.04095809 -0.0109708505 0.0012962603
000150 98 1b 25 3e 32 7e c7 3d ff 0a 8f 3d 7e 8e 90 3d
       0.16123807 0.09740867 0.06984519 0.07058428
000160 a8 73 c4 3c e0 40 ec bd fd 71 11 3e 17 28 f5 bc
       0.02398093 -0.115358114 0.1420364 -0.029926343
000170 d7 0f 77 3c 1b 1d fe bd a9 7c 01 bd f3 11 7d 3c
       0.01507946 -0.12407895 -0.031613026 0.015446174
000180 d2 28 b5 3c 0f 3a 9a 3d c7 c5 19 3c 80 b0 e9 3d
       0.022114191 0.07530605 0.009385533 0.11410618
000190 7c b5 bf bd fe fb 8f 3d ed 37 92 bd b3 c8 8b bd
       -0.09360787 0.070304856 -0.07139573 -0.0682539
0001a0 ce 1c f4 3c b7 b5 f5 bc 4f cc d1 3d ee 0c 33 bd
       0.029798891 -0.029993875 0.10244047 -0.043713503
0001b0 30 23 ea 3d 37 5e 53 bd d0 a9 b2 bd 4c 64 d8 b9
       0.11432493 -0.051603522 -0.087237954 -0.00041273457
0001c0 a2 4a 14 3c 19 5b c0 bd 53 29 cf bd 82 cf 72 bd
       0.009050997 -0.093923755 -0.10115304 -0.059279926
0001d0 9a 4b a1 bb 4a 65 50 bc b1 fc 92 3c 5c 39 5a bc
       -0.0049223425 -0.012719462 0.017942758 -0.01331934
0001e0 8d 1d ff 3c 54 2a b7 3d 3c df 4e 3c d6 03 0a 3e
       0.03114202 0.0894362 0.012626465 0.13478026
0001f0 44 c9 b6 3d ad bd 8f bd e8 6c a6 3b 1c c8 00 3d
       0.08925107 -0.070186 0.0050789006 0.03144084
000200 d1 77 9d 3b 02 12 ad 3c eb 01 66 3d 27 e9 06 be
       0.004805543 0.02112675 0.056154173 -0.13174878
000210 39 d6 02 3e 4b 55 8d bc d8 24 68 bb 17 7b 9a bb
       0.12777032 -0.017252585 -0.0035422351 -0.0047143805
000220 95 84 db bc d9 e7 60 bc 39 b7 3d bd b9 07 48 3c
       -0.026796618 -0.013727152 -0.046317313 0.0122088725
000230 82 ac ef bd e6 40 74 3d a0 4f fa bb bc 74 e3 3c
       -0.11702825 0.059632204 -0.0076388866 0.027765624
000240 6f 38 95 3c 36 a3 76 bc 48 b1 b9 3d ff 2d 92 bc
       0.018215386 -0.015053561 0.09067017 -0.017844198
000250 ce 61 4d bc 38 a6 fd bd 46 d7 9b 3d 1d 92 27 bd
       -0.0125355255 -0.12385219 0.076094195 -0.04091083
000260 6b d6 d2 3d 38 f5 d3 bd d4 5d 17 bd fb fe 6e bd
       0.10294803 -0.10349506 -0.036954716 -0.058348637
000270 f1 ef 91 3c f9 c8 c9 bd f2 80 a3 bd 4e 3b 33 3c
       0.017814608 -0.098527856 -0.07983579 0.010939432
000280 e6 cc 4c 3d 5f fc 24 bb 6c f3 03 bd e9 be 55 3d
       0.050000094 -0.002517484 -0.032214567 0.05218402
000290 e3 27 aa bc 53 b7 ce 3d 91 52 ef bd 32 52 f6 bb
       -0.020770973 0.1009356 -0.1168567 -0.0075171227
0002a0 b3 54 8d bd dc 6a bf bd 90 5c 4b bd 1e 9a ba 3d
       -0.06900921 -0.09346554 -0.04964882 0.09111427
0002b0 c8 57 83 bd 5e 28 bc 3d 9b 52 a2 bd 4f 25 5a 3d
       -0.06413227 0.09187387 -0.07925912 0.053258236
0002c0 f9 ae 1c 3e f6 08 fb bd ac ae da 3d 07 41 4f 3d
       0.15301122 -0.122575685 0.10677847 0.050599124
0002d0 02 33 13 3d 3c 7a 83 3d 17 89 c5 bd 3a f6 aa 3d
       0.035937317 0.06419799 -0.096452884 0.08347745
0002e0 cc f0 e4 bd 47 8f d8 3c 8d 40 0f bc c4 d5 5b 3d
       -0.11178741 0.026435507 -0.008743417 0.05367066
0002f0 0d 4b 89 3d ee dc 28 bc 54 20 52 3d 4e 40 1e ba
       0.06703768 -0.01030658 0.05130036 -0.0006036804
000300 ad 50 e3 3c 14 88 63 3d 99 66 87 3d 59 dc 76 3d
       0.02774843 0.055549696 0.06611366 0.060268734
000310 0d 84 0e 3d 66 92 d8 3b 2e 8a 26 bd 12 e8 a5 bd
       0.034793902 0.006609249 -0.040659122 -0.081009045
000320 9c 90 63 bd 46 a0 2b bd 5a 15 07 be 6f 82 35 3d
       -0.055557832 -0.041900896 -0.13191739 0.044313844
000330 32 0c 4a 3d b7 aa 3f bd 40 ba 9d 3c ca a7 7a 3d
       0.049328037 -0.046793666 0.01925385 0.061195172
000340 b2 a5 5c 3d 09 aa 1d 3d 38 40 c3 3c e8 e7 a6 bd
       0.053868957 0.038492236 0.023834333 -0.08149701
000350 26 fa 34 3d 4f 40 ab bd 8d ba 07 3b 94 6c 13 3e
       0.044183873 -0.08361875 0.0020710558 0.14396888
000360 4c 58 36 3c af 0e ce 3a 08 98 c9 bc 77 6b 7f bd
       0.01112945 0.0015720929 -0.024608627 -0.062358346
000370 62 54 88 3d 3f ec ac 3d 67 28 0d bc 66 61 74 bd
       0.0665672 0.08443498 -0.00861559 -0.0596632
000380 4c ef b8 bd 0a 6e 08 bc 0d c9 cc bd 0e 4a 7e bc
       -0.09030017 -0.008327017 -0.09999285 -0.015520586
000390 1b 74 7d bc ac e7 ee bd e6 11 0e bc 10 9b 81 3d
       -0.015469576 -0.11665282 -0.0086712595 0.06328404
0003a0 eb 3a a5 3d e7 96 a3 bc 08 49 86 3d 13 d5 8c bc
       0.08067878 -0.019969417 0.06556898 -0.017191445
0003b0 3f 54 2c bc 75 57 90 3d 5a aa 15 3e eb 64 60 3d
       -0.010518133 0.07047931 0.14615765 0.054783743
0003c0 1b bd 2b 3d 53 69 27 be b2 f5 6b 3c df ed 05 3d
       0.041928392 -0.16348772 0.01440184 0.032697555
0003d0 da d1 8e 3d a1 e3 6f 3d b2 13 63 3d 05 70 d8 bd
       0.0697362 0.058566693 0.055438705 -0.10568241
0003e0 25 6a 66 3d 32 b6 7f bd e6 b7 5d bd 64 70 23 3d
       0.05625357 -0.062429614 -0.054130457 0.039902106
0003f0 a9 9c fd bd d8 7c 8b bd 76 ca 7a 3c 00 1a ba 3c
       -0.12383396 -0.068109214 0.0153070595 0.022717476

module.params.4.weight f4 [1, 256]
000000 ee 19 31 3e 26 7f 96 be 11 54 53 be ae d6 8a be
       0.17295048 -0.29393882 -0.20637538 -0.27116913
000010 db ad 81 3e 46 ad 66 3e ab 0c 2f be e2 c7 33 be
       0.25327954 0.22527036 -0.17094676 -0.17556718
000020 83 b1 4b be 1b 41 37 3e 30 da 01 be 6e 46 af 3e
       -0.19891934 0.1789593 -0.12680888 0.3423342
000030 34 87 8e 3e e8 7a 13 3e a2 4e f3 bd 45 41 96 3e
       0.27837527 0.14402354 -0.118802324 0.29346672
000040 18 90 46 be 5b 89 34 3e b9 68 20 be 67 d1 6c be
       -0.19390905 0.17630522 -0.15664949 -0.23126756
000050 2c d5 46 be a5 b8 02 be 4c 0c b8 3e ee 64 48 be
       -0.19417256 -0.12765749 0.35946882 -0.19569752
000060 fa 45 80 be 96 3d fa bd 21 b0 e2 3d df 50 43 3e
       -0.25053388 -0.12218778 0.1106875 0.19073819
000070 44 60 46 be 52 25 22 3e f2 b4 cb 3d 19 b0 6f 3e
       -0.1937266 0.15834549 0.09946622 0.2340702
000080 dc 21 17 3e 10 b0 dc bd 43 bd 23 be 5b 2f 8a 3e
       0.1475901 -0.10775769 -0.15990166 0.26989254
000090 1a 93 25 3e 88 0a 18 be 20 0c 8a be 6f 4c 4b 3e
       0.16169396 -0.14847767 -0.26962376 0.19853376
0000a0 ef 7c 47 be a4 4f 26 be 77 fb 54 be a9 eb 0e be
       -0.19481252 -0.16241318 -0.20799051 -0.13957085
0000b0 bf 65 31 be 28 37 2e 3e 1d d9 32 3e bb 01 9c 3d
       -0.1732397 0.17013228 0.17465635 0.076175176
0000c0 49 31 80 be 46 09 1d 3e e1 99 01 be ad 47 af bd
       -0.25037602 0.15335569 -0.12656356 -0.08558593
0000d0 68 69 02 3e c5 89 4b 3e d6 4c 40 be 07 59 2b 3e
       0.12735522 0.19876774 -0.1877931 0.1673318
0000e0 3b 31 8d be 9e be e1 3d 9d 73 43 be 2c b2 18 be
       -0.27576622 0.110226855 -0.19087072 -0.14911717
0000f0 ac 0d 2f 3e 5e 3c 85 3e 4f da 61 3e 26 77 49 3e
       0.17095059 0.2602262 0.22055934 0.19674358
000100 27 ae 25 be ab 38 31 be 47 4e a9 3d 23 a2 40 3e
       -0.16179715 -0.17306773 0.08266883 0.1881185
000110 7e de 28 3e eb 8b 52 3e 08 2e 1c 3e 39 40 80 3e
       0.16491124 0.20561187 0.15251935 0.25048998
000120 0e f0 9c bd 40 8d d0 bd f3 88 9a bd 97 f5 24 3e
       -0.07662974 -0.10183191 -0.07545652 0.1610931
000130 06 1c c0 be 67 94 a1 be a6 6c 4f be 2a 76 1d 3e
       -0.3752138 -0.31558535 -0.2025629 0.15377107
000140 4f a2 19 3e 9c 59 63 be 2b 15 d9 3d 1c 31 e3 3d
       0.15003322 -0.22202152 0.105997406 0.11093351
000150 42 96 50 be 35 29 79 be 0d a2 05 be 17 22 ac 3e
       -0.20369819 -0.24332125 -0.13050099 0.33619758
000160 df 41 83 be 49 47 25 3e ab cc 4a be c0 4b 30 3e
       -0.25636193 0.16140474 -0.19804637 0.17216396
000170 7d df dc 3d 32 08 56 be 95 4b 45 3e b9 dd 3f be
       0.107848145 -0.20901564 0.19267114 -0.18736924
000180 57 c3 12 be 68 c1 74 3e 12 ff 84 be 8f 31 24 be
       -0.14332329 0.23901904 -0.25975853 -0.1603453
000190 a9 ad 95 be c5 fe f2 bd ee 4c 57 3e b9 c3 2d 3e
       -0.29234055 -0.11865 0.2102544 0.16969194
0001a0 14 f5 14 be 38 f8 40 3e b1 f7 4a be c3 7b 0f 3e
       -0.14546615 0.18844688 -0.1982105 0.14012055
0001b0 4d 99 78 be 38 6a 62 3e 46 9a 25 be 0f 32 45 be
       -0.2427723 0.22110832 -0.16172132 -0.19257377
0001c0 bb 74 18 be 1b a6 67 3e e0 df 30 3e 0f 35 33 3e
       -0.14888279 0.22621958 0.17272902 0.17500709
0001d0 fd 7b 30 3e ec 33 94 bd 8d 00 6d be 2f 91 66 be
       0.17234798 -0.07236466 -0.23144741 -0.2251632
0001e0 0e 6b 99 bd 91 23 14 be 4d b6 52 3e ba 10 9a 3e
       -0.07491122 -0.14466693 0.20577355 0.30090886
0001f0 b2 1c 24 be 69 86 34 3e 8b 2f 3b 3e 55 f6 2b be
       -0.16026571 0.17629398 0.18279855 -0.16793187
000200 1e 88 18 be 9c c4 2e 3e e0 0f 0d be 6e fe 2c be
       -0.14895675 0.17067188 -0.13775587 -0.16893932
000210 ea cc 53 be 87 ba 09 be 68 08 94 3e 5b 0e d8 bd
       -0.20683637 -0.13450061 0.28912663 -0.10549613
000220 fd 38 42 be 0a e2 a7 3e 9e d8 17 3e 4a 0e a0 be
       -0.18967052 0.32789642 0.14828727 -0.31260902
000230 01 1f 89 be a1 ec 3a be 38 87 10 3e 24 7e 0f 3e
       -0.26781467 -0.1825433 0.14114082 0.14012963
000240 cf 99 6b 3e b6 81 b4 bd 77 8c 3b be aa d1 03 be
       0.23007892 -0.08813803 -0.18315302 -0.12872949
000250 6f d8 65 3e 0e 65 36 3e 36 86 62 be 0c f4 6d 3e
       0.22445844 0.17811987 -0.2212151 0.23237628
000260 ce 01 6b 3e 0f 37 22 3e 41 53 98 3d 22 03 5d be
       0.22949907 0.15841316 0.074377544 -0.21583226
000270 90 f6 33 be 06 bd 3a 3e e0 c7 b2 3d 9b 7a d8 bd
       -0.17574525 0.18236169 0.087295294 -0.1057026
000280 ca 10 30 3e db 25 26 3e 37 a6 40 be 2e 10 27 be
       0.17193905 0.16225378 -0.18813406 -0.16314766
000290 23 7d 50 3e 65 c0 87 3e a6 33 6d be a4 ae 32 3e
       0.20360236 0.26513973 -0.23164234 0.17449433
0002a0 f0 67 4b 3e a8 89 56 be 8a d7 27 be 84 19 38 be
       0.19863868 -0.20950949 -0.16390815 -0.17978483
0002b0 61 25 4b 3e d0 e7 21 be e5 c1 3b 3e 9b 0d ee 3d
       0.19838478 -0.15811086 0.18335684 0.11623689
0002c0 1b 77 47 be 1e 0f 14 3e 48 26 0c be 80 c5 e5 bd
       -0.19479029 0.14458892 -0.13686478 -0.11219311
0002d0 08 29 43 be a0 f5 30 3e a1 cd 4d 3e 6f 54 c2 bd
       -0.19058621 0.17281199 0.20097972 -0.09488761
0002e0 6f 52 24 3e e7 04 6c 3e a1 15 4b be 57 6c 2f be
       0.16047071 0.23048745 -0.1983247 -0.17131172
0002f0 36 dc 15 3e 45 e4 2a be 7a 42 66 3e 4f b7 42 be
       0.14634785 -0.1668864 0.22486296 -0.19015239
000300 a1 96 0f be d6 38 12 3e be c8 2a be 17 6b 0a 3e
       -0.14022304 0.14279494 -0.1667814 0.13517414
000310 9f 4b c6 bd 90 98 1f be dd 11 ff bd 87 7c 32 3e
       -0.09682392 -0.15585542 -0.12454579 0.17430316
000320 9c b4 04 3e 4c fe 27 be 47 08 3a 3e f1 27 e0 3d
       0.12959522 -0.164056 0.1816722 0.10945118
000330 d5 c8 20 be 13 d5 f2 bd 31 bf fe bd 7b c3 46 3e
       -0.15701611 -0.11857047 -0.124388106 0.19410507
000340 9c 7e c4 3d 83 1a 5b 3e 20 68 44 be e0 22 1b 3e
       0.09594461 0.21396832 -0.19180346 0.15150023
000350 9f e5 22 be 8c 39 1a be ac dc a7 3d de 9b 94 be
       -0.15907906 -0.15061015 0.08196387 -0.29025167
000360 f6 a2 10 be fe f0 6c 3e bf ed 57 be d3 df 6e 3e
       -0.14124665 0.23138806 -0.21086787 0.2332757
000370 a8 78 0a be 44 bd 32 be a0 e6 8e 3e 5a 94 2f be
       -0.13522589 -0.17455012 0.27910328 -0.17146435
000380 d2 44 28 3e f8 7a 33 be 23 01 21 3e 69 9f fd bd
       0.16432503 -0.17527378 0.1572309 -0.12383921
000390 f6 8b 57 3e 6d 5d 35 3e 03 95 19 3e 35 81 29 be
       0.21049485 0.1771142 0.1499825 -0.16553195
0003a0 0d e2 de 3d 01 79 38 be e8 d6 78 3e b4 58 ed 3d
       0.108829595 -0.1801491 0.2430073 0.115891844
0003b0 58 e2 02 be 5b c2 dc bd 9d b7 2c be 56 ad 72 be
       -0.12781656 -0.10779258 -0.16866918 -0.23698935
0003c0 4a b5 22 3e 3b ce 6e 3e f4 66 86 3e 82 5e fc 3d
       0.15889469 0.23320858 0.26250422 0.123227134
0003d0 8e f8 2d be 59 f6 ce bd 7f 6c 97 bd e2 43 1e 3e
       -0.16989347 -0.10105581 -0.07393741 0.15455583
0003e0 e3 cb 9c 3e 20 41 f6 bd d9 32 fe bd c3 d2 78 3e
       0.30624303 -0.1202414 -0.12412042 0.24299149
0003f0 07 c6 89 3e 6a 58 19 3e 31 5f 8d 3e 6c 9b 76 3e
       0.26908895 0.14975134 0.27611688 0.24082726
