Future implementations/models/navigation_critic.pth (torch, 342060 bytes, 5 tensors)

module.params.0.weight f4 [256, 72]
000000 c8 da c4 bd d6 70 8e 3d 79 c2 d4 3d 66 5e a1 3d
       -0.09612042 0.069551155 0.10388655 0.07879333
000010 67 cc a5 3d 43 6a 44 bd 15 2a cc bc c9 f7 89 3d
       0.08095627 -0.0479529 -0.02492241 0.067367144
000020 c4 23 31 bd e0 95 bf 3d 3c e5 61 3d bf 93 bc bd
       -0.043247 0.09354758 0.055150256 -0.09207868
000030 93 0b 40 3c 46 ba a5 bd 3c 59 52 bc 3b a8 cc bd
       0.0117215095 -0.080921695 -0.012838658 -0.09993025
000040 64 03 b2 bd 16 6b b8 bb ae 87 86 3d 3a 5a f4 3d
       -0.08692053 -0.005628 0.065688476 0.11931272
000050 00 18 2c 3d f0 12 04 3e 5b 0d 99 3d a9 ce fd bd
       0.042015076 0.12897849 0.074732505 -0.12392933
000060 ee da b0 3c 23 22 bd 3d 56 68 cb 3b 52 0b 27 3e
       0.021588769 0.09235027 0.006207506 0.16312912
000070 56 78 9b bd c9 d0 6b bd bf 0c 17 bd 6e 81 68 3d
       -0.07591312 -0.05757216 -0.03687739 0.05676406
000080 7b 54 1b bc c8 cb f8 3d fd ba d3 3c 04 73 13 be
       -0.009480591 0.12148243 0.025845999 -0.14399344
000090 94 91 bf bd 3b f8 0c be 04 d3 c8 3d df 85 0f bd
       -0.09353939 -0.13766567 0.09805873 -0.03503978
0000a0 be 8f b4 3d 35 5d 0c 3d 97 f4 9d bc 01 ee 5c 3d
       0.08816479 0.034268577 -0.019281669 0.053937916
0000b0 58 18 2e bd 0c ed 0e 3e bc 29 e6 3d 48 28 be bc
       -0.042503685 0.13957614 0.11238429 -0.023212567
0000c0 cd f3 9e bc 07 67 4e bd c4 28 e2 3d 0c 3a 05 3e
       -0.019403363 -0.050391223 0.11042932 0.13010424
0000d0 46 5c c0 3d 7f 0a a8 ba 08 5e d6 3d de f6 80 3d
       0.093926 -0.0012820511 0.10467154 0.06297086
0000e0 99 42 77 3d 9c 19 77 bc eb 69 24 bd 5d bb f0 3c
       0.060366247 -0.015081789 -0.040140074 0.029386217
0000f0 cb 75 20 be 20 06 0c be 8b 5f 8e 3d ca 28 5b 3e
       -0.15669934 -0.13674212 0.06951817 0.21402279
000100 81 9d 05 3e 61 a5 04 3e 4b e8 21 3e 28 23 08 bd
       0.13048364 0.12953712 0.15811269 -0.033236653
000110 5f 25 d6 bc 1f 25 bb 3d c4 37 fb 3b d3 de 90 bd
       -0.026140867 0.0913794 0.00766656 -0.0707375
000120 3c 6b 93 3d a2 50 a9 bd 70 fe 93 bc 6d ed 82 3c
       0.07198188 -0.082673326 -0.018065661 0.015982354
000130 9f f8 0c be de ec 0d 3e 16 99 51 3e 0d 1a a3 3d
       -0.13766716 0.13859889 0.20468554 0.07963953
000140 f9 70 0a 3e 56 6e 83 3c 7a c1 4f be f2 e4 5c 3d
       0.13519658 0.016043823 -0.20288649 0.053929277
000150 ec 6b c0 bc 6d 74 b0 bd 82 55 1c 3e bc 1e d6 bd
       -0.023488961 -0.086159565 0.15266994 -0.10455081
000160 e1 e9 9e bd bf 3e 7e 3d 14 55 d9 bd 0e 53 33 bd
       -0.077594526 0.062071558 -0.106119305 -0.04378038
000170 ba 5d 54 3d c5 85 f7 3b 48 3e 2d bd 98 5c 3d bd
       0.051847197 0.0075537884 -0.042295724 -0.046230882
000180 4b 2f 03 bd b2 d1 0c be 22 06 68 bc 63 b5 63 3d
       -0.032027524 -0.13751867 -0.014161618 0.055592906
000190 16 7b 2e be 4b fe ce bd a7 9c 9c bd 52 e8 3f 3d
       -0.17039141 -0.10107096 -0.076470666 0.046852417
0001a0 3b b0 2b 3d 5b 12 31 3e dd 8d e1 bd e3 93 ce 3d
       0.041916113 0.17292158 -0.110133864 0.10086801
0001b0 ba 36 d4 bd f6 ef 5a bd 65 a5 11 3e 73 0b 4f bd
       -0.10362001 -0.0534515 0.1422325 -0.05054803
0001c0 4e 3d fa bd 46 bc 38 3e 99 19 4b be 27 a2 34 be
       -0.12218724 0.1804057 -0.19833983 -0.17639981
0001d0 96 b4 1f 3e e3 78 38 3d 04 6c f3 3c 4d 37 d7 bb
       0.15596232 0.04503716 0.029714592 -0.0065678717
0001e0 29 8b 94 3d b7 7c b3 3c 85 73 ad 3d 02 fe 35 bd
       0.07253105 0.021910055 0.08469299 -0.044431694
0001f0 8c ea 8a bd f7 46 f5 3c 3f d4 a3 bc f6 70 34 3d
       -0.067830175 0.029941065 -0.019998668 0.04405304
000200 f3 65 f6 3c c1 d6 f0 3c b3 8c 19 bd b5 d8 0c 3e
       0.03007791 0.029399278 -0.037487697 0.13754542
000210 32 c6 7d 3d d3 9e 40 bb f0 bf 0a bc 25 77 90 bd
       0.061956592 -0.0029391542 -0.008468613 -0.07053975
000220 ea 44 ad 3d c3 3e e5 3b 4a a0 18 bd 2f 7a f4 3d
       0.0846041 0.006996007 -0.03726224 0.11937367
000230 d1 98 90 bb 30 bd ef bc c4 ea 07 be 21 8e 0c be
       -0.0044127484 -0.029265016 -0.1327315 -0.13726093
000240 b7 66 ac bd 6f de cc bb 20 c8 76 3d 7b a0 5c bc
       -0.08418029 -0.006252102 0.060249448 -0.013465996
000250 37 90 2a bd 2b 39 8e 3e 0c 4e 1d be c1 31 9b bd
       -0.04164144 0.2777799 -0.15361804 -0.07577849
000260 8d 01 bd bb 06 39 94 bc 12 88 4a 3e 16 db 17 be
       -0.005768007 -0.018093597 0.19778469 -0.14829668
000270 e2 fe 3e bd 38 1d 00 3c 17 8a 21 be c8 51 27 bd
       -0.046629794 0.007819466 -0.15775333 -0.040849477
000280 cb fa 14 bd 88 bc 86 bd 70 7f 83 bd 10 1c 14 3d
       -0.036371987 -0.06578928 -0.06420791 0.036159575
000290 e8 ae 67 3b 91 c8 d0 bc 9e 0b fe 3d 31 d0 fe bc
       0.0035352055 -0.025486263 0.124045596 -0.031105133
0002a0 a7 80 30 be 4a db bb bd c2 f6 96 be 50 69 a2 3d
       -0.17236577 -0.091726854 -0.29485136 0.07930243
0002b0 a1 c9 30 bd b5 a4 d0 bd 8e 7e 21 be 9c da 59 bd
       -0.04316104 -0.101876654 -0.15770933 -0.053186998
0002c0 8d 4d 0d be 19 e0 d5 bd c1 cf 7e 3e 64 ca 75 bd
       -0.13799115 -0.10443134 0.2488394 -0.060007468
0002d0 77 70 b6 3d 43 78 de 3d 24 00 3c bb b2 3d f4 3d
       0.0890817 0.10862782 -0.0028686607 0.1192583
0002e0 f7 04 e8 bc be e3 35 3d c8 49 9b be c3 86 94 bd
       -0.02832268 0.044406645 -0.30329728 -0.07252266
0002f0 23 c6 c7 3d 74 01 81 be dc 4b 94 bd 41 66 bc bc
       0.097545885 -0.2519642 -0.072410315 -0.022997977
000300 14 5e 5b bc 7c 9e 5b bc 90 54 d9 3b 38 59 e2 bd
       -0.013389129 -0.013404485 0.006632395 -0.110521734
000310 df b1 13 be 2a ee 00 be 35 6d 2f bc 9b 37 20 3e
       -0.14423321 -0.12590852 -0.010707189 0.15646212
000320 46 64 16 bd fc 76 91 bd 01 6f 68 be fe 49 68 3e
       -0.036716722 -0.071027726 -0.22698595 0.22684476
000330 67 60 16 3d 8e 51 96 bd 5a 77 b8 bc 13 cd 83 3d
       0.03671303 -0.07339774 -0.022517849 0.06435599
000340 c7 0d 17 3e 2f 2f 78 3c ba e8 17 be 6d a5 33 bd
       0.1475135 0.015147968 -0.14834872 -0.043858934
000350 8b c6 cd bd ff 3e 51 3d 07 72 25 be e1 b5 71 be
       -0.10047635 0.05108547 -0.16156779 -0.23604538
000360 01 9b 9d 3d 7c e7 a8 3d 58 60 cf bd 5a c9 a7 3d
       0.0769558 0.08247277 -0.10125798 0.08192702
000370 05 16 0c 3e e7 b1 66 3e 1b 7a 3e 3e f2 3c f1 3d
       0.13680275 0.22528802 0.18601267 0.117792025
000380 0a 64 e7 bd 37 68 cb 3d 46 fc 4f 3e 76 82 ac 3c
       -0.11298378 0.09931987 0.20311078 0.021058302
000390 e1 3c 93 bd 2c 0f 6d bd 67 98 36 bc 56 4a b6 bd
       -0.07189346 -0.057875797 -0.011144734 -0.08900897
0003a0 4d d6 5b 3d 10 5e 08 3e 77 ad ed bd 04 ab 8e 3d
       0.05367117 0.13317132 -0.116053514 0.069662124
0003b0 23 a2 97 3d 12 8b ba 3d 67 e2 0c 3e 4b b0 bc 3c
       0.07403972 0.09108557 0.1375824 0.023033282
0003c0 03 c8 71 bd 06 33 93 bc 66 e4 fd bc bd 0a 31 bc
       -0.059028637 -0.017968666 -0.030992698 -0.010805783
0003d0 39 f6 c1 bb 20 8f a3 b9 1b 86 0e 3d 55 d0 0d 3e
       -0.0059192446 -0.0003119642 0.03479586 0.13849004
0003e0 39 2f e7 3d fa f9 7d 3e af 9a 8e 3b 4d b2 38 3c
       0.11288304 0.2480239 0.004351936 0.011272979
0003f0 a9 c1 8f 3d 7c e1 e6 3c e0 b6 da 3d 61 66 51 3d
       0.070193596 0.028183691 0.10679412 0.051123027

module.params.0.bias f4 [256]
000000 2c 54 f1 bd 45 36 58 bd 04 66 b4 bd 4f a7 37 3c
       -0.11783633 -0.05278613 -0.088085204 0.011209323
000010 b7 18 0d be 00 78 39 be 4b ed 37 be 82 68 5f 3d
       -0.13778959 -0.18112183 -0.17961614 0.054543026
000020 2e 37 ea bd b0 cb 22 3e 42 fa d7 bd fe 1f 08 3d
       -0.11436306 0.15898013 -0.1054578 0.033233635
000030 f1 ba f4 bd 3f b6 81 bc a6 66 02 be 64 22 87 3a
       -0.11949719 -0.015833972 -0.1273447 0.0010309932
000040 3c cb 0f be 5a 09 4a be b5 17 50 be c8 a6 04 3e
       -0.14042372 -0.1973013 -0.20321544 0.12954247
000050 f6 d2 82 3d db 86 11 3e 3d f3 0b be 90 81 db 3d
       0.06387894 0.142116 -0.13667007 0.107180715
000060 a5 c9 88 bd a1 c4 a3 3d d0 f0 0b 3d 7f 92 ce 3d
       -0.06679086 0.07996488 0.034165204 0.10086536
000070 1e f1 bc bd 4a 4b ee 3d 32 85 b0 bd 05 99 11 3e
       -0.09225677 0.11635454 -0.08619155 0.14218529
000080 e0 e9 b2 3d 38 ec cd 3d 89 2e 08 3e 9f 3a 23 3e
       0.08736014 0.10054821 0.13299002 0.15940331
000090 92 5d ef 3c fb d3 d3 bc 08 39 f6 3d b3 4c 33 be
       0.029219422 -0.025857916 0.120225966 -0.17509727
0000a0 9e 78 47 3e aa 74 b4 bd 37 6f 8a bd bf ae 1f be
       0.19479606 -0.088113144 -0.06759494 -0.15594004
0000b0 ad 0f b9 bc 09 09 f4 bb d1 81 05 be 67 81 08 3e
       -0.022590483 -0.007447366 -0.13037802 0.13330613
0000c0 2b 45 50 3e 48 87 fb bd 25 45 db 3d 63 31 32 bd
       0.20338885 -0.12281662 0.10706548 -0.04350413
0000d0 19 0d d2 bd 80 80 c4 bd 17 11 8f 3e 99 da 21 be
       -0.102564044 -0.09594822 0.27942726 -0.15806045
0000e0 fc dc d2 bc cb 13 27 3c 05 7f 03 3e 82 3a f7 bd
       -0.02574014 0.01019759 0.12841423 -0.12071706
0000f0 9f 3b 85 bd 6e 18 40 be 15 d5 2e 3e f5 cb d1 bd
       -0.065055124 -0.18759319 0.17073472 -0.1024398
000100 45 bd 26 bd 77 41 44 3e ad 00 02 3e 46 3c 0d 3e
       -0.040707845 0.19165598 0.1269557 0.13792524
000110 48 2b 1d 3e 8b 57 9b bd f4 57 1b 3e 20 ae 29 be
       0.15348542 -0.07585057 0.1517027 -0.1657033
000120 3e ec 64 3d 33 08 3a 3e ac f0 11 be 6e 52 0a be
       0.05588936 0.1816719 -0.14251965 -0.13508007
000130 20 2d 3d 3d 67 f9 3a be 4e aa 95 3d 3c 11 c7 bd
       0.046185613 -0.18259202 0.07307874 -0.09720084
000140 0f 77 11 3e d8 c1 2a 3e 1b 67 5a 3e 8f d0 a0 bd
       0.14205573 0.16675508 0.21328394 -0.078522794
000150 a2 c1 e9 3d e2 af 3c 3e 07 18 8f bc 43 1c 6a be
       0.11413886 0.18426469 -0.017467512 -0.22862343
000160 58 e1 69 bd 24 4d 1d 3d 13 da 18 3e 6f 04 11 3e
       -0.05709967 0.038403645 0.14926939 0.14161848
000170 0f 2f 09 be 75 7d e7 3d 01 59 af 3d b1 df 1a 3e
       -0.13396858 0.11303226 0.08561898 0.15124394
000180 5b 3a 04 be ea 90 85 bd cd 81 43 bd d3 3b 3e bd
       -0.12912886 -0.06521781 -0.04773121 -0.04644377
000190 d2 bc dd 3d 79 1a c4 bd 17 ab d5 bd b7 00 a4 3d
       0.1082703 -0.09575362 -0.104330234 0.08007949
0001a0 ac 49 9d 3d 61 0a e7 3d 5f b6 be bd e1 b9 16 3e
       0.076800674 0.112812765 -0.09312128 0.14719345
0001b0 9f 3d 03 3e fc 35 13 be a4 eb e8 3d af 32 b9 3d
       0.12816475 -0.14376062 0.1137307 0.0904287
0001c0 7d 18 2a 3e df 74 d2 bd 98 ea f7 3d da 35 e9 bd
       0.16610904 -0.10276198 0.12105292 -0.113872245
0001d0 0e de 0c be 9f 91 bb 3c 71 78 06 be 24 1e 20 be
       -0.13756582 0.022896586 -0.13131882 -0.15636498
0001e0 3b 92 17 be f8 52 35 be a5 1c 07 3e 97 b2 3b be
       -0.14801876 -0.17707431 0.13194521 -0.18329845
0001f0 a7 e9 8a 3d bd ac 3a be d8 d5 ad 3d 34 b9 41 be
       0.06782847 -0.18229957 0.08488053 -0.18918306
000200 9a 49 0e be 24 4a bb 3c 4e 6f 9f bc bc e1 c4 3d
       -0.13895264 0.022862501 -0.019462254 0.09613368
000210 28 54 09 bc 5d 44 12 be 4b 11 41 3e 4e 6a 48 3e
       -0.008381881 -0.14283891 0.18854253 0.19571802
000220 75 49 1e bd 53 5d c7 3d 6a e1 95 bd 8f 88 0b be
       -0.038644273 0.09734597 -0.07318385 -0.13626312
000230 52 4a 02 3e fe 65 09 3e b8 bf ad 3d 27 a1 37 bd
       0.12723663 0.13417813 0.08483833 -0.04483142
000240 25 77 a1 bd 9d 92 5b 3d 4c f2 1e bd 56 ce 04 3e
       -0.07884053 0.05360662 -0.03880529 0.12969336
000250 84 bd 3a be ed 32 49 bd 89 c9 ab 3d 37 8f 4c bd
       -0.18236357 -0.049120832 0.08388049 -0.049941268
000260 3b db 12 be 4d 4b 47 3e 95 81 06 3e 7f f1 15 be
       -0.14341442 0.19462319 0.13135369 -0.14642905
000270 fd aa 02 3e 45 f7 4d be a2 c5 d3 3b 12 cd a7 bd
       0.1276054 -0.20113857 0.0064627687 -0.08193411
000280 20 fe 7a bd f1 92 a9 3d b7 50 36 be c1 d4 1e 3e
       -0.06127751 0.0827998 -0.17804228 0.15510847
000290 95 77 e1 3d 7e 91 1b be 37 f5 f2 3d b8 e7 0b 3e
       0.110091366 -0.1519222 0.11863177 0.13662612
0002a0 a3 cc a1 3d e4 c9 19 3e dc f4 ae 3d e0 b5 a3 bd
       0.079003595 0.15018421 0.08542797 -0.07993674
0002b0 de 8b 09 3e 0f 79 04 bd 82 65 29 3e 0f 9e 20 be
       0.13432261 -0.032342013 0.16542628 -0.15685295
0002c0 46 a9 ce 3d 02 d7 ba bd 78 73 3d be e9 5e 0e be
       0.1009088 -0.09123041 -0.18501079 -0.13903393
0002d0 80 ca c0 3d c7 d6 0d be af 3e 0d 3e 80 57 ab 3d
       0.09413624 -0.13851462 0.13793443 0.08366299
0002e0 5e 5f e2 3d 25 7c 2d 3d 10 12 18 be d5 6e 2b be
       0.11053346 0.04235472 -0.1485064 -0.16741498
0002f0 59 9e b8 3d 07 7f 15 be 92 d5 04 3e eb 82 fe bd
       0.090145774 -0.14599238 0.12972096 -0.12427314
000300 1c 19 bc bd 04 58 0d be db 60 44 be e8 c3 28 3e
       -0.09184477 -0.13803107 -0.19177572 0.16480982
000310 ae 2b e4 bd 7b 5e 1b be 4d a1 a0 bd cf 7a 3c be
       -0.11141144 -0.1517276 -0.07843266 -0.18406223
000320 d3 ca d2 3c ca b5 ca 3c af 67 f9 bd 6d 79 0d 3e
       0.02573148 0.024744887 -0.12177979 0.13815852
000330 96 ec 2f 3e d7 48 16 be f2 bd 20 3e e2 18 3a 3e
       0.17180094 -0.14676224 0.15697458 0.18173555
000340 63 d4 00 3d ec 4c b3 bc 48 f3 da bd a2 ec 00 3e
       0.031452548 -0.021887265 -0.106909335 0.12590268
000350 4e 78 c4 bd 6f ad 16 be f8 71 34 be 7d 30 47 3d
       -0.09593259 -0.14714597 -0.176216 0.048630226
000360 cc 4f 9b 3d 65 7f 1e 3e e8 08 db 3d 6e 93 14 3e
       0.075835794 0.15478285 0.10695058 0.14509365
000370 10 b7 63 3c 44 f2 23 3e 30 6e 24 bd a5 be c0 3c
       0.013898626 0.16010386 -0.040144145 0.023528406
000380 e8 3b a0 bd 11 46 20 3e 95 6b 0f 3e c2 53 04 bc
       -0.07823926 0.15651728 0.14005883 -0.00807661
000390 23 5f 95 3d a9 89 1a 3e 26 2f 6f bd 50 dd 36 be
       0.072935365 0.15091576 -0.058394574 -0.17857862
0003a0 b3 42 4d bd 53 70 32 be 95 5f 27 be 6c ed 0e 3e
       -0.050112437 -0.17425661 -0.16345055 0.13957757
0003b0 ed f4 50 3d ad 91 d1 bc 73 5c 13 be 9f 74 69 3d
       0.05101483 -0.025582159 -0.14390735 0.056995984
0003c0 8d 3e 75 bd 5c 12 02 be e7 a6 9d bd 88 0e 54 bd
       -0.059874106 -0.12702316 -0.0769785 -0.05177167
0003d0 24 b1 cb bd 06 ed 3b be 15 49 2e be 34 b9 e9 3d
       -0.09945896 -0.18352136 -0.17020066 0.11412278
0003e0 55 a2 b4 bc ac 4f d4 3d 63 dc 51 3e c6 7c 25 3e
       -0.022050062 0.10366759 0.20494227 0.16160879
0003f0 31 a1 16 be 3c 6f b3 3d 18 7e 6a 3d e5 d5 43 be
       -0.14709927 0.08761451 0.05724916 -0.19124563

module.params.2.weight f4 [256, 256]
000000 5b 9b 95 bd c6 fe b8 3c fc 28 62 bd fe 11 f9 bc
       -0.07305022 0.022582423 -0.055214867 -0.030404087
000010 12 65 e5 bd 79 50 60 bd 00 8a 61 bc 3a 69 4b bc
       -0.11200918 -0.054764245 -0.013765812 -0.012415225
000020 b0 36 a3 bd a7 de 04 3c 50 86 f6 bd a9 8d 80 3d
       -0.07969415 0.008109725 -0.12037337 0.062770195
000030 08 5a d4 bd 93 ab 47 3d ac d6 f7 bc ed db 8f 3d
       -0.103687346 0.04874761 -0.03025373 0.070243694
000040 31 f2 42 bd 06 2e 02 3b cf eb 03 bd 1d fa b9 3d
       -0.047594253 0.0019863858 -0.032207306 0.090809084
000050 dc 78 4d 3c ae fc c5 3d 5a d0 1b 3c db e6 bc 3c
       0.012541022 0.096673355 0.009510124 0.0230593
000060 63 ba 16 bd 67 86 70 bd 02 b1 94 3d 17 df 6a bc
       -0.036798846 -0.058721926 0.07260324 -0.014335415
000070 44 ee 0b 3c 33 96 07 bd ff b3 36 3d ef a6 2f 3d
       0.008540694 -0.033102226 0.04460525 0.04288381
000080 a2 5a 7a 3d f1 10 81 bd 80 5c 89 bd af 34 ee ba
       0.06112159 -0.063020594 -0.06707096 -0.001817366
000090 0c 7c 89 bc 14 a8 7e 3c af f3 a2 3d 53 47 89 3c
       -0.016782783 0.015543003 0.07956635 0.016757643
0000a0 13 cf 35 bb 0e bd 88 bd d8 81 cb bb 55 f0 f1 3c
       -0.0027741834 -0.06676684 -0.006210547 0.029533545
0000b0 12 d9 0c bb 0f 08 10 bc 1c 23 93 3c 28 fb 76 3c
       -0.0021491689 -0.008790984 0.017961077 0.015074529
0000c0 30 43 0b 3d 0b be d8 3c bb c9 06 3d 4c eb 22 bd
       0.033999622 0.026457807 0.03290723 -0.039775178
0000d0 c8 07 44 3b 15 1f 74 bc d7 00 73 3d 3e da a8 bd
       0.0029911865 -0.014899989 0.059326973 -0.082447514
0000e0 a6 60 21 bd ff 54 8b bb 96 be 30 3d 27 4b d7 bc
       -0.03939881 -0.0042520757 0.043150507 -0.026280953
0000f0 27 61 b5 bc 92 66 83 bb 3f 83 52 3d 40 04 3c bd
       -0.022141052 -0.00401003 0.051394697 -0.04590249
000100 ab eb 83 bd 72 d0 01 3b eb 9c 72 bd 0b 1e c5 3c
       -0.064414345 0.001980808 -0.05923168 0.024062177
000110 47 4b 95 3a b0 73 56 bd 7f ab 06 bc 8b bd 57 bd
       0.0011390232 -0.052356422 -0.008219599 -0.052670997
000120 d7 5a de 3c ff ef 8c bb 91 80 a4 bd 97 b0 32 bd
       0.027142925 -0.0043010707 -0.080323346 -0.04362544
000130 1c 22 ba 3a 7d 5a 18 3c f1 15 08 3c 6e 5f a4 3b
       0.0014200839 0.009298918 0.0083060125 0.005016259
000140 5d 15 f4 ba e8 0b 9a 3d ce a3 dc 3c 5c d9 b4 bd
       -0.0018622089 0.07521802 0.026933577 -0.088305205
000150 3a 28 e9 bc fa 1e a3 3d 7f 03 e5 3c 95 3e 13 bc
       -0.028461564 0.07964893 0.027955769 -0.008987089
000160 b9 46 d8 bc ff 2d 7a 3d de 5a 81 3d 00 07 e6 bb
       -0.02640091 0.06107902 0.0631616 -0.0070198774
000170 e5 80 c1 bc f8 91 5c 3d fa e2 ac 3d bb 9c b0 3c
       -0.023621032 0.053850144 0.0844173 0.02155911
000180 21 7e 60 3d ef 83 2e 3c d0 7f 54 bd d5 f2 b1 3c
       0.054807786 0.010651573 -0.051879704 0.021722237
000190 91 94 2c bc 80 a4 76 bd 8a 4d 18 3d 65 c3 98 bd
       -0.010533468 -0.060215473 0.037183322 -0.074591435
0001a0 a9 98 70 3d 2b 1d bd 3c d0 ca 88 bd 37 cb 17 3d
       0.058739338 0.023085197 -0.066793084 0.037059035
0001b0 74 ad c6 3d cf 11 9a bd 5e ef 94 3b 9a f9 f8 bc
       0.09701052 -0.07522928 0.0045451364 -0.030392457
0001c0 7b a6 83 3d d4 bb 36 bd e4 5e 43 3c fa 3d 5e bd
       0.06428238 -0.04461272 0.011924479 -0.054258324
0001d0 67 b2 51 bd 1a ef 19 3c 94 5d 3a 3c 4d 4a 97 bd
       -0.05119553 0.009395385 0.01137485 -0.073872186
0001e0 ca b0 b9 bd ac 6b 85 bd 46 65 81 3b d0 b6 0d bd
       -0.09066923 -0.065146774 0.0039488403 -0.03459817
0001f0 5e 9b 29 bd 0e 82 2b bd b4 0e 83 3d 2f ee 94 bc
       -0.041407935 -0.041872077 0.06399289 -0.018179981
000200 6b 16 a7 bd 53 b3 96 3b 2b 86 14 3d 85 c5 af 3d
       -0.08158573 0.004599014 0.036260765 0.08582596
000210 19 3a 45 bd b9 12 2f 39 5b 70 ab 3b 58 e6 6b 3c
       -0.04815111 0.00016696275 0.0052318997 0.01439818
000220 93 b9 5f bd e9 14 08 bd be 7d 22 3d 5d a2 ab 3c
       -0.054620337 -0.033223066 0.0396707 0.020951444
000230 57 34 41 3d d6 3e 36 3d e6 a9 2e 3d 23 97 c4 bc
       0.047169056 0.04449352 0.042642497 -0.023997849
000240 d5 0a 51 3d fe 4f ee b8 f5 6c 7a bc 5c 1c b4 3c
       0.05103572 -0.00011363624 -0.015284766 0.021986179
000250 5b c1 3d bd c3 40 27 bd a5 76 1e 3c 32 57 11 3d
       -0.046326976 -0.040833246 0.009671842 0.035483547
000260 d9 91 1d 3b e5 76 66 3d 6e f4 08 bd cb 38 e3 bc
       0.002404323 0.05626573 -0.03343623 -0.027737042
000270 08 d4 97 3b e3 8f 23 bd 3a c6 ca 3b 49 af fb bc
       0.0046334304 -0.039932143 0.006188181 -0.03072323
000280 5d 6d f9 3c 7b 74 83 3d 8a d2 e1 bd 71 0c 88 3b
       0.030447656 0.06418701 -0.11026485 0.0041518738
000290 86 ee 5c 3d 87 9e ce b9 f9 23 23 3d 5a 98 fb bc
       0.05393841 -0.00039409494 0.039829228 -0.030712295
0002a0 0e a8 60 ba 13 3c 8c 3d 36 b7 74 3d 58 42 ca bc
       -0.0008569964 0.06847396 0.059745036 -0.024689838
0002b0 9b 07 64 bc 6b 38 58 3b c0 4c b2 3d 9c 13 ba bd
       -0.013917829 0.0032992612 0.08706045 -0.090857714
0002c0 00 33 97 3d 2f 5e 56 3b a7 f0 2b bd 96 8b ea bb
       0.07382774 0.0032709946 -0.04197755 -0.007157753
0002d0 89 a4 25 ba 11 b8 67 bd de a4 9a 3d a3 50 90 3d
       -0.0006318768 -0.056572024 0.07550977 0.0704663
0002e0 b2 f1 8a 3d 6f 27 19 bd 57 e7 ac 3c 05 ea 99 bd
       0.06784381 -0.037391122 0.021106405 -0.07515339
0002f0 3f 54 d0 3d 92 44 44 bd ad 98 b1 3d 52 eb a0 bd
       0.10172319 -0.047916956 0.08671699 -0.07857384
000300 db 1a 58 ba e9 7b 74 bd 8f 2e 38 3c 09 60 cc bc
       -0.0008243748 -0.059688482 0.011241569 -0.024948137
000310 fc 72 3a 3d 4f d6 0b 3d 44 2d 05 bd ae 55 a9 bb
       0.045519814 0.034139927 -0.03251387 -0.0051676845
000320 a5 97 35 bd 2e 77 4f bd 9b 20 05 bd 2b ed a5 bd
       -0.044334073 -0.050650768 -0.032501798 -0.08101877
000330 6d b6 48 3d 79 c2 a6 bd 79 9c 85 3c ee ef 0e 3d
       0.0490021 -0.081425615 0.016309964 0.034896784
000340 a7 76 88 3d be 76 6f 3c ab 20 31 bc 0f de d4 3c
       0.06663256 0.014615713 -0.010811011 0.025984792
000350 73 c2 16 3c 16 74 20 bd e2 91 6b bd 73 cf df 3c
       0.009201634 -0.03917321 -0.05751217 0.0273206
000360 e7 2e 66 bd 4b b4 7c 3b be 6c 59 3d c1 75 9a bb
       -0.056197073 0.0038559611 0.05308222 -0.0047137444
000370 5c d2 84 bc 57 e5 c8 bb 32 67 1d bc 10 16 57 3c
       -0.016213588 -0.006130855 -0.009607123 0.013127819
000380 f6 a0 af 37 df 1f 70 3d 61 4c 37 3d b9 9d 2f bd
       2.0936579e-05 0.058624145 0.044750575 -0.042875025
000390 fb 26 84 3c cc 88 41 3d 71 37 0e 3d bd b0 3a bd
       0.016131869 0.0472496 0.03472084 -0.045578707
0003a0 07 c6 00 bc 1b 66 80 3d b0 20 1b bd 5f 82 a0 ba
       -0.007859713 0.06269475 -0.03787297 -0.0012245885
0003b0 29 bd ba 3a 9b 7f 80 bc 0f d1 93 bc 94 3f 5f bd
       0.0014247048 -0.015685847 -0.018044023 -0.054503992
0003c0 e9 21 b1 bd 09 59 b2 bc 8e a9 fa bd 9b 1e 57 3c
       -0.08649046 -0.02177097 -0.12239371 0.0131298555
0003d0 41 13 0c 3d 40 47 95 bb 7b 5a 8c bd 20 93 93 3d
       0.03419805 -0.004555613 -0.06853195 0.07205796
0003e0 f6 3b aa 3c 33 e7 33 bc 11 31 33 3c 38 84 81 3d
       0.020780545 -0.010980415 0.010936991 0.06324047
0003f0 e0 b0 e4 3c 58 69 0c bd f3 66 c1 bb d5 58 9c bd
       0.027916372 -0.03428015 -0.005902165 -0.07634131

module.params.2.bias f4 [256]
000000 65 fb 9f 3d e1 e3 e4 3c 7f b6 23 bd 63 95 c2 bd
       0.078116216 0.027940692 -0.039968964 -0.095011495
000010 44 23 d5 3c 2e 0f c1 3d b7 80 c4 3c 2f 7a 5d bd
       0.026017793 0.094267234 0.023987157 -0.0540716
000020 5b 7e 91 3d 02 51 52 bc 29 1a 93 3d dd ff 3e 3c
       0.071041785 -0.012836697 0.07182724 0.011657682
000030 8a 71 0a 3c ed d4 70 bd c8 53 de 3a 6a 56 d3 bc
       0.008449921 -0.05879681 0.0016962225 -0.025798041
000040 cc 47 f7 3c 84 b5 c3 ba 25 90 83 bd 77 7e c8 bd
       0.030185603 -0.0014931415 -0.06423978 -0.09789746
000050 82 84 d8 bd 9e 0f d5 3d bf 93 50 3d 3a e0 c3 bc
       -0.10572149 0.10403369 0.05092215 -0.02391063
000060 f7 e4 6f bd a1 d7 12 3d 27 3c d0 bd 20 c9 b6 3c
       -0.058567967 0.03585017 -0.10167723 0.0223127
000070 3a c6 d4 ba 18 db 0e bb 6c af 5f bd 42 91 86 3d
       -0.0016233393 -0.002179807 -0.054610655 0.065706745
000080 aa 7c bb 3c e1 0d e1 bd c1 a0 fe 3b 0b ef a7 bd
       0.022886593 -0.10988975 0.007770628 -0.08199891
000090 3b 96 03 3e 36 aa a7 3d d2 a7 b0 3d d9 2c ce 3c
       0.12850277 0.08186762 0.08625759 0.02516787
0000a0 17 86 cc bd 62 03 95 bd 85 da 72 bd 99 2a d1 3b
       -0.09986513 -0.07276036 -0.059290428 0.006383252
0000b0 40 68 31 bd ce 36 33 3d 1a 00 ca bc 25 88 4d 3d
       -0.04331231 0.043753438 -0.024658252 0.050178666
0000c0 b6 b8 9d bc eb be cc bd 4b e1 86 3d d5 2e d3 bb
       -0.019253116 -0.09997352 0.0658594 -0.006444792
0000d0 60 64 29 3c 98 e1 61 bd 13 db a4 bc b7 37 b7 bc
       0.010338873 -0.055146784 -0.020123994 -0.022365434
0000e0 6d 1f cd 3c e7 1a d0 bc b9 e5 c6 3c 63 6b 3c bd
       0.025039399 -0.025403453 0.024279462 -0.04600085
0000f0 ae 89 e5 3a 7a 77 5f 3c 71 6d ef bd cb 13 40 bc
       0.0017512345 0.013639325 -0.11690796 -0.011723469
000100 27 b1 ab bc a9 6d ea bd 91 84 51 bd 83 34 ad bd
       -0.020958496 -0.11446697 -0.051151816 -0.084572814
000110 67 c2 99 bd 52 ae c2 3b c6 19 c7 bd 9e de 86 3d
       -0.075077824 0.0059411908 -0.09721713 0.065854296
000120 66 23 ac 3d 90 1c 47 bc 08 37 40 bc 6b 37 4d bd
       0.08405189 -0.012152806 -0.0117318705 -0.05010168
000130 16 ff f0 bd 01 85 b0 3c 39 67 dc 3d aa ec 94 bd
       -0.11767404 0.021547796 0.10761876 -0.072717026
000140 c0 69 7b 3d 9a 6c 8a bd 96 1f 2b 3d 99 12 a1 3d
       0.061380148 -0.06758995 0.04177817 0.07864875
000150 f1 a2 b6 3d 83 82 0d 3d be 4b 30 bd a6 67 08 3d
       0.08917797 0.034548294 -0.043040983 0.03330197
000160 46 cb 10 bc e9 bb 34 bb fb 85 7a bd 26 c4 6f bd
       -0.008837527 -0.0027577823 -0.06116293 -0.05853667
000170 4b ac 84 bc 44 41 99 3d 18 23 e4 bc 98 49 d8 3d
       -0.016195437 0.074831516 -0.027848765 0.10560912
000180 3c 3b c0 bc 16 52 19 bd 9d 05 ba bd 48 c4 90 bd
       -0.023465745 -0.0374318 -0.09083102 -0.07068688
000190 a7 80 4a bc 43 62 e6 3d 07 20 cb bd 6b 1d 44 bd
       -0.012359775 0.11249211 -0.09918218 -0.047879618
0001a0 33 be 8d bb 36 0d 76 bd 95 7e 0a 3c 78 8b fc 3c
       -0.004325652 -0.060071193 0.008453031 0.030828223
0001b0 99 dc 63 bd 21 5f ae bc a6 7c 42 bc 6c b3 6e bd
       -0.0556303 -0.021285595 -0.011870539 -0.05827658
0001c0 21 f7 a0 3c e7 b1 29 3d 58 cd 85 bd 68 4b 7f 3d
       0.01964909 0.041429427 -0.06533307 0.062327772
0001d0 e1 f4 61 3d f7 b8 9a bd d4 08 77 bc 06 61 32 bd
       0.055165175 -0.075548105 -0.015077788 -0.04354956
0001e0 06 00 7f bd 7f c7 e1 bd 81 42 a9 bd 28 a2 20 3d
       -0.06225588 -0.11024379 -0.08264638 0.039217144
0001f0 85 a4 4b 3d ac 6a 72 bd 9d 36 41 bd d0 dd b4 3d
       0.049717445 -0.05918376 -0.047171224 0.0883137
000200 41 08 9e 3d c1 44 81 bd 8d 6a 6a bd 3b 82 df 3c
       0.07716418 -0.06311942 -0.05723052 0.027283778
000210 f8 e0 a1 3d 7d b7 e8 3c 08 3f 95 bd 98 73 55 bd
       0.079042375 0.028407807 -0.07287413 -0.052112192
000220 ac a5 8f 3d bb 18 c1 bd 42 ab f1 bd f9 1a a9 bc
       0.07014021 -0.09428545 -0.11800243 -0.020642744
000230 ea d3 96 3d 68 e6 97 3d 94 cd c0 bc b6 07 8e 3d
       0.07364638 0.074169934 -0.023535527 0.069350645
000240 9b 81 a6 bd 9d 61 d5 3d 3f cd cb bc 60 18 b2 bc
       -0.08130189 0.10419009 -0.024878142 -0.021740139
000250 9c ca 8b bd a4 16 83 bd a9 eb 0b 3c 95 38 24 3c
       -0.06825754 -0.06400803 0.0085400725 0.010023256
000260 8b 48 98 3d 33 f3 8e 3d 2e ee d3 3d 15 f0 79 bd
       0.074357115 0.0697998 0.103481635 -0.061019976
000270 2e bf 50 3b 85 2c 88 bd f8 8f 93 bb 5a 83 7e 3d
       0.0031852233 -0.066491164 -0.0045032464 0.062136985
000280 85 e6 f5 3d 33 3a 44 bc da 25 e0 bd 12 ce ed bd
       0.12006859 -0.011976766 -0.109447196 -0.116115704
000290 3f 26 f4 bc aa c3 bb bb b3 c7 15 3b 71 dc e0 bd
       -0.029803393 -0.005730112 0.0022854626 -0.10979546
0002a0 00 43 b8 bb e8 22 e2 3c a9 4b 54 3d 22 e3 89 3b
       -0.0056232214 0.027604535 0.051829968 0.0042079845
0002b0 a5 b9 9c bd c0 af c0 bd 14 2d dc 3b b2 64 c4 3c
       -0.076525964 -0.09408522 0.006719241 0.023973797
0002c0 5a 05 54 3b 74 47 66 bc 2c 23 b4 bc 2c ac 3c 3c
       0.0032351823 -0.014055122 -0.021989428 0.011515658
0002d0 cd 02 e8 bc ab 80 c5 3c ab 8a e0 bd 26 3a 6d bd
       -0.028321648 0.024109205 -0.10963949 -0.057916783
0002e0 8d b4 34 bc 21 26 a5 bc c3 86 bd 3d d6 27 3e 3d
       -0.011029375 -0.020159783 0.092542194 0.04642471
0002f0 b9 be a5 3d b7 d4 3b bc ea b5 4a bd a2 59 dd 3c
       0.08093018 -0.011464289 -0.049489893 0.02702028
000300 16 ca 6e bc 74 bd 07 3d 88 6b bc 3d 5b df 28 3b
       -0.014574548 0.03313966 0.092001975 0.0025767896
000310 bf 8d 08 3d e4 cd 62 bc 9f f7 ab 3d 76 ad bb 3c
       0.033338305 -0.013843033 0.08396839 0.022909861
000320 37 ec a0 bd be 17 7a 3d 16 bc f5 3c d5 b1 43 3c
       -0.078575544 0.0610578 0.029996913 0.011944254
000330 b5 99 f6 bd 6e 0b 8f 3d b6 44 c7 bc 5f 30 43 3c
       -0.12041036 0.06984602 -0.024324756 0.011913388
000340 6a ff ba 3d 77 03 0a bd c3 ea f4 bc 0f 5a 81 bd
       0.091307476 -0.03369471 -0.0298971 -0.063160054
000350 03 ec e2 bc 81 49 fa bd 15 80 d2 bc 6c 08 6e 3c
       -0.02770043 -0.12221051 -0.02569584 0.014528375
000360 fc b0 a3 3a a1 af 96 3b 1b b3 9b 3d 2b 72 42 bd
       0.0012488659 0.0045985733 0.07602521 -0.04747216
000370 17 13 84 bd 4b 04 13 bc 63 35 c0 3d ae b6 86 3c
       -0.064489536 -0.0089731915 0.09385183 0.01644453
000380 f4 25 66 3d 50 a9 e5 3d a4 4c 3f bd f3 a7 84 bd
       0.05618854 0.112139344 -0.04670395 -0.06477346
000390 be f5 c5 3c f0 82 e8 3c af c6 e8 bd 23 90 14 bd
       0.02416503 0.028382748 -0.11366021 -0.036270272
0003a0 8d 0f b0 3c a9 05 90 3d 22 45 9d 3d 90 55 db bd
       0.02149179 0.070323296 0.07679202 -0.10709679
0003b0 25 8d 75 bd 66 01 aa bd 38 8c b5 bd 7a ed c0 bd
       -0.05994906 -0.08301048 -0.08864635 -0.09420295
0003c0 e2 7f 7e 3d c5 01 82 3a 02 bb e5 3b 79 41 6e bd
       0.062133677 0.000991874 0.0070108185 -0.05816791
0003d0 a8 53 9c 3d 05 3c d1 bc a1 04 91 3b 86 db cd bd
       0.07633144 -0.025541315 0.0044256006 -0.100516364
0003e0 16 f5 1e bd 44 d9 e2 3d a0 87 be 3d e6 af 19 bd
       -0.03880795 0.110765964 0.09303212 -0.037521265
0003f0 c8 f3 b6 3d d1 1c c6 3d 96 4a aa bd 9a 88 ba 3d
       0.08933216 0.09673465 -0.083150074 0.09108086

module.params.4.weight f4 [1, 256]
000000 ce 56 9b 3d 7a fb 7b bb f1 cd 89 bd b0 c8 02 bd
       0.07584916 -0.0038449452 -0.06728733 -0.03192967
000010 df b3 87 3d dd f1 a6 3d 11 8e 8a 3d 7f 29 1a bd
       0.066261046 0.081516005 0.06765378 -0.03763723
000020 bf 18 b1 3d e4 c8 50 3d 9e dc a4 3d 72 d9 e7 3c
       0.08647298 0.050972834 0.08049892 0.028301928
000030 14 ca f8 bc da bc 34 bb da 92 a2 3d 7a 3d 2c bd
       -0.030369796 -0.0027578385 0.07938166 -0.042050816
000040 e8 ee a1 bd d3 ed 6a 3c 0a 1f f3 3d 3c c5 69 bd
       -0.07906896 0.014338928 0.118711546 -0.057072863
000050 eb 39 4a bd 11 31 91 3d 86 bc a2 bd 59 75 f8 bc
       -0.04937164 0.07089437 -0.07946114 -0.030329393
000060 20 1b 84 bd 5b 60 86 bd 3f 32 93 bd fc ba 18 3c
       -0.06450486 -0.06561347 -0.07187318 0.009321924
000070 af ac 8f 3c 77 7d bb bc b9 57 99 b9 0d 22 06 3d
       0.017538397 -0.022886975 -0.00029247793 0.032747317
000080 a5 5b a4 bc b7 16 94 bd df aa 00 be 7f 04 0e 3e
       -0.02006323 -0.07230895 -0.12565182 0.13868903
000090 30 73 c5 3d 4b 60 ee 3c 83 80 8d 3d 74 f1 43 3d
       0.09641111 0.02909865 0.06909277 0.04783769
0000a0 ca 76 4a bd a0 42 1a bd 8d 5f 93 bd 48 d6 8b bd
       -0.049429692 -0.037661195 -0.07195959 -0.0682798
0000b0 46 12 97 bd 0f 94 7a 3d 86 4a 90 bd 6c e4 d9 3c
       -0.07376532 0.061176356 -0.07045464 0.026598178
0000c0 34 3f f7 3c d3 2c 4a bd 50 a4 16 3d cd 39 0a bd
       0.030181505 -0.049359154 0.036777794 -0.03374653
0000d0 30 cd 36 3c 97 7c c6 bd f2 14 8c 3c 96 b9 72 bd
       0.011157319 -0.096917324 0.017099831 -0.05925902
0000e0 73 96 cb 3c 40 40 5d bd 03 27 6e bc c8 99 8d bc
       0.024852013 -0.05401635 -0.014535668 -0.017285243
0000f0 21 78 ac 3c 5b 8b b7 3d bf 4f e4 bd 14 60 52 bd
       0.021053376 0.08962127 -0.11148023 -0.05136116
000100 e1 56 e5 ba 5a 1e bd bd 1d c6 27 3e 53 23 82 3e
       -0.0017497205 -0.09234305 0.16384168 0.25417575
000110 b0 c4 05 3e 74 66 06 3a 43 0f a0 bd d0 ff 32 3c
       0.13063312 0.0005126961 -0.07815411 0.010925248
000120 df 10 37 3d d1 de 71 3d 9e fe 2a bd 39 79 8a 3d
       0.044693824 0.059050385 -0.041746728 0.06761403
000130 6f 80 67 bd 9e 09 07 3d 8c 5b 1a 3d fa 9e 2c bd
       -0.05651897 0.032968156 0.037684962 -0.0421438
000140 34 93 68 3d 5a dc 57 bd 70 72 4b 3d 4b da 07 3d
       0.05678101 -0.052700378 0.049669683 0.033167165
000150 68 c3 8c 3d 2d 04 6f 3d c5 ca 33 bd a6 65 de 3c
       0.06873208 0.05835359 -0.043894548 0.02714808
000160 a6 48 15 b9 dc cb 1e bc 9a 75 05 bd 15 26 97 bd
       -0.00014236811 -0.009692159 -0.032582857 -0.073803104
000170 51 eb cb 3c 8e 08 e1 3c 5b 7b 2d bd 8e fe 99 3d
       0.024892481 0.0274699 -0.04235397 0.075192556
000180 4d 23 68 3a bd f0 84 bd 5f 3f 7a bd b0 39 83 bd
       0.0008855358 -0.0649123 -0.06109559 -0.064074874
000190 e9 ec 46 bc 22 ec e3 3d 6d fd 8f bd 26 70 a0 bd
       -0.012141445 0.11129023 -0.07030759 -0.078338906
0001a0 78 d3 9d bc b5 34 12 bd ec 0f 6d bc 76 37 52 3d
       -0.019265875 -0.035694797 -0.014469128 0.051322423
0001b0 3e 7b 29 ba 7b ac 55 bc 15 11 66 bd 2d 23 5c 3e
       -0.0006465203 -0.013041611 -0.056168634 0.21497793
0001c0 2f 33 44 bd 61 7f 7f 3d b6 09 47 bd 20 21 18 3c
       -0.047900375 0.062377337 -0.048593245 0.009285241
0001d0 b0 1b b8 3d b3 e7 a3 3e b6 d2 57 bc ad 59 0b bc
       0.08989656 0.3201271 -0.013172796 -0.008505267
0001e0 26 61 6c bd 52 9f a7 bd b4 6d 22 3e 95 4f 8b 3c
       -0.057709835 -0.08184685 0.15862161 0.017005721
0001f0 da e9 b5 3c 65 55 12 bb 59 aa 8c b9 29 6a 34 3d
       0.022206236 -0.002232873 -0.000268298 0.044046555
000200 18 19 2f 3d a2 99 72 bd 03 96 b4 bc 6f 1d 0e 3d
       0.04274854 -0.059228547 -0.022044187 0.03469604
000210 99 c6 b2 3c 9f 38 36 3d 3f 45 b4 bd a9 84 00 bc
       0.021823214 0.04448759 -0.0880227 -0.007844129
000220 42 d8 f1 bd 0c af a2 bd fb 19 5d bd cc 0b 71 bd
       -0.11808826 -0.07943544 -0.053979855 -0.05884914
000230 5a 2a f1 3c 47 5f 9f be 2b 9b a6 3c fb 64 1e be
       0.02943914 -0.31127378 0.020337662 -0.15468208
000240 a2 5b 88 bd e3 0a 1b 3d b8 af 2a 3e 9f e8 8b bd
       -0.066581026 0.03785218 0.16668594 -0.06831478
000250 e3 a9 f3 bc 5e 80 a4 bd a4 7b 34 bd ca dc 76 39
       -0.029744094 -0.080322966 -0.044063225 0.00023542639
000260 8a 38 14 3d ed 77 1b 3d 6e 59 8d 3d fe 8d 0b 3e
       0.036186732 0.037956167 0.06901823 0.13628384
000270 7e 43 08 bd fd 56 65 3e 6c d8 11 3c c2 26 9b be
       -0.03326749 0.22396465 0.008901697 -0.30303007
000280 12 a9 9d 3d ac 81 5e bd d4 98 ac bd a4 08 ac bd
       0.07698263 -0.054322883 -0.08427587 -0.084000856
000290 90 79 90 3c 26 a6 3e 3d 21 0a 1a be 81 46 31 bd
       0.01763609 0.04654517 -0.15042926 -0.04328013
0002a0 01 8d 6d 3c 74 5e ae bb 98 d1 02 be 1f bb 94 38
       0.01449895 -0.0053213183 -0.12775266 7.092044e-05
0002b0 63 10 72 bd 34 68 a8 bd 0c b2 a3 3c 74 80 5d 3d
       -0.05909766 -0.08223 0.01998236 0.05407758
0002c0 46 a5 84 39 45 ab 9a 3c 51 c0 11 bd 44 56 49 bc
       0.0002530014 0.018880496 -0.035583798 -0.012288634
0002d0 d5 b0 91 bc fe 8b 8e 3d 21 3a df bd bb 25 c6 bd
       -0.017784515 0.06960295 -0.10899759 -0.09675165
0002e0 30 ce cc bc 6b d3 7a 3c a7 30 1a 3d 79 4f a3 3c
       -0.025000662 0.015309195 0.037644055 0.019935356
0002f0 67 0b a6 3d c0 2f 72 bc ff 31 49 b7 01 11 17 3d
       0.081076436 -0.014781892 -1.1992174e-05 0.03688145
000300 33 b1 70 bc 65 6e 08 bd ab 42 d6 3c 1f c1 6a 3d
       -0.014690685 -0.033308405 0.026154837 0.05731308
000310 e8 24 fb bd 9c c6 e8 bc 7a 3d 5e 3d be aa 36 3d
       -0.12262899 -0.028415017 0.054257847 0.044596426
000320 f2 d0 9e bd a7 cc 4e 3c aa 36 60 bc 88 5a 88 3d
       -0.07754697 0.012622035 -0.013684908 0.066578925
000330 75 94 a0 3e 59 0b 80 3d ea 65 5b 3c 83 84 7f 3d
       0.31363264 0.062521644 0.013390997 0.062382232
000340 5f 63 25 3d d6 30 bf bb 14 b4 a6 bb 0d 76 26 bd
       0.04037797 -0.005834679 -0.005087385 -0.040639926
000350 91 c7 7a 3e c7 a2 e3 bd 5d 07 8c 3d f8 62 a7 3d
       0.24490191 -0.11115032 0.06837342 0.08173174
000360 33 e4 2a bd 74 21 5e 3d d7 4f 2f 3d 93 5d ac 3d
       -0.041721534 0.054231122 0.04280075 0.08416285
000370 63 48 ca bc 0f 32 a8 bc 99 d1 99 be 71 f2 06 bd
       -0.02469272 -0.020531682 -0.30042723 -0.032946054
000380 90 d9 ec 3c 55 21 b6 3d 55 72 28 bc 6c 9a 3c bd
       0.028912336 0.08893076 -0.010281165 -0.046045706
000390 ed 52 e2 3c f4 74 49 3d 19 2e 37 bd 4a 25 c8 bc
       0.027627433 0.0491838 -0.044721697 -0.024431843
0003a0 74 a9 8a b8 a5 96 bb 3d 74 9b 03 3d 47 eb 8f bd
       -6.611916e-05 0.091595925 0.032130674 -0.070272975
0003b0 ee 3f 8c bd 21 74 36 bd 26 1b b0 bd 08 50 52 3e
       -0.06848131 -0.044544343 -0.08598928 0.20538342
0003c0 60 dc a9 3c f5 a1 20 3d 9b a4 98 b8 e4 de 81 bd
       0.020734966 0.039216954 -7.278585e-05 -0.06341341
0003d0 d5 38 0c 3d 68 10 a9 b7 44 58 ad 39 e0 38 86 bd
       0.034233887 -2.015401e-05 0.00033062894 -0.06553817
0003e0 6b 23 a1 bc bc e4 26 3d 9d dd 8e 3d 64 bd c9 bc
       -0.019670209 0.04074548 0.06975863 -0.024626441
0003f0 49 ed 3a 3d 88 63 87 3d ec c9 30 bd f0 06 37 be
       0.04563645 0.06610781 -0.043161318 -0.1787374
