Future implementations/models/navigation_policy.pth (torch, 290156 bytes, 6 tensors)

module.0.module.0.params.0.weight f4 [256, 18]
0	0x3c1ac9ed	0.009447557
1	0xbe17d5ae	-0.14827606
2	0x3e260b96	0.16215357
3	0xbd54a25d	-0.051912654
4	0xbd316c46	-0.04331615
5	0x3cc6c267	0.02426262
6	0xbe10e2dd	-0.14149041
7	0xbcc18f64	-0.023627944
8	0xbed32483	-0.41238794
9	0xbee6ed30	-0.45102835
10	0xbef19182	-0.47181326
11	0xbe644ba5	-0.22294481
12	0xbe93ab9d	-0.28841868
13	0xbe08ff06	-0.13378534
14	0x3e6cc3d7	0.23121582
15	0x3ef1dadf	0.47237298
16	0x3e360e37	0.1777886
17	0x3e336072	0.1751726
18	0x3dee039b	0.116217814
19	0x3e377501	0.17915727
20	0x3da60551	0.08106483
21	0x3e7ee1a5	0.24890764
22	0x3e13abfd	0.14421077
23	0x3e6d74f3	0.23189144
24	0xbe099999	-0.13437499
25	0x3e528e3e	0.20562074
26	0x3dd3309a	0.103120044
27	0x3cf2b627	0.029627873
28	0x3ed8089c	0.42194068
29	0xbcddebb5	-0.027089933
30	0x3e7e7974	0.24851018
31	0xbd5749de	-0.05256068
32	0xbea5ca0a	-0.32380706
33	0xbedf3136	-0.43592232
34	0x3ddf65bd	0.10908077
35	0xbe6649be	-0.22489068
36	0xbdd3cc8f	-0.10341751
37	0xbe2c1670	-0.16805434
38	0xbd6770e4	-0.056504145
39	0x3e5847fa	0.21121207
40	0x3dd7391c	0.105089396
41	0xbdcebf9a	-0.10095139
42	0x3e2417b5	0.16024669
43	0x3ec13e1f	0.37742707
44	0x3ed2104f	0.41028067
45	0x3eae73b2	0.34072644
46	0xbe165b83	-0.14683346
47	0xbe2b1e30	-0.16710734
48	0xbe4b1165	-0.19830854
49	0xbe34e544	-0.17665583
50	0x3d329d27	0.043606903
51	0x3ca110c0	0.019661307
52	0xbdeaea49	-0.114704676
53	0x3da5368f	0.08067047
54	0x3e475714	0.19466811
55	0x3d489b9e	0.048976533
56	0xbe2012d1	-0.15632178
57	0xbe600b6f	-0.21879362
58	0xbe8967a5	-0.26836887
59	0x3e902220	0.28151035
60	0x3ca811b1	0.020516248
61	0xbc932210	-0.017960578
62	0xbc3d023e	-0.011536179
63	0x3e209906	0.15683374
64	0xbcdbd337	-0.026834114
65	0x3ead2d3e	0.3382358
66	0x3e3b0171	0.18262269
67	0x3e9bbec8	0.30418992
68	0x3e3590a3	0.17730956
69	0x3d772740	0.060340166
70	0xbdaeedb1	-0.0854143
71	0xbe93051f	-0.28714845
72	0x3d27a364	0.040927306
73	0xbb35c602	-0.002773643
74	0xbe0b2546	-0.13588437
75	0x3e5491e7	0.20758782
76	0x3e25705e	0.16156146
77	0x3dc73410	0.09726727
78	0xbe45d528	-0.19319594
79	0xbd1ca888	-0.03824666
80	0xbca57244	-0.020196088
81	0xbcb94591	-0.02261618
82	0x3e1f9904	0.15585715
83	0x3e5c6a85	0.21525009
84	0x3eada815	0.339173
85	0x3ee0de0c	0.43919408
86	0x3f01b07c	0.5065992
87	0x3ed85293	0.422505
88	0x3d05a251	0.0326255
89	0x3e3bf87f	0.18356512
90	0xbe3479ff	-0.17624663
91	0x3e01d68d	0.12679501
92	0x3e56b781	0.20968439
93	0xbdbb098d	-0.09132681
94	0x3e098778	0.13430583
95	0xbe29d4ff	-0.16585158
96	0xbd8b3e90	-0.06799042
97	0xbc18c026	-0.0093231555
98	0x3ebc5d30	0.36789846
99	0x3ec0f3fe	0.3768615
100	0x3e671892	0.22567967
101	0xbdddb81e	-0.10826133
102	0xbeb640ad	-0.3559622
103	0xbeeb7c62	-0.45993334
104	0xbea9f0eb	-0.33191618
105	0xbd9592ed	-0.073034145
106	0xbd19d21f	-0.037553903
107	0x3e9adf59	0.30248526
108	0xbe3ae4bd	-0.18251319
109	0xbe21e3ca	-0.15809551
110	0x3e60bb2e	0.21946403
111	0xbe00b522	-0.12569097
112	0xbd23056f	-0.039800104
113	0x3e25c287	0.16187488
114	0x3d03be65	0.032163996
115	0x3ea31be3	0.31857213
116	0x3d24eacf	0.040262993
117	0xbcc12264	-0.023575969
118	0xbe32c5fe	-0.1745834
119	0xbe857ac6	-0.2607023
120	0xbe0089ba	-0.12552539
121	0xbe8a94e5	-0.27066723
122	0xbe90c262	-0.28273302
123	0xbe7c09c1	-0.24613096
124	0x3d8dd756	0.06925838
125	0x3e552765	0.20815809
126	0xbd96f972	-0.07371797
127	0xbdd1a8f2	-0.10237302
128	0xbd98dc04	-0.0746384
129	0xbe582af8	-0.21110141
130	0xbe3b7424	-0.18306023
131	0xbe9a1d92	-0.30100685
132	0x3da06800	0.078323364
133	0xbdfe129a	-0.12405892
134	0xbc935215	-0.017983476
135	0xbddcccea	-0.10781272
136	0xbd0fe3ba	-0.035129286
137	0x3d8e9994	0.069628865
138	0x3ecd19f4	0.40058863
139	0x3ecf2885	0.404606
140	0x3dc8b991	0.09801019
141	0x3e276044	0.16345316
142	0xbe3159fa	-0.1731948
143	0x3ddaaa7d	0.10677049
144	0x3e3173fa	0.17329398
145	0x3e730d9d	0.23735662
146	0xbe470e1b	-0.19438975
147	0x3e3cb5c9	0.1842872
148	0x3e1db513	0.15401106
149	0xbe27555f	-0.1634116
150	0x3d12a7f3	0.0358047
151	0xbec49f80	-0.3840294
152	0xbe94529a	-0.2896927
153	0x3d37bafa	0.04485605
154	0x3d812985	0.06306747
155	0x3eaaaaf0	0.3333354
156	0x3eb09cf0	0.34494734
157	0x3e4bd5bd	0.19905753
158	0x3ec6a501	0.38797763
159	0xbdce6087	-0.10077005
160	0xbe785081	-0.2424946
161	0x3d00b2e1	0.031420592
162	0xbe68ef18	-0.22747457
163	0x3cb88ea5	0.022528956
164	0xbe13cd9d	-0.14433904
165	0x3e7d802a	0.24755922
166	0x3e3c4a30	0.18387675
167	0x3e7bd6e5	0.24593695
168	0xbead4c62	-0.33847338
169	0xbdf0fc0d	-0.11766825
170	0xbdc6c4bb	-0.09705492
171	0xbcb748ce	-0.022373583
172	0x3ec15594	0.37760603
173	0x3e29ff66	0.16601333
174	0x3eb10337	0.34572765
175	0x3ee41e29	0.4455426
176	0x3d032f89	0.032027755
177	0xbda3bdcc	-0.07995185
178	0xbe36c012	-0.17846707
179	0x3d934f6b	0.07192882
180	0x3d25a372	0.040439077
181	0xbe51b798	-0.20480192
182	0xbb931278	-0.0044882856
183	0x3de5541e	0.11197685
184	0x3db64df6	0.089015886
185	0xbea22b08	-0.31673455
186	0xbe30cf4b	-0.17266576
187	0xbea16b25	-0.31527057
188	0xbee93c7d	-0.4555396
189	0xbd9a6174	-0.07538119
190	0xbdc4740d	-0.095924474
191	0xbe520bbf	-0.20512293
192	0x3e9a0eb3	0.3008934
193	0x3db5616b	0.08856472
194	0x3eb54208	0.3540194
195	0x3e053328	0.13007796
196	0x3c9a1c6a	0.018812377
197	0xbe1ca951	-0.15298964
198	0x3e45b2c4	0.19306475
199	0x3e335d08	0.17515957
200	0x3e54c0db	0.20776694
201	0xbe3ef5e5	-0.18648489
202	0xbe5783d2	-0.21046379
203	0x3e449f5c	0.19201416
204	0x3dfb42bf	0.1226859
205	0x3d8e206b	0.06939777
206	0xbd3748e3	-0.044747245
207	0xbf118003	-0.56835955
208	0xbe831774	-0.2560383
209	0xbe2cc405	-0.1687165
210	0x3cebd30c	0.028787158
211	0x3d2273a8	0.03966108
212	0x3da42f7d	0.0801687
213	0x3d6ca333	0.057772826
214	0x3e9a8df8	0.3018644
215	0x3e80c70f	0.2515187
216	0x3dd16d21	0.10225893
217	0x3e17cb4e	0.14823648
218	0xbc17de9e	-0.009269385
219	0xbdaef997	-0.08543699
220	0xbe69be83	-0.2282658
221	0xbdbef055	-0.093231834
222	0xbe8dfbbd	-0.27731124
223	0xbe588c6f	-0.21147321
224	0x3dc824c4	0.097726375
225	0xbca69bde	-0.020337995
226	0x3e49256c	0.19643182
227	0x3e72cad3	0.23710184
228	0x3ec18b07	0.37801382
229	0x3e30ec04	0.17277533
230	0x3ecd61c0	0.4011364
231	0xbe460b0b	-0.1934015
232	0xbe8c4ab6	-0.2740075
233	0xbbcd7360	-0.0062698573
234	0xbde82a97	-0.11336248
235	0xbd74dfc8	-0.059783727
236	0xbd4bb6c5	-0.04973485
237	0x3e946089	0.289799
238	0xba410051	-0.0007362413
239	0xbe5bc1a0	-0.21460581
240	0xbd74adbb	-0.059735995
241	0x3c976879	0.018482434
242	0xbe564d32	-0.20927885
243	0x3eb5b127	0.3548672
244	0x3e91cd69	0.28477028
245	0x3e81778e	0.25286525
246	0x3df405e9	0.1191519
247	0xbd4c3175	-0.049851853
248	0x3e751344	0.2393313
249	0x3e0ee299	0.13953628
250	0xbe8b5609	-0.27214077
251	0xbea10d42	-0.31455427
252	0x3e250885	0.16116531
253	0xbc49814d	-0.012298894
254	0xbd5e3cc0	-0.054257154
255	0x3e8f69ce	0.2801041

module.0.module.0.params.0.bias f4 [256]
0	0x3dc6cb36	0.09706728
1	0x3da1d6b9	0.07902283
2	0x3d369a1e	0.04458057
3	0xbdccc2d4	-0.09998098
4	0xbdeffcc5	-0.11718134
5	0x3dda597b	0.10661598
6	0xbc208973	-0.009798395
7	0xbd681fbd	-0.056670893
8	0x3e548afe	0.20756146
9	0xbda96bd1	-0.082725175
10	0x3e10d0e3	0.14142184
11	0x3e027459	0.12739696
12	0xbe039ed0	-0.12853551
13	0x3e0c7868	0.13717806
14	0xbd83bd31	-0.0643257
15	0xbc4c2630	-0.0124602765
16	0x3e4a14d7	0.19734512
17	0xbe01cd26	-0.12675914
18	0xbdf380c8	-0.118897974
19	0xbe2bb314	-0.16767532
20	0xbd10453e	-0.035222284
21	0x3de613a7	0.11234217
22	0xbdde51ba	-0.10855432
23	0xbb0c4ac4	-0.0021406868
24	0xbe09e69e	-0.1346688
25	0xbe2d606d	-0.16931315
26	0xbe2c9c86	-0.16856584
27	0x3dafa1ad	0.08575759
28	0xbd88d502	-0.06681253
29	0xbe19a3b2	-0.15003851
30	0x3d82805a	0.06372137
31	0xbba15bad	-0.0049242587
32	0x3e5d3b8d	0.21604748
33	0x3e33fa77	0.17576014
34	0xbdffbc42	-0.12487079
35	0x3dcce296	0.10004155
36	0xbe3b964a	-0.1831905
37	0x3e3f8b92	0.18705586
38	0x3e1fc426	0.15602168
39	0x3da2c6d0	0.07948077
40	0x3d90b827	0.07066374
41	0xbe231e21	-0.15929462
42	0x3dc432d5	0.09580008
43	0x3dec33c5	0.11533312
44	0x3cdb6e28	0.026785925
45	0x3caf34ec	0.02138754
46	0x3de55ec3	0.11199715
47	0xbdde729d	-0.108617045
48	0xbe03c92c	-0.1286971
49	0x3d38dfbb	0.04513524
50	0xbc3cc8a4	-0.011522446
51	0x3dbdd702	0.09269525
52	0x3dbd6bef	0.09249102
53	0xbe075295	-0.13215096
54	0xbd5b347d	-0.053516854
55	0x3d202210	0.039094985
56	0x3db8125b	0.08987876
57	0xbd098cfa	-0.03358171
58	0x3d4c0c34	0.049816325
59	0x3dcca9ef	0.0999335
60	0xbde592d9	-0.112096496
61	0x3d690f5b	0.05689941
62	0x3e133921	0.14377262
63	0x3d11b8af	0.03557652
64	0xbdfd6d79	-0.12374396
65	0xbd156015	-0.036468584
66	0x3da683ae	0.08130585
67	0x3d17f01d	0.037094224
68	0x3d9e0f04	0.07717708
69	0x3e2bbe85	0.16771896
70	0xbdcb4275	-0.09924785
71	0xbe37aecf	-0.17937778
72	0xbd52e3dc	-0.051486835
73	0x3e4496db	0.19198172
74	0xbd522b3a	-0.051310755
75	0x3de33119	0.11093349
76	0xbd31a7d7	-0.043372955
77	0xbe3ed675	-0.18636496
78	0x3d4c0f55	0.04981931
79	0x3deeb1d3	0.11655011
80	0xbe1a623c	-0.15076536
81	0x3d8e9d99	0.06963653
82	0x3d1eef3c	0.03880237
83	0x3e246e98	0.16057813
84	0x3d9bf984	0.07615951
85	0xbdd7699d	-0.10518191
86	0xbd9546d0	-0.07288897
87	0x3da949ab	0.08266004
88	0x38b82d98	8.782296e-05
89	0xbe3bd4b5	-0.1834286
90	0x3ddd363e	0.108013615
91	0xbe2371ea	-0.15961424
92	0x3daab9f0	0.08336246
93	0x3cba4503	0.022737985
94	0xbdfb764b	-0.12278422
95	0x3cc19f76	0.023635607
96	0x3e00195b	0.12509672
97	0x3c0cff95	0.008605857
98	0xbc0f0b7e	-0.008730767
99	0xbd2935c7	-0.04131105
100	0x3e401b04	0.18760306
101	0xbdf43605	-0.11924366
102	0x3dad6dcd	0.084682085
103	0xbbb123db	-0.0054058856
104	0x3d951c9d	0.07280848
105	0x3cf41438	0.029794797
106	0x3cb4a71e	0.022052344
107	0x3e467688	0.19381154
108	0x3e5707bc	0.20999044
109	0x3d80c51f	0.06287598
110	0x3df68c44	0.12038472
111	0xbe13cace	-0.14432833
112	0xbe6a46b9	-0.22878541
113	0x3e08c9c2	0.13358214
114	0xbe40ccfd	-0.18828197
115	0xbe135d0b	-0.14390962
116	0x3e20f68d	0.15719052
117	0x3cff06b0	0.031131119
118	0x3de59f2f	0.112120025
119	0xbdbd65e7	-0.09247952
120	0x3e1739ed	0.1476819
121	0x3cb504f7	0.022097094
122	0x3dbfb494	0.093606144
123	0xbe196e79	-0.14983548
124	0x3e573083	0.210146
125	0xbe6053ca	-0.21906963
126	0xbbea87d5	-0.0071573057
127	0x3e3254ee	0.1741521
128	0xbda93bbf	-0.08263349
129	0xbce5b975	-0.028042534
130	0xbd2500f9	-0.04028413
131	0xbd0bf864	-0.03417243
132	0x3e22f716	0.15914568
133	0xbdd2ae0f	-0.10287105
134	0xbcec29b6	-0.028828483
135	0x3db42e93	0.08797946
136	0xbe17bf26	-0.14819011
137	0x3e3767a7	0.17910634
138	0x3df203b3	0.11817112
139	0x3e3abc30	0.1823585
140	0xbd88aa3f	-0.06673097
141	0xbdd8edf2	-0.105922595
142	0xbe23987c	-0.15976137
143	0xbe068f1d	-0.13140531
144	0x3dd9fada	0.10643549
145	0xbb1295a0	-0.0022367015
146	0x3e18288d	0.14859219
147	0xbc996d2e	-0.018728819
148	0xbe18c441	-0.14918615
149	0xbe43ef28	-0.191342
150	0x3dfea44f	0.12433683
151	0x3cf81620	0.030283988
152	0xbe3f1c92	-0.18663242
153	0x3d67b2c7	0.05656698
154	0x3d922c4f	0.071373574
155	0xbba809d0	-0.005128123
156	0xbc6ddf0d	-0.0145185115
157	0x3b208571	0.00244936
158	0xbbb5f45f	-0.005552813
159	0xbc9b0bb8	-0.018926486
160	0xb9f1444a	-0.0004601798
161	0x3d4d79a0	0.05016482
162	0xbe351064	-0.17682034
163	0xbe2181ff	-0.15772246
164	0x3def9da8	0.116999924
165	0xbd0b7086	-0.034042858
166	0x3e0aff2c	0.13573903
167	0xbd6a5ad5	-0.05721553
168	0x3d414083	0.047180664
169	0xbe47ce02	-0.1951218
170	0x3de381c2	0.11108734
171	0x3df755a4	0.120768815
172	0xbdf00274	-0.11719218
173	0xbca6cc78	-0.02036117
174	0x3e0a2bf8	0.13493335
175	0x3c21f7a0	0.009885699
176	0xbe07a103	-0.13245015
177	0xbe010775	-0.12600501
178	0x3d0e5b36	0.034754954
179	0x3de31d40	0.11089563
180	0x3e17c23b	0.14820187
181	0x3dd31de0	0.103084326
182	0xbda97215	-0.082737125
183	0x3e421b45	0.18955715
184	0x3e32f375	0.17475684
185	0xbe590f60	-0.21197271
186	0x3dd9c0c5	0.10632471
187	0xbd63b43e	-0.055591814
188	0x3e195c5e	0.14976642
189	0xbde69154	-0.11258188
190	0xbe145fd7	-0.14489685
191	0x3d3557a3	0.04427303
192	0xbcf7cdde	-0.030249532
193	0xbb0c6d83	-0.0021427579
194	0x3e49f6d7	0.19723068
195	0xbe3a1fad	-0.18176146
196	0xbcbb8492	-0.022890363
197	0xbe104149	-0.14087404
198	0xbe3a8614	-0.18215209
199	0xbe151c3f	-0.14561556
200	0x3e32b2bc	0.17450994
201	0xbe2a2d20	-0.16618776
202	0x3dd09bc0	0.10185957
203	0x3e36ebbd	0.17863365
204	0xbc8cda63	-0.017193979
205	0xbb310640	-0.0027011782
206	0xbe3d2315	-0.18470414
207	0xbd899125	-0.06717137
208	0x3d8658f7	0.065599374
209	0xbe404534	-0.18776399
210	0x3c46d036	0.012134602
211	0xbda95bae	-0.0826944
212	0x3e4fe9c5	0.2030402
213	0x3cda8754	0.026675858
214	0x3e0557b8	0.13021743
215	0x3d9f7b8a	0.07787235
216	0xbe087223	-0.1332479
217	0x3e0cdd6c	0.1375634
218	0xbe2f6293	-0.17127447
219	0x3e0c1667	0.13680421
220	0xbdc47233	-0.09592094
221	0x3c3994bd	0.011326966
222	0x3e1cb8d4	0.15304881
223	0xbe2826c9	-0.16421045
224	0x3cfe8e39	0.031073676
225	0x3e2b4014	0.16723663
226	0xbe141707	-0.14461909
227	0xbdb16d1a	-0.086633876
228	0xbdb0f6f9	-0.08640856
229	0xbe27f61e	-0.1640248
230	0x3d8e759c	0.06956026
231	0xbc879bbc	-0.016553752
232	0xbd534ebf	-0.05158877
233	0x3e5546e9	0.20827831
234	0xbd93a2aa	-0.0720876
235	0x3d806572	0.06269349
236	0xbe18b06b	-0.14911048
237	0xbdc710a1	-0.097199686
238	0x3da453e9	0.08023817
239	0x3ac7cb06	0.0015243001
240	0x3c1c6b1f	0.009547024
241	0x3dff5488	0.12467295
242	0xbc4da410	-0.012551323
243	0x3d99b953	0.07506051
244	0xbe431fdb	-0.1905512
245	0x3e206590	0.15663743
246	0xbcc15c79	-0.023603665
247	0x3d31624e	0.04330664
248	0x3e3eb9a3	0.18625502
249	0xbdcd3405	-0.100196876
250	0xbd0a1c21	-0.033718232
251	0x3e347397	0.17622219
252	0x3d1db208	0.038499862
253	0x3e413c08	0.18870556
254	0x3e46689c	0.19375843
255	0x3caa7ad2	0.020810518

module.0.module.0.params.2.weight f4 [256, 256]
0	0x3d49305c	0.049118385
1	0xbd27ff6c	-0.041015074
2	0xbd9f41eb	-0.07776245
3	0xbd03d5cb	-0.03218631
4	0x3c8af1b1	0.01696095
5	0xbcabde74	-0.020980097
6	0xbb904f1a	-0.004403961
7	0x3b89db7f	0.004207074
8	0xbc920e9f	-0.017829238
9	0xbaa66193	-0.0012693874
10	0x3d4bca15	0.049753267
11	0xbd5cc889	-0.053902183
12	0x3d0ed3d6	0.03486999
13	0xbd3b448a	-0.04571966
14	0xbceeb060	-0.029136837
15	0x3d100752	0.03516323
16	0xbda4d828	-0.08049041
17	0x3cfcb65a	0.03084867
18	0x3ca52916	0.020161193
19	0xbd2cf4c4	-0.042225614
20	0xbcdadfad	-0.026717985
21	0x3d856cd6	0.065148994
22	0x3d2feb4e	0.042949013
23	0x3d737552	0.059438057
24	0xb6faf1b6	-7.4787195e-06
25	0x3a9b1a03	0.0011833314
26	0xbd0b7749	-0.034049306
27	0x3c92b410	0.017908126
28	0x3d8f2d42	0.06991054
29	0xbd60d999	-0.054895017
30	0x3cef6850	0.029224545
31	0x3d2315a7	0.03981557
32	0x3b85b508	0.0040804185
33	0x3d596791	0.053077284
34	0xbcb296a6	-0.02180035
35	0xbd43acee	-0.04777234
36	0xbc2deff5	-0.010616292
37	0x3c8e9235	0.017403701
38	0x3d35a812	0.044349737
39	0x3cf12154	0.029434837
40	0xbc308836	-0.010774663
41	0xbcdb0adf	-0.026738582
42	0x3d3ce4de	0.046116702
43	0x3c85882d	0.016300285
44	0x3ce513ab	0.02796348
45	0xbc1cc210	-0.0095677525
46	0x3ce6ce10	0.02817443
47	0xbcc5bc47	-0.02413763
48	0x3c0df334	0.008663941
49	0xbda0f617	-0.07859438
50	0xbd93ebb1	-0.07222689
51	0xbd0c3c22	-0.034237035
52	0xbd950758	-0.07276791
53	0xbd581337	-0.0527527
54	0x3d877cbd	0.06615589
55	0x3c392e6e	0.011302574
56	0x3d24ecfb	0.040265065
57	0xbd15b4a1	-0.036549214
58	0x3d93c14a	0.07214601
59	0x3cd3bca9	0.025846796
60	0xbc0ecef7	-0.008716336
61	0xbcff786a	-0.031185348
62	0x3d1c6006	0.038177513
63	0x3bd59dbf	0.006519049
64	0xbd832a49	-0.0640455
65	0x3cef98ff	0.029247759
66	0xbc54fc8d	-0.012999666
67	0x3ca0f97f	0.019650219
68	0x3c85a811	0.016315492
69	0x3d2eaea4	0.04264702
70	0x3d522fe3	0.0513152
71	0xbca6e8f2	-0.020374749
72	0x3867a588	5.5228855e-05
73	0xbce793b8	-0.02826868
74	0xbce4009d	-0.027832324
75	0x3c6e5f89	0.014549145
76	0x3d775beb	0.060390394
77	0xbd65644d	-0.056003857
78	0xbc93a8c3	-0.018024808
79	0x3b07ac5f	0.0020702106
80	0xbbf6cfe9	-0.007532109
81	0x3cb65e5d	0.022261793
82	0xba9937ac	-0.0011689565
83	0x3d1b880b	0.037971538
84	0x3c6d4e61	0.014484019
85	0x3cc26663	0.023730462
86	0xbcef4a20	-0.02921015
87	0xbc88e2e8	-0.01670976
88	0x3cd7a1b3	0.026322221
89	0xbc1aa9f1	-0.009439931
90	0x3cee7b40	0.029111505
91	0xbd62e811	-0.055397097
92	0x3d2fbc74	0.042904332
93	0xbc516f71	-0.012782917
94	0xbce98a16	-0.028508227
95	0xbd3e9e51	-0.0465377
96	0x3d118d91	0.0355354
97	0x3d3925d9	0.04520211
98	0x3c4ceb6f	0.012507304
99	0xbbdcb5d9	-0.006735545
100	0x3d34fb07	0.04418471
101	0x3d0a9198	0.033830255
102	0xbccd5f96	-0.025069993
103	0x3ce39ff8	0.02778624
104	0xbc5c7837	-0.013456396
105	0x3d7727f0	0.06034082
106	0xbd8ac5e5	-0.06776027
107	0xbc5f8feb	-0.013645153
108	0xbab3850f	-0.0013696271
109	0xbcbdff34	-0.02319298
110	0xbc23977b	-0.009984846
111	0x3d752080	0.059845448
112	0x3d8ed7b0	0.06974733
113	0xbb9c5785	-0.0047711753
114	0x3d57faea	0.052729525
115	0x38563dfa	5.1079296e-05
116	0x3d0d8d84	0.034558788
117	0x3d2e9532	0.042622752
118	0xbd4b87f0	-0.049690187
119	0x3d4cfb41	0.050044302
120	0x3c201c76	0.009772411
121	0xbc841ba1	-0.016126456
122	0xbce94aa8	-0.028477982
123	0xbc241aad	-0.010016126
124	0x3ca32228	0.019913748
125	0x3caf03b1	0.021364065
126	0x3ce9596c	0.028485022
127	0x3d398da1	0.045301083
128	0x3d16834b	0.036746304
129	0xbccc3aab	-0.024930319
130	0xbc7adb36	-0.015311053
131	0x3d15bf38	0.036559314
132	0x39a50ae6	0.00031479372
133	0xbd1d5df3	-0.038419675
134	0x3d3fdbfc	0.046840653
135	0x3bd717fb	0.006564138
136	0xbc4cf009	-0.012508401
137	0x3d6434e0	0.055714488
138	0x3bd07f92	0.006362864
139	0x3d022ac5	0.03177907
140	0x3d43f809	0.047843967
141	0x3c2fcb5a	0.010729635
142	0x3ba512c7	0.005037639
143	0x3d69069b	0.056891065
144	0xbd19a3f7	-0.037509885
145	0xbceb503b	-0.02872478
146	0x3c8edb6e	0.017438617
147	0xbd56e7fa	-0.052467324
148	0xbd0dea0e	-0.03464704
149	0x3d01e06f	0.031708177
150	0xbd029448	-0.031879693
151	0x3c28e4ba	0.010308439
152	0xbc52de18	-0.012870334
153	0x3ca512d6	0.020150583
154	0x3c6b1101	0.014347316
155	0x3cf02e8b	0.029319068
156	0x3d26f63b	0.040762167
157	0x3d31408b	0.043274444
158	0xbd1c841a	-0.03821192
159	0x3d50f7fd	0.05101775
160	0xbcce2c5c	-0.025167637
161	0x3c13a74d	0.009012056
162	0x3d2430f6	0.040085755
163	0xbd9fac6b	-0.07796558
164	0xbc8b9ce3	-0.017042583
165	0x3c65bacb	0.014021586
166	0xbcb5a9d9	-0.022175716
167	0x3d1364a6	0.035984658
168	0xbd502206	-0.050813697
169	0xbd1e365e	-0.038626067
170	0xbc8f2147	-0.017471923
171	0xbcd2c8c1	-0.025730493
172	0x3d20d4b1	0.03926534
173	0x3cacac99	0.021078395
174	0xbc163d07	-0.0091698235
175	0x3d324763	0.04352511
176	0xbce34e39	-0.02774726
177	0x3d47b9f0	0.04876131
178	0xbc1a2606	-0.00940848
179	0x3d908bd9	0.07057924
180	0x3d10d37a	0.03535793
181	0x3d084ed8	0.033278316
182	0x3bbfe24a	0.005855833
183	0x3d8798c0	0.066209316
184	0x3d9797fa	0.07402034
185	0x3c9ebf0c	0.019378208
186	0x3d04e7df	0.032447692
187	0x3d2aa7fd	0.041664112
188	0x3d6a94bc	0.05727075
189	0x3d2d9c2b	0.04238526
190	0xbc5815d7	-0.013188801
191	0x3d365459	0.044514034
192	0xbc88ed42	-0.016714696
193	0x3b19487c	0.0023389151
194	0xbc699e2d	-0.014258903
195	0xbd4a417f	-0.04937887
196	0x3d8716f6	0.06596176
197	0xbccdde2d	-0.025130356
198	0xbb755272	-0.0037433174
199	0xbb62836a	-0.0034563192
200	0x3d1e1f96	0.03860434
201	0x3ceb417c	0.028717749
202	0xbd06f068	-0.032944113
203	0x3c5cb9f7	0.013472072
204	0x3cf5e2e9	0.030015426
205	0x3b4d084e	0.0031285468
206	0x3cbe9126	0.023262572
207	0xbcc50891	-0.024051936
208	0xbd522d87	-0.05131295
209	0xbd82931e	-0.063757166
210	0xbc5d4191	-0.013504402
211	0x3bdf9da6	0.006824213
212	0x3d14e7aa	0.036353745
213	0x3d8c9d05	0.068658866
214	0x3d54ba98	0.051935762
215	0x3c029723	0.007970604
216	0x3d1abbe2	0.037776835
217	0x3b83c19f	0.004020884
218	0xbd012edb	-0.031538825
219	0x3ce09561	0.02741498
220	0xbd1e64bc	-0.038670287
221	0xbc7389be	-0.014864383
222	0xbcb2629e	-0.02177554
223	0x3c0d6ff3	0.008632648
224	0x3d52c00c	0.05145268
225	0x3aa65cd3	0.0012692459
226	0xbcbd0af0	-0.023076504
227	0xbc8d9dd4	-0.017287172
228	0xbcdf11b9	-0.02723013
229	0xbc0462a2	-0.0080801565
230	0xbc0f60fc	-0.00875115
231	0xbc58daf7	-0.013235799
232	0xbbd4c7c7	-0.006493542
233	0x3d93dd6a	0.07219966
234	0x3d35e83c	0.04441093
235	0xbd8ff228	-0.070286095
236	0xbc89e1fe	-0.016831394
237	0xbc6072e3	-0.013699266
238	0x3d8c23f6	0.068427965
239	0x3c0a7741	0.008451284
240	0x3d565832	0.052330203
241	0x3d729107	0.05922034
242	0xbc2bc861	-0.010484786
243	0x3cf57f77	0.029968007
244	0xbd503917	-0.050835695
245	0xbcd5fc08	-0.026121154
246	0x3d6f9a4f	0.05849677
247	0x3d8297d4	0.06376615
248	0xbd2e91d7	-0.042619552
249	0xbd605015	-0.054763872
250	0xbc814182	-0.015778307
251	0xbbcdaaf7	-0.006276484
252	0xbd1ae0cc	-0.03781204
253	0x3c9fe593	0.01951865
254	0xbd240e49	-0.040052686
255	0x3bc70346	0.0060733883

module.0.module.0.params.2.bias f4 [256]
0	0xbcbb8b7e	-0.022893663
1	0x3d12c524	0.03583254
2	0xbd67b202	-0.056566246
3	0x3d30d761	0.04317415
4	0x3ccf0a2b	0.025273403
5	0x3d28485f	0.041084643
6	0x3dac050b	0.08399399
7	0x3cad9582	0.021189455
8	0x3cbf6361	0.023362817
9	0xbd6d175f	-0.057883617
10	0xbcd78149	-0.026306765
11	0x3b284c26	0.0025680154
12	0x3d6fdf0f	0.058562335
13	0xbd4035c7	-0.046926286
14	0x3d174e9d	0.036940206
15	0xbd131f48	-0.035918504
16	0xbca4fcfe	-0.020140167
17	0xbc6f35bc	-0.014600214
18	0x3c335324	0.010945115
19	0x3d3a43fa	0.045474984
20	0xbd1557a6	-0.03646054
21	0x3cbc66b5	0.022998193
22	0xbd00b971	-0.03142685
23	0xbdb93679	-0.09043593
24	0xbca0aa6f	-0.01961252
25	0x3d7e01eb	0.062013548
26	0x3a70d60c	0.0009187169
27	0x3c85e99b	0.016346743
28	0xbd7367ca	-0.059425153
29	0xbd43880a	-0.04773716
30	0xbd5b7639	-0.053579543
31	0xbd206d48	-0.03916672
32	0x3c664b9d	0.014056114
33	0x3bdb8440	0.006699115
34	0x3d1b3e0e	0.037900977
35	0x3d60f484	0.05492069
36	0xbd2bfe89	-0.04199079
37	0xbc85e8a5	-0.016346285
38	0xbd1055da	-0.035238124
39	0xbb58f3cf	-0.0033104306
40	0x3b412ae7	0.0029475035
41	0x3d1bdcb3	0.038052272
42	0xbd7033ed	-0.05864327
43	0xbc6f883a	-0.014619881
44	0xbc92adb2	-0.01790509
45	0xbd51ee91	-0.051252905
46	0x3c90bc49	0.017667906
47	0xbbada701	-0.0052994494
48	0x3d051414	0.03248985
49	0x3cea0e8c	0.02857139
50	0xbd427a99	-0.0474802
51	0x3da2112d	0.07913432
52	0x3c47996b	0.012182574
53	0xbd3837a4	-0.044974938
54	0xbcb9e195	-0.022690574
55	0x3d800cc6	0.06252436
56	0x3d39fbaa	0.04540602
57	0xbba2927d	-0.0049613104
58	0xbcf67216	-0.030083697
59	0xbc0e232b	-0.008675377
60	0xbd1ddce2	-0.03854073
61	0x3cdbb6ab	0.026820501
62	0xbd2f1abf	-0.042750116
63	0xbc8e613d	-0.017380351
64	0x3c40c382	0.011765363
65	0x3d85f7de	0.065414175
66	0x3cb5be20	0.022185385
67	0xbd1c3cb3	-0.038143825
68	0xbd6f7b99	-0.05846748
69	0x3d4de73b	0.050269347
70	0x39444930	0.00018719281
71	0x3cf1fc5a	0.029539276
72	0xbd9050b4	-0.07046643
73	0xbd6328f7	-0.05545899
74	0x3c70e394	0.014702696
75	0x3d016319	0.031588648
76	0x3c97d647	0.018534793
77	0x3c15dbfe	0.0091466885
78	0x3d74b229	0.05974022
79	0x3cd105d8	0.025515482
80	0x3c81a643	0.01582635
81	0x3cda1305	0.026620397
82	0xbd07d091	-0.03315789
83	0x3d66caef	0.056345876
84	0xbd71aad2	-0.059000798
85	0xbd4225ec	-0.047399446
86	0xbc5a32cf	-0.013317778
87	0x3d959e66	0.07305603
88	0xbd09bf62	-0.033629782
89	0xba90ed10	-0.0011056978
90	0xbcb98e06	-0.02265073
91	0x3d062ebc	0.032759413
92	0xbba6a5cd	-0.005085683
93	0xbbc6b11c	-0.0060635936
94	0xbcf39c39	-0.029737579
95	0xbc91690e	-0.01775029
96	0xbca37242	-0.019951943
97	0xbcd0156a	-0.025400836
98	0xbd81b163	-0.06332662
99	0x3a38c6d3	0.000704867
100	0xbcbc457a	-0.022982348
101	0x3c5e0f75	0.01355349
102	0x3cd791f6	0.026314717
103	0xbd5a3b2e	-0.053279094
104	0xbb9b99d9	-0.0047485647
105	0xbd58a5bd	-0.052892435
106	0xbd2a70df	-0.04161155
107	0x3d1659ae	0.03670662
108	0xbc317c62	-0.010832878
109	0xbd22bd2f	-0.0397312
110	0xbb8a16a7	-0.004214126
111	0xbbd2b5ee	-0.006430379
112	0xbccc3c55	-0.024931112
113	0xbcb9671f	-0.02263218
114	0xbd283bcb	-0.041072648
115	0xbd22f005	-0.03977968
116	0xbcdbcb56	-0.026830357
117	0x3cc658c9	0.024212258
118	0xbc88bfa3	-0.016692942
119	0x3db31ed0	0.087461114
120	0xbc92f7e1	-0.017940463
121	0xbcd52aca	-0.02602138
122	0xbc371403	-0.011174205
123	0x3d2c4c35	0.042064864
124	0xbd45cf96	-0.048293673
125	0xbcf8d976	-0.030377131
126	0xbce01fb2	-0.027358864
127	0xbd558e4d	-0.05213766
128	0xbbbb1900	-0.0057097673
129	0x3d69255e	0.0569204
130	0xbc93abb0	-0.018026203
131	0x3c834263	0.016022867
132	0x3d1574b1	0.03648824
133	0x3ce6a981	0.028156998
134	0x3d32fac6	0.043696187
135	0xbc83cf06	-0.016089927
136	0x3d6c0bb5	0.057628352
137	0xbb044f8b	-0.0020189013
138	0x3d5b5113	0.053544115
139	0x3c474000	0.012161255
140	0x3d80c3ea	0.06287368
141	0x3d850cea	0.06496604
142	0x3a43ab45	0.0007464181
143	0x3d2dc2a6	0.04242196
144	0xbc88e5ad	-0.01671108
145	0x3cf26fa7	0.029594256
146	0x3d322923	0.043496262
147	0xbb16d0f5	-0.0023012732
148	0xbd1614b5	-0.03664084
149	0xbd0c9b25	-0.034327645
150	0xbd1252c8	-0.035723478
151	0x3d144f78	0.0362086
152	0x3d77e0d0	0.060517132
153	0xbd019a64	-0.03164138
154	0x3ce3883e	0.027774926
155	0xbd23b120	-0.03996384
156	0x3cb72fb1	0.022361608
157	0x3d2f8a2a	0.042856373
158	0xbd2b0f79	-0.041762803
159	0x3d2c6bab	0.042094868
160	0xbd08a9a6	-0.033364914
161	0x3cf19200	0.029488564
162	0xbd463ddc	-0.048398837
163	0xbc00d133	-0.007862377
164	0x3c70bce1	0.01469347
165	0xbd4d9640	-0.050192118
166	0x3d07f861	0.033195857
167	0xbd852a8c	-0.06502256
168	0xbb0ca657	-0.002146145
169	0x3d4a7a6f	0.049433168
170	0x3cdae1a8	0.02671893
171	0x3c9e5219	0.019326257
172	0x3b3254da	0.002721122
173	0xbcb35de0	-0.021895349
174	0xbbf40b48	-0.007447634
175	0x3bfae963	0.0076572164
176	0xbd592a87	-0.053019073
177	0x3d8dbe49	0.0692106
178	0x3d3e097f	0.046395775
179	0x3d5e5190	0.054277003
180	0x3d5aa8cf	0.053383645
181	0x3cc05679	0.023478733
182	0x3cb665ed	0.022265399
183	0x3d976788	0.07392794
184	0x3d79c431	0.06097812
185	0xbd397732	-0.04527969
186	0x3d2b15fd	0.041769017
187	0xbbb4bc4b	-0.0055156103
188	0xbd2f86dd	-0.042853225
189	0xbc8b5b12	-0.0170112
190	0xba9ba9f3	-0.001187621
191	0xbc24ee1f	-0.010066538
192	0xba37972c	-0.00070034224
193	0xbcd66c39	-0.026174651
194	0xbd759484	-0.05995609
195	0x3c69a957	0.014261565
196	0x3cecf8b4	0.028927185
197	0xbd906686	-0.07050805
198	0x3ab35fb9	0.0013685144
199	0xbd111a88	-0.035425693
200	0xbd2a23c3	-0.04153801
201	0x3ba2d99c	0.0049697887
202	0x3b96d1eb	0.004602661
203	0x3d5bcd82	0.053662784
204	0x3cc1b0fb	0.023643961
205	0xbbd47285	-0.0064833784
206	0x3d6194c5	0.05507352
207	0xbc2504e0	-0.010071963
208	0x3d5d35cb	0.05400638
209	0x3d684586	0.056706928
210	0xbd5bfbcd	-0.053706933
211	0x3c4519cf	0.012030079
212	0xbd3511f2	-0.044206567
213	0x3d9a0aed	0.07521615
214	0xbcef809c	-0.02923613
215	0x3cf6eb53	0.030141508
216	0x3d24cad1	0.040232483
217	0x3c9e538d	0.01932695
218	0xbd0d9a89	-0.034571204
219	0x3d87b20c	0.066257566
220	0xbc84d754	-0.016215958
221	0x3d295b22	0.041346677
222	0xb9c21ab6	-0.00037022465
223	0xbd284c87	-0.041088607
224	0x3d9370ce	0.0719925
225	0xbd6b1901	-0.057396892
226	0xbcbd29c8	-0.023091212
227	0x3db63a04	0.08897784
228	0xbb8b1d6e	-0.0042454517
229	0x3c1aceab	0.009448688
230	0x3ce843b9	0.028352605
231	0x3d0ce6b0	0.03439969
232	0x3d2d1b3b	0.042262297
233	0x3b3620f8	0.0027790647
234	0x3d494fda	0.049148418
235	0x3bfcd415	0.007715712
236	0xbd6fddd8	-0.058561176
237	0xbd3bec94	-0.045879915
238	0xbc8e50f8	-0.017372593
239	0x3cdbf700	0.026851177
240	0x3cffc268	0.03122063
241	0x3cad9d11	0.02119306
242	0x3ccedc6c	0.02525159
243	0xbc12faad	-0.008970899
244	0x3bab89e6	0.0052349446
245	0xbc2bfa49	-0.010496684
246	0x3db7380e	0.089462385
247	0x3d51a612	0.051183768
248	0xbc8f4afb	-0.017491808
249	0xbd58fecb	-0.052977365
250	0x3c1c4156	0.009537062
251	0x3cf368d6	0.029713076
252	0xbd0d6e82	-0.034529217
253	0xbc983c18	-0.018583342
254	0x3b39d912	0.0028358144
255	0xbd3b4aa1	-0.04572547

module.0.module.0.params.4.weight f4 [4, 256]
0	0xbbab192a	-0.0052215056
1	0x3c1e303f	0.009655057
2	0x3d0a07d4	0.03369887
3	0x3a6f064f	0.00091180665
4	0x3c43cbed	0.011950475
5	0x3d421d51	0.04739124
6	0xbd0c662f	-0.034277137
7	0xbbaebd9a	-0.005332661
8	0x3b01c0c9	0.0019798747
9	0x3c94d0ab	0.018165907
10	0x3b59dffd	0.003324508
11	0xbd8ba4fc	-0.06818578
12	0x3b64bd0b	0.0034902717
13	0xbbbf38bf	-0.005835622
14	0xbd7fb864	-0.062431708
15	0xbc636857	-0.013879857
16	0x3c80e031	0.015731903
17	0xba943490	-0.0011307169
18	0xbb301c8e	-0.0026872489
19	0xbc97c0b8	-0.018524513
20	0x3d51272f	0.05106276
21	0x3d166c32	0.036724277
22	0xbd4cfb98	-0.050044626
23	0x3cce5867	0.025188638
24	0xbc7bd68a	-0.015370974
25	0xbb9a4a87	-0.0047085914
26	0x3d3e513f	0.0464642
27	0xbce06265	-0.027390668
28	0x3c61ed97	0.013789556
29	0x3ac2f3cc	0.0014873683
30	0x3cde19ea	0.027111966
31	0xbd246145	-0.040131826
32	0x3a94d89e	0.0011356061
33	0xbd13de6f	-0.0361008
34	0xbb9932b9	-0.004675236
35	0xbc52f935	-0.012876798
36	0x3c867734	0.016414262
37	0x3e8fa5c1	0.28056148
38	0xbdb421ac	-0.08795485
39	0xbd4447d8	-0.047920078
40	0x3d09da8b	0.033655684
41	0x3cc3e2b3	0.02391181
42	0x3cbf44eb	0.023348292
43	0xbb263c84	-0.002536566
44	0x3b0bed51	0.0021351168
45	0xbc18dd02	-0.009330036
46	0x3e7025f8	0.23451984
47	0x3c89d33f	0.016824363
48	0x3d87f26f	0.066380374
49	0xbcb627cf	-0.02223578
50	0x3cff4c30	0.031164259
51	0xbcf69ca6	-0.030103993
52	0x3c13e366	0.009026384
53	0x3b1afd1a	0.0023649395
54	0xbb10584b	-0.0022025283
55	0xbd88614f	-0.06659185
56	0xbbc34847	-0.005959544
57	0x3ce332d8	0.027734205
58	0xbd861c6f	-0.06548392
59	0xbd8de5e0	-0.06928611
60	0xbc60e9da	-0.01372763
61	0x3c82518d	0.015908027
62	0xbb42db6f	-0.0029732843
63	0x3a275be8	0.00063842395
64	0x3c6d24e7	0.01447413
65	0xbcc580c5	-0.024109254
66	0xbc1842fc	-0.009293314
67	0x3db5423b	0.08850523
68	0x3b2ab6ce	0.0026048901
69	0xbc00687b	-0.00783741
70	0x3917235b	0.00014413653
71	0x3d0f0cdd	0.034924377
72	0xbcb5cbb4	-0.02219186
73	0x3c8c5ba3	0.01713354
74	0x3d74c4bf	0.059757944
75	0x3cd337d6	0.02578346
76	0x3ba62612	0.0050704563
77	0xbbb49284	-0.00551063
78	0xbc329012	-0.010898607
79	0x3c6e3aff	0.014540433
80	0x3be1b9df	0.0068886126
81	0x3d6ec940	0.058297396
82	0x3b340940	0.0027471334
83	0xbd857347	-0.06516128
84	0x38fcab19	0.00012048166
85	0x3d3e3fdd	0.046447624
86	0x3c30accc	0.0107833855
87	0xbbe2059c	-0.0068976413
88	0xbc57a2a8	-0.013161339
89	0xb9d52e2f	-0.00040660935
90	0x3c9f868b	0.019473335
91	0x3c896579	0.016772019
92	0xb812b5ac	-3.4978308e-05
93	0x3d1bee84	0.038069263
94	0xbbb380ee	-0.005478016
95	0xbbb87b91	-0.0056299646
96	0xbbb64740	-0.005562693
97	0x3c87f9f5	0.016598681
98	0x3ce991b9	0.028511869
99	0xbcac27bb	-0.021015039
100	0xbd19e5e0	-0.03757274
101	0xbc88cb92	-0.016698632
102	0xbd2bc852	-0.041939087
103	0xbcc6fee6	-0.024291467
104	0xbd1ebc45	-0.038753767
105	0xbc9c320a	-0.01906683
106	0x3cd5227a	0.026017416
107	0x3d013e7c	0.03155373
108	0x3d5ca40d	0.05386739
109	0xbb08ab8c	-0.0020854203
110	0x3db371c7	0.08761936
111	0xbbbbd401	-0.00573206
112	0x3cab5975	0.02091668
113	0xbd808cd4	-0.06276861
114	0x3d1ce19d	0.0383011
115	0xbcdb8439	-0.026796447
116	0xbd2c89de	-0.042123668
117	0x3cc78a35	0.024357894
118	0x3d4984f8	0.049199075
119	0xbd55aa5c	-0.05216442
120	0xbd4a8a76	-0.049448453
121	0xbc68116f	-0.014164313
122	0xbc4c88e4	-0.012483809
123	0x3cad93bc	0.02118861
124	0x3c9a2383	0.018815761
125	0xbd078fb3	-0.033096027
126	0xbdd71b48	-0.1050325
127	0xbcf33d92	-0.029692445
128	0xbc16a08e	-0.009193553
129	0x3b19ccc5	0.0023468
130	0x3ce6d00d	0.028175378
131	0x3c87eecf	0.016593365
132	0x3b8e81d7	0.004348974
133	0x3b9f95e1	0.004870162
134	0xbc69e212	-0.014275091
135	0x3d5af4d1	0.05345613
136	0x3c4b4654	0.012406904
137	0x3e1195ec	0.14217347
138	0x3bc10e6d	0.0058916123
139	0xbd0bad13	-0.034100603
140	0x3dab12e0	0.083532095
141	0xbd48389e	-0.04888212
142	0xbd592658	-0.053015083
143	0x3d846686	0.06464867
144	0xbe11073e	-0.14162919
145	0x3d4e1a03	0.050317775
146	0xbde1c727	-0.110243134
147	0xbd28855d	-0.04114281
148	0xbd944130	-0.07238996
149	0x3cf198af	0.02949175
150	0x3c320691	0.010865823
151	0xbd3779fd	-0.04479407
152	0xbcaa5ca2	-0.020796124
153	0xbd846ee3	-0.064664625
154	0x3ca80d6c	0.020514213
155	0xbc99c88e	-0.01877239
156	0x3d356e9d	0.044294942
157	0x3c036329	0.008019247
158	0xbc6d65a9	-0.01448957
159	0xbd1bffbf	-0.038085695
160	0x3dc14a6e	0.094380245
161	0x3be0eb20	0.0068639666
162	0xbd8cecce	-0.068811044
163	0x3c9f15b7	0.019419534
164	0xbd30605c	-0.043060645
165	0x3c5af35f	0.013363688
166	0xbd3819ab	-0.044946354
167	0xbc92a4e8	-0.017900899
168	0xbd4b3c3a	-0.049617983
169	0x3a3a7d7e	0.00071140367
170	0x3d3c4c6e	0.045971327
171	0xbb829fc9	-0.003986333
172	0x3d73580c	0.05941014
173	0x3bc96466	0.0061460016
174	0xbc7f7dee	-0.015593989
175	0xbd0525e3	-0.032506835
176	0x3cb1032a	0.021607954
177	0x3c1d1f74	0.009590019
178	0xbbd1d42e	-0.0064034676
179	0x3d8131c5	0.06308321
180	0x3c958a36	0.01825438
181	0x3d3d6abf	0.04624438
182	0x3ce61f04	0.028090961
183	0xbcf3d379	-0.029763924
184	0xbd0e998c	-0.034814402
185	0xba1d1fc1	-0.00059938064
186	0x3cdb2704	0.026752003
187	0xbc713907	-0.014723069
188	0x3b9bd5c0	0.0047557056
189	0x3d3160d9	0.04330525
190	0xbca3e15a	-0.020004917
191	0xbc6d5fbc	-0.014488157
192	0x3b09ad72	0.0021007922
193	0xbd7851af	-0.060624775
194	0x3c1358d3	0.008993345
195	0x3e007e7f	0.12548254
196	0xbb863f98	-0.0040969364
197	0xbd53f64f	-0.05174857
198	0xbc073bdd	-0.008254019
199	0x3d26b55d	0.040700305
200	0xbb0c3635	-0.0021394615
201	0x3ca25ed1	0.019820603
202	0xbaaeb1f5	-0.0013328182
203	0x3c315ee4	0.010825846
204	0x3c3ee19c	0.011650469
205	0xbd127073	-0.03575177
206	0xbd072a28	-0.032999188
207	0x3cf6742a	0.030084688
208	0x3d2fc483	0.042912018
209	0x3b0cdcd7	0.0021493935
210	0xbd13789d	-0.036003698
211	0x3d0f5997	0.03499755
212	0xbca74c49	-0.020422118
213	0xbd53d4de	-0.051716678
214	0xbd0015a0	-0.031270623
215	0xbbeadc03	-0.0071673407
216	0x3d949c58	0.07256383
217	0xbc6bd015	-0.014392872
218	0xbc63d3c4	-0.013905469
219	0x3d22c5b2	0.03973932
220	0x3cac7367	0.021051122
221	0xbb89205a	-0.004184765
222	0x3d4ae9a1	0.049539212
223	0x3d25fbea	0.040523447
224	0x3b70a064	0.0036716694
225	0xbd0329ad	-0.032022167
226	0xbccfe024	-0.025375433
227	0xbc90860e	-0.017642047
228	0x3cee061b	0.029055646
229	0xbc6e7d1a	-0.014556194
230	0x3c8804c4	0.016603835
231	0x3e0553f1	0.13020302
232	0xbd5f3b34	-0.05449982
233	0xbd0a55bc	-0.03377317
234	0x3c60fc7e	0.013732074
235	0x3bd0e206	0.0063746003
236	0xbd00ab0b	-0.03141312
237	0x3b17a657	0.0023139918
238	0x3d4ed8f9	0.05049989
239	0x3d5cfb3a	0.053950526
240	0x3ac7c6a7	0.0015241698
241	0xbd23c5f4	-0.039983705
242	0x3a53f01f	0.0008084792
243	0x3a706644	0.0009170512
244	0xbd115a82	-0.035486706
245	0x3a314138	0.00067617325
246	0xbbc26c23	-0.005933301
247	0x3cf1be0f	0.029509572
248	0x39e3f56f	0.00043479676
249	0x3bab20ec	0.0052224305
250	0xbd9a29d5	-0.0752751
251	0x3ccaa5d3	0.024737274
252	0xbcfd1985	-0.030895958
253	0xb9e865ef	-0.00044326435
254	0x3a9871bd	0.0011630576
255	0x3d908478	0.070565164

module.0.module.0.params.4.bias f4 [4]
0	0xbc02eb5a	-0.0079906825
1	0xbcfa2f14	-0.030540027
2	0xbda3b87b	-0.07994171
3	0xbc5ed5ce	-0.01360078
