Future implementations/models/reverse_transport_critic.pth (torch, 309426 bytes, 5 tensors)

module.params.0.weight f4 [256, 40]
000000 1f 7a 38 3e 99 41 1a be 02 df 50 bd cd 06 c9 3d
       0.18015336 -0.15064086 -0.050993927 0.0981575
000010 b3 d7 d2 be 73 3f 34 bf 6e 8a 03 3d cc 9c c3 3d
       -0.4118019 -0.70409316 0.03211444 0.09551391
000020 26 30 a0 bd a9 41 10 3d a5 f2 a7 3c 0e 87 c2 bc
       -0.078216836 0.03521887 0.020501444 -0.02374604
000030 20 a1 1f be 6b a8 59 3d 98 a4 88 be 7f 45 12 bf
       -0.15588808 0.05313913 -0.26688075 -0.5713729
000040 b3 9b 0c 3e 95 42 c2 3d b9 b3 81 bd 1b 71 60 3c
       0.1373127 0.09485356 -0.063331075 0.013698841
000050 7a f3 11 bd 11 a9 42 be cc 5a d7 3a f0 e6 04 3e
       -0.035632588 -0.19009806 0.0016430258 0.1297872
000060 6b 77 3d be 73 a5 1c bf f6 b6 f4 bc 83 c9 8a 3e
       -0.18502586 -0.61189955 -0.029872399 0.27106866
000070 20 56 15 bd bb 3b f9 3d be 75 77 bd 60 15 a8 bc
       -0.03645909 0.12169596 -0.060415022 -0.020518005
000080 4a 67 8d bd a5 ad ed bd bf 91 9d be 4a ad 1c bf
       -0.069044665 -0.11605386 -0.30775258 -0.6120192
000090 2a c2 8a 3d 86 2f 9f 3e 1f 67 f9 bd 75 bd 2a bd
       0.06775315 0.31090945 -0.12177872 -0.041684587
0000a0 77 f3 12 bc 98 d9 84 bd 2d 6f d5 bd 7e b1 a3 3d
       -0.008969179 -0.06486815 -0.10421596 0.07992838
0000b0 4f cf ea bd d4 b2 55 3e 03 64 80 bd 3f b9 1a be
       -0.11465322 0.20868999 -0.06269076 -0.15109728
0000c0 aa f3 de 3d dc 14 ae bb 7d 45 93 bd 05 f8 3b be
       0.10886319 -0.005312545 -0.07190988 -0.1835633
0000d0 34 24 53 3c 02 4b 12 3e 29 37 85 be 0f d3 56 3e
       0.0128870495 0.14286426 -0.26018646 0.2097895
0000e0 c3 4e 8a 3d b4 36 19 bd e8 bd ab 3d 4c f2 22 be
       0.06753304 -0.037405685 0.08385831 -0.15912741
0000f0 fd 13 82 bd 74 e4 33 be ed a5 3f bb aa aa 0f be
       -0.06351469 -0.17567617 -0.0029243187 -0.14029947
000100 fa f1 82 bd 1f c6 1a 3e 07 f3 78 bd d8 57 19 3e
       -0.063938096 0.1511464 -0.060778644 0.14974916
000110 fc 99 4e 3e 58 66 9d bb 2e f9 ad 3d c8 b0 f8 3c
       0.20175928 -0.00480346 0.08494793 0.030357733
000120 e1 db 2b 3e 67 2f b3 3d 2e 39 97 be c9 d5 5e 3e
       0.16783096 0.08749276 -0.29535812 0.2176124
000130 c9 5e 9d 3d 4d a1 2d be 10 2a 00 3e fc c5 96 bd
       0.076840945 -0.16956063 0.12516046 -0.07361981
000140 db f0 ba bd 32 90 80 3d 0f fc 20 3e 4f 25 59 be
       -0.09127971 0.06277503 0.15721153 -0.21205638
000150 0d d4 e7 be 72 d7 a5 be f6 dc 93 3e b5 a6 b0 bc
       -0.4527897 -0.32390934 0.28879517 -0.021563867
000160 f8 0e 84 3d 27 b3 c1 3c eb aa 21 bd 9b e7 20 3e
       0.064481676 0.023644997 -0.03946964 0.1571335
000170 0f ed 34 3d f8 f2 a5 bd 6c c7 20 bf af 96 14 bf
       0.04417139 -0.08102983 -0.62804294 -0.58042425
000180 9a 75 0c 3e aa ce ff 3d e7 27 bc 3d 6f 18 a5 3d
       0.13716736 0.1249059 0.09187298 0.08061301
000190 9d dc c1 3d 5f 62 37 3e 47 d1 ac 3d 14 cc f0 bd
       0.09465907 0.1790862 0.08438354 -0.11757675
0001a0 83 6b 39 bf e7 af ba be eb 2e d3 3c 85 be 8f bd
       -0.72429675 -0.36462328 0.025779208 -0.070187606
0001b0 e8 c2 2c 3e 0c ed f7 3d dd ad 99 3d 71 f3 11 3e
       0.16871226 0.1210576 0.07503865 0.14253022
0001c0 b8 43 2d 3d 2e c9 dc 3c e3 65 28 bf 01 43 bf be
       0.04230091 0.026951399 -0.65780467 -0.37355807
0001d0 4b 74 8f 3d f5 aa d6 3d e6 fe b2 3d de 52 cd bc
       0.07004603 0.10481826 0.08740024 -0.025063928
0001e0 43 bc a8 bd fa bf a6 bd 2b a0 9a 3c ef 82 d5 bd
       -0.08239033 -0.081420854 0.018875202 -0.10425364
0001f0 f5 48 db bd 4f 1e 29 be 8b 75 d5 bd 70 a6 53 3e
       -0.10707275 -0.16515468 -0.1042281 0.2066896
000200 32 70 8f bb 2b a1 ba bb 21 d7 cc bd 54 45 a5 bd
       -0.0043773884 -0.0056954823 -0.1000197 -0.08069864
000210 d5 b7 17 3b f9 fe 54 bd ed 05 27 be 69 5c 34 be
       0.0023150344 -0.052000973 -0.16310854 -0.17613377
000220 bc 29 5c 3d 3a 4f fd 3d fc 4a a2 ba bc aa 02 be
       0.05375074 0.12368627 -0.0012381966 -0.12760442
000230 ab 1b 7d bd 73 10 28 be 31 db c7 ba 76 42 7e bd
       -0.061793964 -0.16412525 -0.0015247819 -0.0620751
000240 28 c0 43 bd 00 18 95 be 41 20 41 bc 57 e6 8c 3e
       -0.047790676 -0.29119873 -0.011787475 0.27519485
000250 af 8f 89 3c f0 bc ce 3c cd 36 c0 3c ab a9 89 3b
       0.016792146 0.025236577 0.023463631 0.004201134
000260 ce 67 39 3e fd 21 bc 3d 1a 3b 62 be 79 24 c3 be
       0.18106005 0.0918617 -0.22092858 -0.38113764
000270 26 a5 14 3e b2 07 73 3c 50 f2 30 3d 1c 33 48 3c
       0.14516124 0.014833378 0.043199837 0.012219217
000280 12 5c 12 bd b6 46 8a 3d c3 c9 e7 bd b6 31 0b 3d
       -0.035732336 0.06751768 -0.1131778 0.033982955
000290 87 48 41 be 98 b2 9f be 4a 19 68 3e b2 46 63 3e
       -0.18875323 -0.31190944 0.22665897 0.22194937
0002a0 34 97 ee 3d 9b 92 ea 3d 6f 8c fa bd 64 c1 15 3e
       0.116499335 0.11453744 -0.12233817 0.14624554
0002b0 75 d9 38 be 0a bd 2b 3e 52 6b 37 be 04 ae 0a bf
       -0.18051703 0.16771331 -0.17912033 -0.54171777
0002c0 42 ac 8e 3e e5 cb b9 3e 86 44 11 3e 11 1c 78 bc
       0.27865797 0.36288372 0.14186296 -0.01514341
0002d0 5d 74 80 3d 65 8b ce 3d 98 29 1a be c6 b8 fd bc
       0.062721945 0.10085181 -0.1505493 -0.030971896
0002e0 04 30 1e be 1e c5 8e be 9e 2c 80 3e 51 90 7c 3e
       -0.15448004 -0.27884763 0.2503404 0.24664427
0002f0 df 54 04 3e 74 21 b9 3d bf 95 2f 3e 96 53 98 bd
       0.12923001 0.09039584 0.17146967 -0.07437818
000300 7e 23 18 bd 53 50 b4 3c ec 39 c5 be 92 cf cd be
       -0.037143223 0.022010958 -0.38520753 -0.40197426
000310 f1 d4 e7 bb 3b 41 df 3d e4 7d 15 3e 85 fd b3 3d
       -0.007074945 0.109011136 0.14598805 0.087885894
000320 d1 84 49 3d df 7a 3d 3e 4b fb eb 3c 05 4d 17 3d
       0.04919893 0.18503903 0.02880635 0.036938686
000330 0f eb 3d 3e 59 f2 27 3f 3b 26 f5 3d fb b5 b8 be
       0.18546699 0.6560417 0.119701825 -0.3607634
000340 94 7a 4d bd 1f 23 17 be 0e d8 59 3d 85 60 90 3d
       -0.050165728 -0.14759491 0.05318456 0.0704966
000350 ab 3d 0b 3e 13 9c 9c b9 ee 8c 8a 3e 6f 5e 3f 3f
       0.13597743 -0.00029870923 0.27060646 0.7475347
000360 d6 00 58 bd 99 23 87 be 61 dd 36 be 57 3b 05 be
       -0.052735172 -0.26394346 -0.17857887 -0.13010918
000370 ac 87 4a 3d 8b 3e 26 bd 60 3a b9 bd b0 5a e3 bd
       0.049445793 -0.04058699 -0.09044337 -0.11101282
000380 9d bb be 3e 6a 7a 5d 3f 88 43 b4 bc f8 28 e4 be
       0.37252513 0.86514914 -0.022004858 -0.44562507
000390 bb 4e 00 3d c8 53 d2 3d 14 a3 d7 bd 20 58 1b bd
       0.031325083 0.10269886 -0.105291516 -0.03792584
0003a0 3f ce 11 be fb df b0 3d 0e 87 52 3e 59 92 45 3f
       -0.14238833 0.08636471 0.20559332 0.77176434
0003b0 66 2b d0 3d 01 2d 30 be 2d cd 06 be d6 d8 8a 3d
       0.101645276 -0.17204668 -0.13164206 0.067796394
0003c0 44 18 9e 3d f2 9c 35 be fc 00 8a bd 90 ef b5 bb
       0.07719472 -0.17735651 -0.06738469 -0.0055522397
0003d0 f0 1f 0a 3e 86 9f 7f be f2 aa 9f 3d fb e2 61 3d
       0.13488746 -0.24963197 0.07796277 0.055148106
0003e0 c7 4a 9a bd 00 9b 28 be 96 4c 1d 3e 68 b0 1c bd
       -0.07533794 -0.16465378 0.15361246 -0.03825417
0003f0 7f d4 d7 bd a7 7b 68 bd d6 ff d6 3d ae a3 d5 be
       -0.10538577 -0.05675855 0.104980156 -0.4172644

module.params.0.bias f4 [256]
000000 fe e7 ce be d3 23 76 3c 52 45 06 3c 7e 1e 8b be
       -0.4041137 0.01502319 0.008195238 -0.271717
000010 90 c8 92 be 5a b8 00 3d da bd 3a be 7c 8e ac 3d
       -0.28668642 0.03142581 -0.18236485 0.08425614
000020 c2 27 f2 3d 92 fd 70 3e 62 75 45 3e b5 a9 52 3e
       0.118239895 0.2353423 0.19283059 0.2057255
000030 09 0b 03 3e bb 19 0a be 52 7b d3 3d 72 0a 43 be
       0.12797178 -0.13486378 0.10326256 -0.19046953
000040 de b7 65 3e 0c f0 73 be 04 c4 45 3c 13 0f 38 3e
       0.22433421 -0.2382204 0.01207066 0.179745
000050 ac d4 3f 3e 9f fa 5e 3d 3c eb da bc 3d 52 06 be
       0.18733472 0.05443823 -0.026723497 -0.13117309
000060 fe 9f e1 bd 00 64 0e be 8c b8 26 be af d0 41 3e
       -0.11016844 -0.13905334 -0.16281337 0.18927263
000070 dc 16 5e bd 0e 8a 04 3e 33 25 3f 3e 38 13 02 be
       -0.05422102 0.12943289 0.18666534 -0.12702644
000080 8d b1 01 3c 3b a6 4b be da 69 82 3e 49 23 58 be
       0.007915867 -0.1988763 0.25471383 -0.2110721
000090 6a 6f a8 bd 9e 1b 87 be c0 d3 30 be 65 97 5e 3d
       -0.082243755 -0.26388258 -0.17268276 0.0543436
0000a0 a6 40 87 be 63 c4 fb ba 66 23 6e be 84 bd 7a bd
       -0.2641651 -0.0019208308 -0.23255691 -0.061215892
0000b0 d6 e7 4c 3e ab a4 a9 be fb 4f 19 bc f2 6f d8 bd
       0.20010313 -0.33133444 -0.009357448 -0.10568227
0000c0 88 bb 4a 3e 9d 91 83 be 7f ba 86 3d 39 62 28 be
       0.197981 -0.25697032 0.0657854 -0.16443719
0000d0 05 66 68 be 1c ad 79 be f5 1b c1 3d d7 1b 81 be
       -0.22695167 -0.24382442 0.094291605 -0.25216553
0000e0 2d 35 68 be e8 53 c1 3c c5 af a6 3d cd 46 52 3e
       -0.22676535 0.02359958 0.08138994 0.20534821
0000f0 f8 c1 3f bd 56 ec 00 be 7d 61 31 3e d7 e9 5a be
       -0.046815842 -0.12590155 0.17322345 -0.21378265
000100 95 d7 bc 3c 03 28 69 3e a1 24 59 be a2 01 d5 bd
       0.023052016 0.2276917 -0.21205379 -0.10400702
000110 88 f0 5b be 01 6d 48 3e 2d 94 11 3c 47 0b 77 3e
       -0.21478474 0.19572832 0.0088854255 0.24125396
000120 86 2c 74 3d 90 5b c6 3b 3e 56 fc bd 2b 02 29 be
       0.059612773 0.0060533956 -0.12321137 -0.16504733
000130 90 3d 10 be 56 e7 3e bc 6e 3f 19 be f2 e6 91 3e
       -0.14085984 -0.0116518345 -0.14965603 0.2849651
000140 ff df 41 3e 14 c4 3e be a0 c7 0f 3e 30 9b 99 3d
       0.18933104 -0.18629485 0.14040995 0.07500303
000150 e7 b8 91 be 1c 0f 7c 3e 5c 78 d3 bd e7 c8 00 be
       -0.28461382 0.24615139 -0.10325691 -0.12576638
000160 0a a0 f4 bc 04 43 50 3e 19 f2 d4 bd 17 3c 81 be
       -0.029861469 0.20338064 -0.10397739 -0.25241157
000170 ad f3 26 3e ec 42 d2 bc 78 57 8e be 9e df 9b 3e
       0.16303892 -0.025666676 -0.27801108 0.30444044
000180 22 29 48 be 43 2b 7a 3e e7 33 e2 bd 74 21 43 be
       -0.19546941 0.24430566 -0.11045056 -0.1905573
000190 00 0b cf bb 1b 12 51 bd 0b 94 1e be e5 c7 1f 3e
       -0.00631845 -0.051042657 -0.15486161 0.15603597
0001a0 98 e1 be 3c 8a 82 7b 3a e0 ae 0f be 56 ff 6e be
       0.02330093 0.0009594342 -0.14031553 -0.2333959
0001b0 19 9a 6e 3d 24 a0 31 3d af bb bb 3d 18 4f 0f be
       0.058252428 0.043365613 0.09166657 -0.13995016
0001c0 58 5c bb bd dd e9 de bd eb d1 81 3e 0f 57 14 3e
       -0.091484725 -0.1088445 0.25355467 0.14486335
0001d0 11 b6 58 3e 4f 83 14 3e 78 08 98 bb 87 de 2f 3e
       0.21163203 0.14503215 -0.0046396814 0.17174731
0001e0 a4 3b 94 be b3 fe 62 bd e0 67 84 be 22 04 85 be
       -0.28951752 -0.05541868 -0.258605 -0.25979716
0001f0 72 70 86 3e 8b bb 51 3e a4 3f 48 be b8 98 0d bd
       0.26257664 0.20481698 -0.19555527 -0.034569472
000200 bd fc 17 3e 05 b8 38 be 5b 1a a3 3e c9 ce 80 bd
       0.14842506 -0.18038948 0.31856045 -0.06289441
000210 af ed 4f be b1 59 27 be 8c 41 f6 bc e1 d6 5f 3e
       -0.20305513 -0.16342808 -0.030060552 0.21859314
000220 9d 21 9c bd ca b0 92 3d f1 cd 78 be f7 df 34 be
       -0.07623599 0.07162626 -0.2429731 -0.17663561
000230 76 b3 00 be 94 b2 1c be c3 c5 5d 3e 3e 49 3d bc
       -0.12568459 -0.15302497 0.21657471 -0.011553107
000240 78 76 c7 bd a5 9d 80 be db 54 0f 3e 10 cb 20 be
       -0.09739393 -0.25120273 0.13997214 -0.15702462
000250 a3 42 dc 3b 0d 6a b1 bd 75 16 89 3e 69 8f 36 bc
       0.006721811 -0.08662806 0.26774946 -0.01114259
000260 e0 a9 69 be 22 e4 e3 bd 0d a3 99 3d 24 95 66 be
       -0.22818708 -0.11127497 0.075018026 -0.2251783
000270 89 b7 2c 3e 4d 8c f5 3d 3f 93 10 3e 2a 10 a5 be
       0.16866888 0.11989651 0.1411867 -0.32238895
000280 b1 03 e8 3d c8 19 a0 3d 8c 0a 38 be 60 09 88 3e
       0.11328829 0.078174174 -0.17972773 0.26569653
000290 df 52 5c be 74 79 6b be 93 c8 04 be 91 39 4a be
       -0.21515988 -0.2299555 -0.12967138 -0.19748522
0002a0 ad 9e 09 bd e2 38 6d 3e 13 83 09 be 43 8e 4f be
       -0.03359859 0.2316623 -0.13428907 -0.20269112
0002b0 f5 67 c8 bd 56 d4 1e 3e 00 01 0e 3e da 03 37 be
       -0.09785453 0.15510687 0.13867569 -0.17872563
0002c0 1a 4d fa bd d4 95 41 3e 0d 0f 71 be 8f 81 75 3e
       -0.12221737 0.18904811 -0.23540898 0.23975204
0002d0 b1 b1 98 bd 51 bb 72 be 11 6a 4e 3e 29 1c 73 be
       -0.07455767 -0.23704268 0.20157649 -0.23741211
0002e0 67 57 65 be 43 16 8e 3e aa 68 37 3e 7d 95 ac 3c
       -0.22396623 0.2775136 0.1791102 0.021067375
0002f0 3f 9f 24 be 6f 40 da bd ec 8b 60 be 17 ff 57 3e
       -0.16076373 -0.10656821 -0.21928376 0.21093403
000300 44 80 77 be bf 2b 55 3d ed 85 82 3e 08 b6 ab 3c
       -0.24170023 0.052043673 0.25492802 0.020960823
000310 11 6c 58 be 06 72 5d be c1 0f 2d be 63 ab 28 3e
       -0.21134974 -0.21625528 -0.16900541 0.16471629
000320 74 68 8f 3e 37 0b 43 3e d9 e5 16 3e 36 f7 83 3e
       0.2800938 0.19047247 0.14736117 0.25774544
000330 f9 f8 72 be 48 20 60 3e 39 7d 86 3d 69 0e b6 bd
       -0.23727788 0.21887314 0.06566853 -0.08889467
000340 33 06 2d be 74 65 7f 3e 84 30 c7 bd ab 77 33 3e
       -0.16896896 0.24941045 -0.097260505 0.17526118
000350 fe 21 42 3e b7 91 ab 3d dd e2 47 bd 8a 5d 81 3e
       0.1895828 0.08377402 -0.048800338 0.25266677
000360 2c 6b 49 3e 3a e8 79 be 37 e6 c1 3b fb 19 f9 3d
       0.19669789 -0.24404994 0.0059173363 0.121631585
000370 70 6f ab be 8f ba 8a be 66 e5 6c be 1e 45 dd bd
       -0.33483458 -0.27095458 -0.23134384 -0.10804199
000380 d1 b9 8c 3d 8e d6 32 3e e4 0f c7 3d 35 72 52 be
       0.06871379 0.17464659 0.09719828 -0.20551379
000390 b6 92 5d 3e 94 89 4e be 9e 08 93 be 3a 1d 40 be
       0.21637997 -0.2016967 -0.28717512 -0.18761149
0003a0 69 86 61 3e ac 74 92 be 58 a4 9b bd 91 5c 3a be
       0.2202393 -0.2860464 -0.075997055 -0.18199374
0003b0 9d 9c 6b bd 83 7c 0d 3e 56 14 b8 3e 29 e2 51 be
       -0.057522405 0.13817029 0.35953015 -0.2049643
0003c0 30 75 8a bd 6a 54 34 be 89 2a a4 3d b4 0a 20 be
       -0.06760633 -0.17610326 0.080159254 -0.15629083
0003d0 00 41 5d 3e 87 17 ae bc 06 50 d7 bd 2a 04 02 3e
       0.21606827 -0.021251453 -0.1051331 0.12696901
0003e0 32 6f bc 3c d4 c1 6c bd 8a 77 38 3e d9 06 55 be
       0.02300224 -0.057802036 0.1801435 -0.20803393
0003f0 b2 7a 82 be 3c ec ab 3e 36 bd 31 3c 3e 81 eb 3d
       -0.25484234 0.3357867 0.010848334 0.1149926

module.params.2.weight f4 [256, 256]
000000 1c 51 9c bd 15 00 1b bd fd 22 cb 3c 2a bc 30 3b
       -0.07632658 -0.037841875 0.024796957 0.0026967623
000010 89 88 02 3b 11 64 3f bd 7b ac 21 bd 1c b0 23 3c
       0.0019917807 -0.04672629 -0.03947113 0.009990718
000020 24 70 43 bc a0 7f 54 3d 9f 07 4e ba 6c e7 cd 3c
       -0.011928592 0.051879525 -0.0007859412 0.025134765
000030 04 ec 35 3d 17 9f 32 bd d3 28 1e 3d 3f f5 aa bd
       0.044414535 -0.04360875 0.03861315 -0.08347558
000040 69 69 9f bd 81 a7 92 bc 11 80 c4 bc 33 d5 8f 3d
       -0.07783777 -0.017902138 -0.023986848 0.070230864
000050 b0 10 63 3c 24 90 fa bc 73 7f 8c 3d cd 27 e8 bb
       0.013858959 -0.03058631 0.068602465 -0.0070848227
000060 70 75 56 bd e7 74 43 bd e4 93 b3 bc 73 6f f0 b9
       -0.05235809 -0.04771891 -0.021921106 -0.00045859403
000070 7d 57 ee bc 4d 48 ff bc 55 5f a1 3c 4d ba 1d bd
       -0.029094452 -0.031162405 0.019698778 -0.03850775
000080 71 32 35 bd 19 a1 48 bd 2f 17 69 3d a3 a7 63 bd
       -0.044237558 -0.04898176 0.056906875 -0.055579793
000090 45 30 55 3d 5d c8 90 bd da 07 31 bd a4 40 33 3c
       0.052047987 -0.07069466 -0.04322038 0.0109407045
0000a0 3c 7c 92 bd 3e 63 9f 3c cd 97 21 3b b8 dd e5 3c
       -0.07152602 0.019456502 0.002465713 0.028059825
0000b0 96 a0 20 3d 83 58 c3 bd ad 76 b4 3c 6a 7d a8 ba
       0.039215647 -0.09538367 0.022029245 -0.0012854759
0000c0 99 39 1e 3d 63 66 88 bd 77 a6 84 3d d9 ec e5 3c
       0.03862915 -0.06660154 0.06477063 0.02806704
0000d0 25 ee d2 bc d2 67 3a bd 8e 1f 68 3c 07 95 91 bd
       -0.025748322 -0.045509167 0.0141676795 -0.07108503
0000e0 08 1c 8e bd 3d cc 56 bd 61 53 c0 3c a6 ad c6 3d
       -0.0693894 -0.05244087 0.023477258 0.097010896
0000f0 a6 91 2e 3d 42 f4 54 bd 2e b0 25 3d ed 3f a0 bd
       0.04261937 -0.051990755 0.04045122 -0.07824693
000100 06 c6 59 3d 29 b3 e8 3b c6 e7 04 bd 28 64 8c 3b
       0.053167365 0.0071014357 -0.0324476 0.0042844005
000110 f0 9d 8c bd ac 89 de bc b2 23 c2 3b 8c 7e 29 39
       -0.06866062 -0.027165256 0.0059246654 0.00016164238
000120 07 7b 41 bd b8 ce 22 bd 92 c6 15 bc 36 7c 2b bd
       -0.04723647 -0.039747924 -0.009141581 -0.041866504
000130 50 a1 ef 3b 9a 43 c8 bb 80 5e 05 bd 85 a7 01 bc
       0.007312931 -0.0061115744 -0.032560825 -0.007913475
000140 b5 a2 81 bc e2 35 43 bd bd 13 1d 3d 01 9a d0 3c
       -0.015824655 -0.04765881 0.038348902 0.02546406
000150 a6 f1 ce bc 07 cd a7 3c 75 f7 3f bc 84 a3 8a bd
       -0.025261711 0.020483507 -0.011716713 -0.067694694
000160 3a 8c 34 3c 28 54 42 3d e8 60 be bd c7 cb 74 bc
       0.011019761 0.04744354 -0.09295827 -0.014941162
000170 04 10 a7 3d ea e7 f9 3c 61 2a 64 bd 1c ba 82 3d
       0.081573516 0.030506093 -0.05570448 0.06383154
000180 27 05 a4 bc e9 9f 85 3d 1a 92 20 bc 06 f9 cd 3c
       -0.020021988 0.06524641 -0.009800458 0.025143158
000190 34 15 ea bc e5 34 3b 3c 15 af 14 3a f0 ce e2 bc
       -0.028574564 0.011426185 0.0005671841 -0.027686566
0001a0 aa d1 53 bd fd 4d 99 3a d1 08 12 bd 0e b0 dd 3c
       -0.051713623 0.0011696216 -0.03565294 0.027061488
0001b0 63 69 b7 3c f9 f1 ee 3c 3a 85 86 3d 70 a0 07 bc
       0.02238912 0.029168116 0.0656838 -0.008277997
0001c0 0d e1 95 bd 4e c5 4d bd 18 bf 3c 3d 3b 19 7c 3d
       -0.07318316 -0.050236993 0.04608068 0.0615475
0001d0 91 ce f2 bc ba 38 fe bc d6 83 56 bd 95 83 8d 3d
       -0.029639514 -0.031032909 -0.052371822 0.06909863
0001e0 16 d2 7d 3c 9e 8e 13 3d 48 f3 74 bc d6 4a 82 bd
       0.015491983 0.036024682 -0.014950581 -0.0636193
0001f0 08 7b a3 3c be 47 0b 3d a6 e8 88 bd f4 b3 10 3d
       0.019956127 0.034003966 -0.06684999 0.035327867
000200 8e 7b 91 3c 7e 91 5f 3c cc a7 78 3d 45 e1 84 bd
       0.01775911 0.013645528 0.0607069 -0.06488279
000210 03 94 c0 ba 12 f4 dc 3c c3 f5 60 bc a3 33 8b 3d
       -0.0014692548 0.02697185 -0.013730469 0.06796958
000220 35 ab 3b 3d da cf 51 3c c0 70 da 3c 05 b9 06 bd
       0.045817573 0.012805903 0.026665092 -0.032891292
000230 4d bd 3c 3d ca 48 af bd f2 ac c2 bc d5 9f 32 bd
       0.04607897 -0.08558805 -0.023764107 -0.04360946
000240 9f 53 13 bd 91 c6 94 bc cf 98 85 3c 36 83 48 bd
       -0.03596842 -0.01816109 0.016308216 -0.048953258
000250 db 62 39 3d e4 f6 4f 3c c6 b7 de bc 14 b3 e7 3c
       0.04526029 0.012693141 -0.02718724 0.028283633
000260 d5 3b 34 bd c7 cb 0f bc 47 bd 5d 3c aa 91 88 bd
       -0.044002373 -0.008776612 0.013533897 -0.06668408
000270 4a f7 93 3d 6b df 79 3d 27 f5 7f bc bc 78 fb bc
       0.07224901 0.061004084 -0.015622414 -0.03069722
000280 e8 65 34 bc cc 0b f5 3c 8a 68 90 bd cf b4 82 3d
       -0.0110106245 0.029912852 -0.07051189 0.06382143
000290 91 00 cb bc b2 f9 3f bd 06 84 8d bd e2 ad 5c bd
       -0.024780544 -0.046868987 -0.06909947 -0.053876765
0002a0 93 af 1d 3d d3 cd ab 3c 0d 3e 93 bc 7b a3 4c 3c
       0.03849752 0.020972168 -0.017973924 0.012490149
0002b0 b8 85 33 3d 96 74 18 bd ce e5 8e bc 1c d9 9f bd
       0.043828696 -0.03722056 -0.017443564 -0.07805082
0002c0 0b 0f 23 bc c4 ac 3d 3d 53 fd 40 bd 8a 56 66 3d
       -0.009952317 0.04630734 -0.04711659 0.056234874
0002d0 49 2a 80 bd 99 2a 14 3b cb 9b 45 bd 2c 6a b6 3b
       -0.06258065 0.0022608398 -0.04824428 0.005566856
0002e0 d5 ad d8 bb 73 aa 31 bb f6 4c 91 3c c8 04 54 bd
       -0.0066125193 -0.0027109652 0.017736893 -0.051762372
0002f0 36 45 2f bd ee 10 30 bb e6 df 56 bc 42 81 9e 3d
       -0.042790614 -0.002686556 -0.013114905 0.07739498
000300 33 15 a5 bd b1 56 02 bd eb 49 0f 3d b7 e5 2b bd
       -0.08060684 -0.031820957 0.034982603 -0.04196712
000310 04 83 4f b7 a7 d2 59 3c 2d c9 95 bd 72 5a a9 3d
       -1.2368666e-05 0.013294852 -0.07313762 0.08269204
000320 df e2 15 bc 74 49 35 3d c9 b2 1f 3c da 1b 33 3d
       -0.009148329 0.044259503 0.009747216 0.043727733
000330 8a 6e ec 3c 77 f7 d4 bc 8e 45 6a bd 2d 8a d7 3c
       0.028861303 -0.025996907 -0.05719524 0.026311005
000340 a3 44 05 bc 83 09 28 3d fb d9 e4 bc 31 2d 9c 3d
       -0.00813404 0.041024696 -0.027935972 0.07625807
000350 e3 89 8a 3d ac 69 31 3d f6 c8 c8 3c fa 7f 58 bc
       0.06764581 0.043313667 0.024509888 -0.013214106
000360 b4 9d a1 bb 62 f2 05 bc f3 58 a6 bc 89 62 b7 3a
       -0.0049321298 -0.008175464 -0.020306086 0.0013991158
000370 64 72 75 bd 44 ec 12 bd 9e 4d c8 3d 07 8b 51 bd
       -0.059923545 -0.03586985 0.09780429 -0.051157977
000380 49 26 04 3d f4 c7 4c bd 24 c0 77 3d 51 32 ba bd
       0.032263074 -0.049995378 0.060485974 -0.09091628
000390 61 e7 c5 bc c3 7a 28 bd 68 5c d1 bb 34 fc ec bc
       -0.024158182 -0.0411327 -0.0063891895 -0.028928854
0003a0 75 7d d1 3b c1 33 b8 3c c3 43 7f 3c 99 e7 35 3d
       0.0063931295 0.022485616 0.0155801205 0.04441032
0003b0 49 68 58 bc 87 6f 65 bd 69 d9 67 3d 2f a3 87 bc
       -0.013208457 -0.056014564 0.056603823 -0.016557304
0003c0 5c 74 ac ba 14 07 05 3d 35 83 51 3c 6c 17 80 3b
       -0.0013157236 0.032477453 0.01278763 0.003909042
0003d0 d4 34 d1 3d 26 36 d2 bc a2 d5 4f bd 8b bb 1d bd
       0.10215154 -0.025660586 -0.050740846 -0.038508933
0003e0 32 61 5b 3d 53 78 a2 bc 04 2b dc bb ed 23 7c bd
       0.05355949 -0.019832766 -0.006718995 -0.0615577
0003f0 23 49 88 bd 5e 8e 04 bd df d7 4b bd 72 d3 8f 3a
       -0.06654575 -0.032362334 -0.049766418 0.001097305

module.params.2.bias f4 [256]
000000 e0 c1 04 3d da dd 1b 3c fa 72 d1 3c 62 84 b4 bd
       0.032411456 0.009513343 0.02556752 -0.088143125
000010 48 43 f5 bd 49 05 dc bd bf e3 3f bd a8 a7 9c 3b
       -0.119757235 -0.107431956 -0.046848055 0.0047807284
000020 19 70 85 bc 27 a9 04 3d 06 23 a4 bd 78 ef ce 3d
       -0.016288804 0.03238788 -0.08014493 0.10104269
000030 e7 a0 f6 3d 5a c2 44 3d a7 92 11 bd 02 22 85 3d
       0.120424084 0.04803691 -0.03554025 0.06500627
000040 e6 91 d6 bd 46 37 bc bb 56 e8 60 3d 78 27 96 3d
       -0.10477047 -0.005743894 0.054909073 0.07331747
000050 47 1a 3d bc 13 e3 33 bd c9 37 5c bd 88 2c da bd
       -0.01154191 -0.043917727 -0.05376414 -0.10653025
000060 fb 2f 01 3d 9e 37 46 3d 10 be c0 3d c3 5a 09 3d
       0.0315399 0.048392884 0.094112515 0.033533823
000070 0f ec be bd 42 bf 28 3c 36 8e 11 3d 1e 7b a0 bd
       -0.09322368 0.010299506 0.035536014 -0.07835983
000080 61 0b e3 bd 9d 18 22 3d e5 90 0e be 61 2d 3f bb
       -0.11086155 0.039574254 -0.1392246 -0.0029171335
000090 ab 8a 06 3c 06 b2 b2 3d a4 a0 ac bd a0 48 c2 3d
       0.008211772 0.087253615 -0.08429077 0.09486508
0000a0 02 8b c4 3d 8b 20 a8 bd 86 3c c7 3d cd a6 ff bc
       0.09596826 -0.08209332 0.09728341 -0.031207466
0000b0 de 64 2f bc 27 21 79 3d 01 e2 da 3d a7 9f 37 3d
       -0.010705201 0.060822632 0.10687638 0.04482999
0000c0 cc 0d 43 3d 6f 42 d1 bc ff 90 33 3b 14 e7 e7 bd
       0.04762058 -0.025544373 0.0027399657 -0.113233715
0000d0 4a 26 64 3c 27 b6 ca bc 2d 0a 47 3b 77 8a d9 3c
       0.013925144 -0.02474506 0.0030371055 0.026555283
0000e0 25 cf bf bd d2 5b 38 3d 33 fc a1 3d b1 04 f1 bd
       -0.093656816 0.04500944 0.07909431 -0.11768473
0000f0 58 6b 2d ba 18 54 aa bb 5d d8 b8 bc 6c 59 d0 bd
       -0.0006615422 -0.005198013 -0.022564108 -0.10173306
000100 e5 be 0e 3c 44 ba a7 bd 9b a0 ae 3d 07 20 33 bc
       0.008712505 -0.08189824 0.08526727 -0.010932929
000110 75 53 42 3d f6 30 55 bc e5 20 44 3d ca 99 48 3d
       0.047442872 -0.0130121615 0.047882933 0.04897479
000120 49 8f d0 3d a0 e0 07 3c 68 e4 bf 3d 9b ea 67 bd
       0.101835795 0.008293301 0.09369737 -0.05662022
000130 16 76 50 bc e6 6c 97 39 ce 75 ac 3d bc f7 a6 3d
       -0.012723466 0.000288821 0.08420907 0.0815272
000140 88 d6 b2 bd 9d fc 40 3c 4c e3 f5 3b 12 97 1c 3a
       -0.08732325 0.011778978 0.0075039025 0.0005973439
000150 01 09 a1 3c 94 3e bd 3d cf e8 80 bd 29 e3 ce 3d
       0.019657614 0.092404515 -0.06294405 0.10101921
000160 4b af f0 3c be dd 36 bc fa b7 a6 bd c3 d7 6a bd
       0.029380461 -0.011161266 -0.081405595 -0.057334673
000170 4a c9 ce bc 36 ef 04 bd 86 43 bd 3c 6f 2e 08 bd
       -0.025242466 -0.03245469 0.023103487 -0.033247408
000180 65 14 18 bd da 1a 68 bc 6b 88 82 3c 0a 8b f3 3c
       -0.037128825 -0.014166558 0.01593419 0.029729385
000190 11 8d 24 bc 9d f4 92 bd 02 c1 29 bc 31 1d 19 3c
       -0.0100433985 -0.071755625 -0.010360958 0.009345339
0001a0 ac 2d dd 3c 6c 74 be 3d cf 27 85 3d 12 28 81 bd
       0.026999317 0.092995495 0.065017335 -0.06306471
0001b0 df 14 b9 3d 50 1c ef bc 6c 60 d8 bd f5 73 ec 3b
       0.09037184 -0.029188305 -0.10565266 0.0072159716
0001c0 77 06 38 bd 3d e3 f2 bc ab 9e 16 bd 6c ee 9e 3c
       -0.04492804 -0.029649371 -0.03677241 0.019400798
0001d0 a3 25 fe bc 14 40 93 3c 75 2b 27 3d af 9b f3 3b
       -0.031023806 0.01797489 0.04081293 0.0074343304
0001e0 3b 35 fc 3c 63 46 21 3d fb d1 28 3d 34 41 40 3d
       0.030787101 0.039373767 0.041215878 0.046937183
0001f0 90 fd 87 bc e0 3e 0d bc 76 e6 91 bc 23 eb 09 3d
       -0.0166004 -0.008620948 -0.017810088 0.03367151
000200 ff be 9c 3c 03 1a c0 3b 62 42 55 3d ba 76 15 bd
       0.019134043 0.005862476 0.05206526 -0.03649018
000210 57 91 97 bc 19 6f 4e 3d dc b6 fe bc bf d6 e0 3c
       -0.01850192 0.05039892 -0.031093054 0.027446149
000220 48 ed f7 bc e6 0b 44 3c 39 d3 15 bd 5f 52 6a bd
       -0.030264512 0.011965727 -0.03657839 -0.05720746
000230 87 a6 e9 3b 70 06 80 bd 20 b6 ac bc 43 97 b9 bb
       0.0071304473 -0.06251228 -0.021082938 -0.0056637838
000240 7e c4 f2 3d a2 7f cb 3d 1c cf a6 bd 50 87 7d 39
       0.11853884 0.099364534 -0.08144972 0.00024178368
000250 af e6 90 bd 2d e2 f2 3d 75 62 47 bd 0f 8e e2 3d
       -0.070752494 0.11859546 -0.04867788 0.11062252
000260 97 fe 97 3b a2 fe 93 3d 7f d5 09 be ef ac e9 bd
       0.004638504 0.07226302 -0.13460349 -0.114099376
000270 e5 53 40 3b aa 6e ea 3d ea 15 50 bb fc 38 9f bc
       0.002934688 0.11446889 -0.0031751343 -0.019436352
000280 f5 cd e2 bd 86 e0 92 3d c3 26 e7 bc 6f 6d f4 3d
       -0.110744394 0.07171731 -0.028216725 0.11934935
000290 a4 6d 1b 3d 59 35 d4 39 b3 79 3e bb ed e7 2e bd
       0.03794636 0.00040475538 -0.0029064238 -0.04270165
0002a0 a6 56 9f bd 13 28 dd bd 0b c8 51 3d 14 02 54 3d
       -0.07780199 -0.10798659 0.051216166 0.051759794
0002b0 a1 04 dd bc c8 da 21 bd 1c ab ac 3a 35 c4 d5 3c
       -0.026979746 -0.039515287 0.0013173553 0.026094535
0002c0 5a 7f 81 bc f8 8f 4c 3d 1f 29 9d 3d 99 87 bb 3b
       -0.015807796 0.049941987 0.07673859 0.0057229516
0002d0 0b a5 c9 bd 14 54 99 3d 55 a6 bc 3d 43 26 8a 3c
       -0.098459326 0.0748674 0.09211413 0.016863948
0002e0 6e 4b 6a 3b 1f f1 b9 bd 7f 4c e6 bc 4a 03 54 bd
       0.0035750526 -0.09079193 -0.028112648 -0.05176095
0002f0 14 bd bb 3d 8f 3f 34 3d 7a b7 42 3d 97 5a b6 bd
       0.09166923 0.044005927 0.047538258 -0.089039974
000300 9b 66 37 bd 8b 09 86 bd d1 97 67 bd 32 f5 b2 3c
       -0.044775587 -0.06544789 -0.056541268 0.021845434
000310 bf 19 b8 bd dd 46 af bd 21 be 9e bc be a4 a7 3d
       -0.08989286 -0.08558438 -0.01937777 0.08185719
000320 5f be 2c bc 57 56 89 3b e3 78 8a 3c 07 fb 0d 3d
       -0.010543435 0.0041912007 0.016903346 0.034663226
000330 7e 93 59 3c 4d d3 a1 3d aa 56 55 bd a1 ff 2b bd
       0.013279794 0.079016306 -0.052084602 -0.041991834
000340 2b 03 04 3e 63 1d e5 3d 0e c0 95 3c cb 25 a0 3d
       0.12891833 0.11187246 0.018280055 0.078197084
000350 da 4b 83 bc fe 67 80 bd 4b 3d bb bc 00 51 2a bd
       -0.01602738 -0.06269835 -0.022856375 -0.041581154
000360 f7 13 91 3d 1d 02 01 3e b1 29 30 3d f4 9a 89 bc
       0.07083886 0.12598462 0.04300851 -0.01679752
000370 fc ff 9c 3d 7e cd a1 bd ca 92 1d 3d bb 61 6c bd
       0.07666013 -0.07900523 0.038470067 -0.05771039
000380 03 fa 77 3d 03 e9 0d bd a8 a0 4c 3d f4 0c 98 3d
       0.060541164 -0.034646045 0.0499579 0.074243456
000390 ba 22 7c 3c 3d 94 7c 3d 9c da 21 bb d4 76 91 3d
       0.015389139 0.06166481 -0.0024696952 0.07102743
0003a0 e6 c9 bc 3d b1 37 85 3d ea 91 55 bc 11 99 86 bc
       0.092181966 0.06504763 -0.013035277 -0.01643041
0003b0 a2 e6 bd 3c 8b 25 04 3d da 38 72 bc 6e 50 9f 3d
       0.023181263 0.032262366 -0.014784062 0.077790126
0003c0 b7 63 8d 3d ae 7e 05 bd 65 cc 0a 3b 2c 7f 66 3d
       0.06903785 -0.032591514 0.0021178958 0.056273624
0003d0 f6 ae 88 3d c2 6c fe 3d 1e a9 4e 3d 25 ed 83 3d
       0.06673996 0.12423088 0.05045425 0.06441716
0003e0 a8 b8 24 bc 9c 8a 94 3d 7f 93 f8 bb a8 c4 f3 3c
       -0.010053791 0.07253 -0.0075859423 0.029756859
0003f0 b9 4d 96 3d 57 d8 94 3d e8 7a 44 bd 87 f7 c2 3d
       0.07339043 0.07267826 -0.047968775 0.09519868

module.params.4.weight f4 [1, 256]
000000 e4 89 5d 3d f8 01 61 bc da 49 24 3d d5 47 59 bd
       0.05408658 -0.01373338 0.040109493 -0.05304702
000010 8f 93 7d bd ed ad 3c bd db 7e 94 3d 87 5f ac b9
       -0.0619083 -0.046064306 0.07250758 -0.0003287757
000020 ca 33 3c bd 58 60 87 bd 00 84 1c 3e 1a 1f 9b 3d
       -0.045947827 -0.06610173 0.15284729 0.075742915
000030 ad 4b f9 3d 4d 71 2e ba e3 bc 8b bd 09 6d 53 3d
       0.12172637 -0.00066544564 -0.06823137 0.051617656
000040 2f 38 a4 bd 73 95 b9 bd 3d 44 2d 3a 2b b1 4a 3c
       -0.08018529 -0.09061708 0.00066095946 0.012371342
000050 ac 3c ed b9 59 e1 3e bc 41 84 26 bb b4 5a 9d bd
       -0.00045249367 -0.011650407 -0.002540842 -0.07683316
000060 6e 54 d9 bd 92 0d c0 3d 61 47 8d 3d 2c a6 33 3d
       -0.10611807 0.09377588 0.0689838 0.043859646
000070 be 55 20 bd 0b 45 a0 3a e6 18 87 b9 71 73 9d 3d
       -0.03914427 0.0012227608 -0.00025767757 0.07688034
000080 71 f3 98 bd 34 2a 12 3c 58 78 63 3e e2 36 02 3e
       -0.07468308 0.008921195 0.22213876 0.12716249
000090 fc c8 a0 bd 8c 45 70 3d 69 5f 16 bd 3b 40 d7 bd
       -0.07850835 0.058660075 -0.036712084 -0.10510298
0000a0 29 fb de 3c e2 e2 9e bd 80 a9 06 3e 66 98 f9 bc
       0.027219372 -0.07758118 0.13150597 -0.030468177
0000b0 9c b3 ab bd 01 13 86 3d b1 ee 80 3d d9 2d 29 3d
       -0.08383867 0.065465935 0.06295527 0.04130349
0000c0 d3 84 19 3a 03 31 a1 39 cc 9f a2 bc 6f 7c 88 bd
       0.0005856279 0.0003074483 -0.019851588 -0.06664359
0000d0 98 6a 08 bd 8a f6 14 bd c1 d8 04 3d 81 23 f1 3d
       -0.03330478 -0.03636793 0.032433275 0.1177435
0000e0 f3 44 22 3e 99 d7 a8 3b 2d f1 43 be 8f d6 df bd
       0.15846615 0.0051526544 -0.1913497 -0.10929596
0000f0 29 a5 cf 3d 65 e8 0a bb 04 1d 54 ba 5b 9a e1 bd
       0.10138924 -0.0021195647 -0.0008091482 -0.11015769
000100 b6 7d ce bc 74 dc 44 bd fb cb ad 3d cb 48 d8 ba
       -0.025206428 -0.048061803 0.08486172 -0.0016501186
000110 eb 65 77 3c 26 49 ff 3c 38 fd 0a 3d c2 7a 2a 3d
       0.015099983 0.03116281 0.033932894 0.041620977
000120 3b 4c 9a 3d 82 84 c9 3c 4a 15 3c 3d e5 5a 48 bd
       0.07534071 0.024599317 0.04591874 -0.04891481
000130 3b 65 94 bc f5 31 94 b8 2b 89 15 3d c2 94 95 3d
       -0.018114677 -7.066495e-05 0.036507767 0.07303764
000140 17 ce ac bd a2 8b 76 bd 25 76 3d 3d 8e da 9c bd
       -0.08437746 -0.060191758 0.04625525 -0.076588735
000150 e4 58 70 3b de ea e5 bd d1 58 dc 39 d8 32 93 3d
       0.0036674077 -0.11226438 0.00042027843 0.07187432
000160 e4 9e 5b 39 00 80 81 ba 47 b2 1a bd be 98 27 bd
       0.00020944659 -0.0009880066 -0.037767675 -0.04091715
000170 6e 3d b6 39 2e 96 11 3c 51 13 b9 ba f3 9f dd bc
       0.00034759514 0.008885903 -0.0014120137 -0.027053809
000180 a2 d3 e0 bc fd 65 b8 3d 93 40 07 3d fd 4c 61 39
       -0.027444664 0.09003828 0.033020567 0.00021486352
000190 f8 bb 9a 3c 17 ce 9b bd df 2e 30 ba 51 f4 e2 3c
       0.018888459 -0.07607668 -0.00067208515 0.02770439
0001a0 8c 84 3e 3d 83 fd 38 3d 0e 45 2f 3d 65 d0 a6 bd
       0.046513125 0.045163643 0.042790465 -0.08145217
0001b0 90 49 57 3d b9 c0 13 b9 36 2a e8 bd b3 a9 5d 3d
       0.05256039 -0.00014090807 -0.11336176 0.054116916
0001c0 94 ba 64 bd d0 f3 96 bc 09 ae 50 bd 8e 81 62 b7
       -0.055841997 -0.018426806 -0.050947223 -1.3500814e-05
0001d0 c3 69 96 bd 53 1c 89 3a d3 6d 39 bd 4b de 7b 3a
       -0.07344391 0.0010460712 -0.045270752 0.00096080144
0001e0 4a fe 3c 3d 46 d5 6c 39 3a da 29 39 21 d9 09 b9
       0.046140946 0.00022586164 0.00016198392 -0.00013146225
0001f0 1d f0 4f 3d f3 25 e1 38 e0 c9 e7 3c 84 5b 20 bd
       0.0507661 0.00010735905 0.028294504 -0.039149776
000200 73 98 75 3c 09 90 a7 3d 55 a9 93 3d 7c cb d1 3d
       0.01498996 0.081817694 0.07210032 0.1024389
000210 28 b0 ca 3c 10 9e 49 3c 26 5f e6 3b 95 f0 33 3a
       0.024742201 0.012305751 0.0070303855 0.00068641576
000220 89 a0 b3 bc 1f c6 1e ba 44 78 cb bc f2 dc 93 bb
       -0.021927135 -0.0006056744 -0.02483762 -0.0045124227
000230 2f a2 ac 3d 7a 65 5a bd f0 0b 7f 39 c7 1b 4a b9
       0.084293716 -0.05331943 0.00024323142 -0.00019274569
000240 cf bc 28 3d a0 06 63 3d 2e c1 35 bd e7 29 41 3d
       0.041195687 0.05542624 -0.044373684 0.0471591
000250 65 8f 99 bc ec 0f 1e be 1a ee 73 bd c7 65 51 3d
       -0.018745134 -0.15435761 -0.059553243 0.051122453
000260 24 bd 35 3c ee 17 5a 3d 3f b6 3d 3e 5f 3d 19 bd
       0.011092458 0.053245477 0.18526553 -0.037412044
000270 88 60 a5 3c d7 fc f3 bd 46 b2 3a bd 2c 20 d5 bd
       0.020187631 -0.1191346 -0.04558017 -0.10406527
000280 d9 b9 08 3e aa 71 f0 bd f4 f8 ce 3d a3 37 37 3d
       0.13352145 -0.1174043 0.10106078 0.044730794
000290 bb 0c 0d 3c 51 69 c2 3c 98 72 f2 b9 51 fd e1 37
       0.008608992 0.02373186 -0.00046243216 2.694005e-05
0002a0 ec b1 89 bd 43 bd 27 bd 43 72 72 3c c1 7c 5a ba
       -0.06723389 -0.04095198 0.01479775 -0.000833463
0002b0 39 5a 46 bd 51 e3 47 bd 78 2b 4d bd 77 df 03 be
       -0.048425887 -0.04880077 -0.050090283 -0.12878214
0002c0 40 82 6c b8 4b 59 a8 b8 3f 3d 05 3d d0 4d f1 bc
       -5.638809e-05 -8.0274964e-05 0.032529112 -0.02945605
0002d0 c7 61 38 bd ff 5a 8f bd 69 cf ac 3d 56 98 94 bc
       -0.045015123 -0.06999778 0.08437998 -0.018139046
0002e0 63 a3 09 3d ca 31 50 bd 89 46 3c bd 8a 62 1d 3e
       0.033603083 -0.050828733 -0.045965705 0.15369621
0002f0 b4 cf ee 3d 41 40 92 3d 8b 74 68 3d e0 f3 9d bd
       0.1166071 0.07141162 0.05675177 -0.07712531
000300 5a 77 2c bc e4 28 36 bd 3a c0 07 b9 cc e0 f0 b9
       -0.0105265025 -0.04447259 -0.00012946213 -0.00045943854
000310 84 f3 8f bd 5c 37 44 bd 7f d1 7b 3c fb fb c3 bd
       -0.07028869 -0.047904357 0.015369772 -0.09569546
000320 7c 3c 85 3d d6 2c 5e bd 44 55 3d b9 aa 4c 14 3c
       0.06505677 -0.054241978 -0.00018056209 0.009051481
000330 e5 9e 90 bc 97 be 12 3e 00 8f 55 ba 3d 85 19 3d
       -0.017653892 0.14330517 -0.0008146614 0.03748058
000340 30 ec 37 be 84 65 d9 bd 3d 3d c4 b7 6d 63 af 3c
       -0.17961192 -0.10615066 -2.3393537e-05 0.021409715
000350 82 f4 84 3d a3 67 01 3e 61 11 6f bd 85 5f 8d bc
       0.06491949 0.1263719 -0.058366183 -0.017257461
000360 0b 69 95 3d 75 4f 5b be 0d c5 be 39 35 1a 3c bd
       0.07295426 -0.21417029 0.00036386438 -0.04592343
000370 07 29 68 3d b1 85 1a bd fa d1 5a 3d bd b6 de 3d
       0.05667975 -0.037725154 0.053422906 0.10874698
000380 96 d2 6e 3d 14 da 3a 38 8b ea f6 bd 39 5e 8c 3d
       0.0583063 4.4548957e-05 -0.12056454 0.06853909
000390 b5 81 12 3d 99 0f 33 3d 1c d7 ba 3d 5a 37 22 be
       0.03576823 0.043716047 0.0912306 -0.15841427
0003a0 95 5b 07 3d de 47 2c 3d d7 c8 eb 38 5f 7f e3 bc
       0.033046324 0.042060725 0.000112430826 -0.027770696
0003b0 58 7d 56 3d b4 79 f4 3a ee 8a f5 3d cc fa 98 3d
       0.05236563 0.0018651993 0.11989389 0.07469711
0003c0 e5 df 55 3d 9b 2b 43 bd dd 8a 57 bd e7 a7 83 3b
       0.052215476 -0.047649007 -0.052622665 0.0040178183
0003d0 17 e1 99 3d c9 3e c9 bd b4 28 ba 3d a3 dc 22 3d
       0.075136356 -0.098264284 0.09089795 0.039761197
0003e0 da 1e 28 bd f5 49 7b 3d 57 f6 2a bd c6 69 bb 3c
       -0.041045047 0.061349828 -0.041738834 0.022877585
0003f0 2f 20 d6 3d df 83 86 3d 3d 35 1b bd 47 aa 1a 3d
       0.10455357 0.06568121 -0.03789257 0.037760045
