Future implementations/models/reverse_transport_policy.pth (torch, 282098 bytes, 6 tensors)

module.0.module.0.params.0.weight f4 [256, 10]
000000 b2 41 6c 3e 56 57 d6 bd 8d 7f 6b be ea 7c ae be
       0.23071936 -0.10465877 -0.22997876 -0.34079677
000010 e3 9f 83 3d 42 2f 49 3e 4a db 5b 3d 08 20 43 3c
       0.0642698 0.19646934 0.053675927 0.011909492
000020 e3 a1 a5 bc ff 89 d0 3d 78 80 96 3e a0 d7 45 3e
       -0.020218795 0.10182571 0.2939489 0.19320536
000030 3a 42 a1 3e 85 36 76 be ba 2e 02 bf 8c 48 1e be
       0.3149584 -0.24044235 -0.5085255 -0.15457362
000040 84 3d d0 3d 4a e1 63 3e 9b be 8f be 12 92 b9 bd
       0.10167983 0.2225391 -0.28075108 -0.09061064
000050 47 2f b2 3c c4 94 15 be 12 c3 0e 3e 6c 81 cf be
       0.02175106 -0.14607531 0.13941601 -0.4052843
000060 25 e3 94 be d8 2f a3 3e 13 94 57 be d5 13 c9 3e
       -0.29079548 0.3187244 -0.2105258 0.39272943
000070 ba f6 21 3d 5b 65 8a be b6 aa 09 be 07 65 89 be
       0.039541937 -0.27030453 -0.13444027 -0.2683489
000080 32 37 82 bd 3c f2 10 be 37 77 a3 be 20 fe b5 bd
       -0.06358184 -0.14154905 -0.3192689 -0.08886361
000090 17 a1 b5 3e 5d ab 95 bd 81 4b 0e bc 68 ec 98 3c
       0.35474464 -0.073080756 -0.008684994 0.018667415
0000a0 c6 a1 f0 bb e3 d3 d4 3d a9 73 a7 3e 0f e7 29 be
       -0.0073435036 0.10391977 0.3270543 -0.16592048
0000b0 84 79 f5 3c 93 56 ff 3d e1 d9 89 3e a3 2e c0 bd
       0.02996517 0.124676846 0.2692404 -0.09383895
0000c0 50 e3 d2 bc 46 00 05 3e ac c8 84 3e ef 70 79 be
       -0.025743157 0.12988386 0.2593435 -0.24359487
0000d0 20 b8 dd be d4 8c 80 be 22 4f db 3e 13 57 ab be
       -0.4330454 -0.25107443 0.4283381 -0.3346487
0000e0 43 bb 52 3d 0b 64 23 be 92 fc 19 3e 00 12 1f be
       0.051448118 -0.15956132 0.15037754 -0.1553421
0000f0 90 92 28 3c 28 a1 5b 3e e6 65 94 be 70 62 0f 3d
       0.0102888495 0.21448195 -0.28983992 0.035005987
000100 70 5e 4f 3e d8 8b a7 be 3a 0e f9 3b 85 d4 11 3e
       0.20250869 -0.3272388 0.007600573 0.14241226
000110 e6 0a 94 3e ae 2a 73 3e 00 87 af bd 60 ad 17 bd
       0.28914565 0.2374675 -0.08570671 -0.037030578
000120 f0 24 e8 3e eb 39 e3 be 44 a9 9c be 84 c5 07 3e
       0.4534068 -0.44380125 -0.3059789 0.1325894
000130 f6 c1 07 be ba 03 87 3c 74 e7 09 be a9 32 3a bd
       -0.13257584 0.01648127 -0.13467199 -0.04545847
000140 dc f6 7d 3d 7d b9 93 3d a1 8f ad 3d 76 46 5c be
       0.062003 0.072131135 0.08474661 -0.21511254
000150 83 a6 88 be 97 09 87 3e f9 fe 1a 3e 31 e6 a3 be
       -0.26689538 0.26374504 0.15136327 -0.3201156
000160 d6 5f 6f 3c 2a b8 8d be 60 4c 13 be c2 8f 5d be
       0.014610251 -0.2767957 -0.14384604 -0.2163687
000170 e1 2e 34 3e 11 13 0e bf b0 64 ad be 7c 4f ba bd
       0.17596008 -0.55497843 -0.3386588 -0.09097192
000180 ed 67 06 3d f5 47 83 3e 04 2f 06 3e 37 ad 5d 3d
       0.032813955 0.25640836 0.13103873 0.05412027
000190 63 12 ec bd c6 47 5e 3e 20 79 6f 3e a3 69 d7 be
       -0.115269445 0.21707067 0.2338605 -0.42072782
0001a0 bb 02 35 be c6 b2 2d bd 97 25 36 be b9 af 6c 3e
       -0.17676823 -0.04240682 -0.17787777 0.23113908
0001b0 e8 4e 1d be 30 e4 0e be 55 ba 00 3e 5c 53 8d be
       -0.15362132 -0.13954234 0.1257108 -0.2760266
0001c0 a3 01 44 3e 4d 9c e0 be de 96 90 3d 1b 9e 02 be
       0.1914125 -0.43869248 0.07060026 -0.12755625
0001d0 c4 90 b2 be d5 9a 2d bd 35 6d ef bd 0c c9 82 3e
       -0.34876072 -0.042383987 -0.116907515 0.25544012
0001e0 47 bf 1a 3e c5 3a 8d be cb 79 03 3e 84 f4 0b 3e
       0.15112029 -0.275839 0.12839429 0.13667494
0001f0 93 d8 da 3e 2c 80 61 3e 02 4f 4c be 44 cb 86 bc
       0.42743358 0.2202155 -0.19952014 -0.016454346
000200 52 4d 3f be 73 ec a3 3d dc 21 5a be a8 f6 81 3c
       -0.18681839 0.080040835 -0.21301979 0.015864685
000210 71 79 15 3e 4b 8b 1c 3e ac c4 b1 3d c9 9e 1a be
       0.14597107 0.15287511 0.0868009 -0.15099634
000220 ad ae 47 3e 24 fb f6 3c 15 b9 0a 3b f3 29 95 3e
       0.19500227 0.03014905 0.0021167446 0.29133567
000230 8d 7d e5 bd ea 83 3b 3e 05 d9 94 3e 81 dd b1 3e
       -0.112055875 0.1831204 0.29071823 0.34739307
000240 31 d3 c3 3e 3d a2 bd be b6 60 ab bd 26 6e 5f 3e
       0.38247064 -0.3703784 -0.083680555 0.21819362
000250 57 a9 cc 3d 9f 37 51 be 2e 75 a8 3e bc 4d 49 bd
       0.099932365 -0.20431374 0.329019 -0.0491464
000260 9a 37 a0 bc 48 e7 b5 be 2c c1 09 3e e3 9f 0a be
       -0.019557763 -0.35528016 0.13452595 -0.13537554
000270 ad 6c 81 bd 81 8a 85 be 9d 5c a8 3e 4a a0 b3 be
       -0.063195564 -0.26082233 0.32883158 -0.35083228
000280 9e 5d 11 3e 89 01 29 3d 24 8a bc be 90 ef 1d 3e
       0.14195868 0.04126123 -0.36824143 0.15423417
000290 0b df d0 3d be 59 b1 be d5 a6 34 3d a5 91 b1 be
       0.10198792 -0.3463878 0.044104416 -0.3468143
0002a0 87 f8 5f bd fc 33 a1 3d 21 d6 16 be 8f 1e 59 bd
       -0.054680374 0.07871243 -0.14730121 -0.05300766
0002b0 9a bd 04 bf 4c 9a 06 bf 3b ae 9e 3e ac 5d df bd
       -0.5185181 -0.5257919 0.30992302 -0.10906538
0002c0 6e f3 a9 be 60 59 9f bc d5 17 8e 3e 03 37 3c bc
       -0.33193535 -0.019451797 0.27752557 -0.011487725
0002d0 0d 10 d4 bd 69 bb ba bd 98 f3 a1 3e 44 ca e2 3e
       -0.10354624 -0.09117777 0.3163116 0.4429494
0002e0 a4 b2 fc bb 03 e0 68 3d ca 09 1e 3d 30 aa 8b be
       -0.0077117253 0.05685426 0.038583554 -0.2727828
0002f0 83 f7 45 3e 64 f5 b7 be 98 03 98 be 04 66 90 be
       0.193327 -0.35929406 -0.29690242 -0.28202832
000300 4f 70 9f 3e a0 77 8a bd a8 a3 af bd 4e c5 a6 3e
       0.31140372 -0.06761098 -0.08576137 0.32572407
000310 75 73 24 3c bf 67 d6 3d a4 b7 94 be 08 3d 37 3e
       0.010037293 0.10469007 -0.29046357 0.17894375
000320 a6 29 35 be c5 8c 9a be 0e 9c 4a 3e e4 58 d7 3d
       -0.17691669 -0.30185524 0.19786093 0.105150014
000330 17 a0 0e 3e 76 80 87 be 94 0a c0 3d b6 fb 6f bd
       0.13928257 -0.26465195 0.093770176 -0.05858966
000340 9f 4a 2a be d9 73 8b bd e8 85 18 3e 6e ce 65 be
       -0.16630028 -0.068092056 0.14894831 -0.22442028
000350 de 77 ea 3e e6 fa a3 be a4 5a 92 bc 1a 02 c9 3e
       0.45794576 -0.32027358 -0.017865486 0.39259416
000360 25 16 2e be 1e 9d e4 bd 8e f1 56 be 03 c3 24 be
       -0.17000635 -0.1116278 -0.20990583 -0.16090016
000370 30 54 0a 3e 1f a2 20 be 82 33 a9 3e 3d 67 59 be
       0.13508677 -0.15686844 0.3304711 -0.21230789
000380 1a 56 c3 be 5b f9 2d be 85 96 38 be 8d 10 5d bd
       -0.38151628 -0.16989653 -0.18026169 -0.053970862
000390 1e ea 89 3e 4d d9 80 3d e4 e9 8b be fe 97 d2 3b
       0.2693643 0.06291447 -0.27326882 0.0064268103
0003a0 d0 60 6b 3e ab a0 9d 3e 4e dd a8 be 0e 5b a2 3e
       0.2298615 0.30786642 -0.32981342 0.31710094
0003b0 57 f6 9e 3e 88 4c ac 3e 75 ad 6a bd c1 f1 a0 bd
       0.31047317 0.3365214 -0.057294328 -0.07858611
0003c0 8f 98 da bd d6 01 5f be 92 19 72 3e 23 e4 8d 3e
       -0.106736295 -0.21778044 0.23642567 0.27713117
0003d0 c3 66 ae bd 4c be 72 bd 96 76 a3 bd 04 83 66 3d
       -0.08515694 -0.059263512 -0.07981603 0.05627729
0003e0 7d 2b b3 3d 94 8c 60 bd bb c9 67 3e 74 61 89 be
       0.08748529 -0.054821566 0.22635548 -0.26832163
0003f0 71 6e 10 be 2e 89 a3 bc 33 c7 3d 3e 0a e9 23 3e
       -0.1410463 -0.019962873 0.1853302 0.16006866

module.0.module.0.params.0.bias f4 [256]
000000 24 42 0a be 78 19 94 3e e1 f8 60 3c f9 ee 74 3e
       -0.13501793 0.2892568 0.013731212 0.23919286
000010 2b 5b ad bd b7 ea 07 be 88 d3 1e 3e 0b 61 75 3e
       -0.084646545 -0.1327313 0.1551038 0.239628
000020 7d ba 59 3e b9 17 79 3d f9 43 76 3e 22 31 ea bd
       0.21262546 0.06081364 0.24049367 -0.114351526
000030 06 1c 8d bd 67 32 6a 3e ca f3 6e 3e b2 6a 2a be
       -0.06890111 0.2287079 0.23335186 -0.16642264
000040 12 a9 0f 3e 11 2f 63 3d e7 da 6b be 15 4b 9e 3e
       0.14029339 0.055464808 -0.23032723 0.30916658
000050 2c 55 c4 bc 43 dc 84 be 14 a2 2e 3e f6 d2 db 3d
       -0.023966394 -0.25949296 0.17054015 0.10733597
000060 2f 81 53 3e dc 6e 80 bd 2d 7d 80 be 11 d4 87 b9
       0.20654748 -0.06271145 -0.25095502 -0.00025907208
000070 fd b5 9d 3e 77 e9 76 be ed f8 95 be 7f 73 36 3d
       0.3080291 -0.24112497 -0.29291478 0.04454374
000080 6b af 9b 3e 85 4c 6c 3d 46 05 f4 3c 8d 2e 3e 3c
       0.3040727 0.057690162 0.02978767 0.011607778
000090 a8 40 49 3e ec 9d 5e 3e b1 8f f7 3d f7 b9 84 be
       0.1965357 0.2173993 0.12087954 -0.2592313
0000a0 95 a4 4e 3e 47 d5 a4 3e 4d eb 12 be 30 cd 8a 3e
       0.2017997 0.32193968 -0.14347573 0.2710967
0000b0 63 b1 ce 3d af 4b 80 3e 66 81 be 3d cd e2 bd bd
       0.100924276 0.25057742 0.093020245 -0.092717744
0000c0 2c 46 59 be 4b 83 fc bd f4 5e 8a be 55 1d 1d 3c
       -0.21218175 -0.1232973 -0.27025568 0.009589513
0000d0 bb 4d b6 bd b7 f7 67 3e bd 8e b5 3d 4f d4 7e 3d
       -0.08901545 0.2265309 0.08865116 0.062214192
0000e0 93 cd 47 3e 6a b2 a0 3e 27 10 22 3a f6 86 07 3e
       0.19512014 0.3138612 0.00061822165 0.13235077
0000f0 4a c4 3f 3e f8 4d 61 3e 52 5a 86 3e 6c fd 98 be
       0.18727222 0.22002399 0.26240784 -0.29880846
000100 69 4c c4 bd 57 36 22 be 3b 22 5f be 4b 48 57 3e
       -0.095848866 -0.15841042 -0.21790402 0.21023671
000110 8c 9e 30 be 98 6c e3 3d 19 6e b0 bd c8 a5 4b 3e
       -0.17247981 0.11104697 -0.086147495 0.1988746
000120 da 76 21 3e 37 a5 ea 3a 05 af 14 be ae 6e b1 bb
       0.15767995 0.0017902021 -0.1451989 -0.0054148054
000130 e8 32 17 be e2 3d 9b 3e 81 20 66 3e 2d 39 28 be
       -0.14765513 0.3032065 0.22473337 -0.16428061
000140 87 89 1c be ab dc 79 3e 8f 33 56 3e 48 6d 63 be
       -0.15286838 0.24400584 0.20918106 -0.22209656
000150 c3 0c 23 3e 88 61 48 3d d8 79 93 bd b0 0c 5b be
       0.15922837 0.048921138 -0.07200974 -0.21391559
000160 ab 74 8c 3e 22 7b 4d be 42 56 1f be f4 8a 16 be
       0.2743276 -0.20066503 -0.15560248 -0.14701444
000170 b0 aa 88 be a2 fe 24 bd 99 b5 d6 3c 70 17 9b be
       -0.26692724 -0.0402819 0.02620964 -0.3029132
000180 28 b9 7b be 00 04 99 3d 45 bb 85 be 76 13 5c 3e
       -0.2458235 0.07471466 -0.26119438 0.21491799
000190 b9 16 67 3e c7 5f 70 be e1 77 8e 3c 52 6c 98 be
       0.22567262 -0.23474036 0.017391147 -0.29770142
0001a0 e5 b6 67 3e f5 7e e4 bd 72 65 92 3e e5 c3 c7 3d
       0.22628362 -0.11157028 0.28593022 0.09754161
0001b0 a0 e9 2b 3e cc cf 99 3d 59 f2 89 3e f3 05 2e be
       0.1678834 0.07510337 0.2694271 -0.16994457
0001c0 99 ec ca bc d0 a5 3b 3d 82 1e 15 be a4 20 22 3d
       -0.024771022 0.045812428 -0.14562419 0.03958191
0001d0 52 8b 35 be 2f 30 6f 3d 40 2b af 3d 9f 4e 8c 3d
       -0.17728928 0.05839556 0.08553171 0.06850933
0001e0 c4 a8 8f be a4 f5 7a 3e 78 d6 87 be f0 ad 67 3e
       -0.28058445 0.24507767 -0.26530814 0.22624946
0001f0 1a 5d 82 be 93 15 57 be fb 6b 33 bd b7 e0 5e 3e
       -0.25461656 -0.21004324 -0.04380415 0.2176541
000200 0b e8 43 bc fa 72 03 be 2b 66 00 be fa 29 db 3d
       -0.011957179 -0.12836829 -0.12538974 0.10701366
000210 c7 05 b6 bd 6d 23 4f 3d 35 e7 8f 3e 0e 6e e8 bd
       -0.08887821 0.050570894 0.28106084 -0.11349116
000220 31 d8 2e 3d 71 cd 8a 3e 48 7a e1 bd 54 4a 9c be
       0.042686645 0.27109864 -0.110096514 -0.30525458
000230 bc 95 21 bd bd 78 8c be ee 5f da 3d a9 3c a8 3d
       -0.03944944 -0.27435866 0.106628284 0.08214695
000240 a6 59 ee 3d 78 7a 30 be ee f6 3e bd 70 d3 07 3e
       0.11638193 -0.17234218 -0.04662221 0.13264251
000250 50 dd 48 3e 85 9e 1c 3e 1a 9b 9c be e3 e3 4a 3d
       0.19615674 0.15294845 -0.30587083 0.049533736
000260 bf 24 93 3e 46 39 64 be 0a cf 44 3e 4e 8c 87 3e
       0.28738973 -0.22287473 0.19219604 0.2647423
000270 81 9c 27 3e b8 2e e3 bd 1f 85 10 be fe ad d5 bd
       0.16368295 -0.11092895 -0.14113282 -0.10433577
000280 63 7f 4f be 59 20 1a 3e 56 eb 74 3e dc 79 38 be
       -0.20263438 0.15051402 0.23917899 -0.18015236
000290 26 07 73 bb e5 c0 85 be 51 15 c3 bd a8 1f 1b 3e
       -0.0037083118 -0.2612373 -0.0952555 0.15148795
0002a0 58 06 56 3e 25 d8 27 3e 82 9a 78 be f5 9b fd bd
       0.20900857 0.16391046 -0.2427769 -0.12383262
0002b0 9c 26 8e 3c 07 ed 28 3d 70 40 66 be ab 2d 01 be
       0.017352395 0.041241672 -0.22485518 -0.12615077
0002c0 74 4a 18 3e 9c 89 08 3e 27 5e 4a be fb 2d 72 be
       0.14872152 0.13333744 -0.19762479 -0.23650353
0002d0 67 4a 00 3e 74 82 17 3d 1e 02 6b be 1e 01 db bd
       0.12528382 0.036989644 -0.22950026 -0.106935725
0002e0 e2 fd 82 bd 17 6c 75 3e b4 d1 63 3e 37 27 1a be
       -0.063960806 0.23967014 0.22247964 -0.15054022
0002f0 d5 14 0a be c4 be 83 3e 23 e4 d2 bd 31 1a 89 bc
       -0.1348451 0.2573148 -0.1029742 -0.016736122
000300 5f 5a 0f be a0 4d 24 3e 05 97 18 3e 13 83 3f be
       -0.13999318 0.16045237 0.1490136 -0.18702345
000310 10 bf 38 3e 7b 16 55 be 8b a9 1f bd ef 73 8f 3d
       0.18041635 -0.20809357 -0.03898005 0.070045345
000320 5a dd 52 3e b0 7d 4c be 99 63 2b 3d 37 b4 3d be
       0.20592251 -0.19969821 0.04184303 -0.18525778
000330 27 19 95 bd 87 51 10 be bd 31 ec bd 6d f8 0d 3e
       -0.07280188 -0.140936 -0.11532924 0.13864298
000340 b6 e3 89 3d 90 9a 95 be 80 7d 68 3e 79 91 20 be
       0.067328855 -0.29219484 0.22704124 -0.15680493
000350 93 e5 f9 bb c0 0e 37 be 1d 82 d6 3d ff 8c 61 be
       -0.0076262443 -0.1787672 0.10474036 -0.22026442
000360 c9 ab 43 3d 00 48 14 3e 11 73 da bd f9 1e 3c bd
       0.04777125 0.14480591 -0.106664784 -0.045927975
000370 0c 12 48 3e 09 9c ff 3d 2c 94 9c be 50 b9 84 3d
       0.19538134 0.12480933 -0.30581796 0.06480658
000380 59 09 bc bd 4c 16 81 3e 7c cb 24 3e d6 37 40 3d
       -0.091814704 0.25212324 0.16093248 0.04692825
000390 64 f8 17 3e e9 92 99 bd 00 a0 03 bd 57 31 63 3e
       0.14840847 -0.07498724 -0.03213501 0.2218679
0003a0 14 3b 83 be 4c 13 07 bc 2b 31 d9 3c 02 da 7d be
       -0.2563101 -0.008244347 0.026512703 -0.24790195
0003b0 5e 91 29 3d 46 a5 76 bd 8b a0 9a 3e 97 94 4f 3e
       0.0413984 -0.06021621 0.3020061 0.20271526
0003c0 43 04 9f 3d aa dd 94 3e 3e 73 30 be f2 23 86 3e
       0.07764485 0.29075366 -0.17231461 0.261993
0003d0 0c d5 2a 3d 49 86 a0 bd c8 75 94 3c e5 fc 85 3d
       0.041707084 -0.07838113 0.018122569 0.065423764
0003e0 e6 b1 1e be 7e 3f 4a 3c 75 78 12 3e df e6 a0 bd
       -0.1549755 0.012344239 0.14303763 -0.07856535
0003f0 4a f1 5e be 9e 7e 34 3e 9f e6 27 3e 0a 9b e6 bc
       -0.21771732 0.17626426 0.16396569 -0.0281501

module.0.module.0.params.2.weight f4 [256, 256]
000000 9a ea 99 3c 08 17 aa bc 04 9d 2a bc ee 4c 2d 3d
       0.018788625 -0.020762935 -0.010413412 0.042309694
000010 8d 19 d6 3c 26 36 85 3d 44 e2 59 3d 62 89 09 bd
       0.02613523 0.065044686 0.0531943 -0.033578284
000020 34 99 9e bc 7b 59 95 3c e1 d6 85 bc e3 e3 1f 3d
       -0.019360162 0.018231144 -0.016337814 0.03903569
000030 60 2b 10 bd 31 82 0f bd 44 b5 cd 3c 32 11 a1 bc
       -0.035197616 -0.03503627 0.025110848 -0.01966152
000040 ff 18 05 3b 89 6e 1b 3d ae e3 e8 3c 7c 7d 11 3c
       0.0020309088 0.03794721 0.028428879 0.008880015
000050 df 58 61 bd d5 73 ab bc 13 54 eb bc 19 70 6e bc
       -0.055016395 -0.020929256 -0.028726613 -0.014553093
000060 39 0d 4a bd 35 a9 33 bd 36 c2 02 bc d9 17 f7 bc
       -0.049329016 -0.04386254 -0.007980874 -0.030162739
000070 1b 99 50 bd 9f df c7 bc c0 a2 1d 3d 8a c1 12 3d
       -0.050927263 -0.024398623 0.03848529 0.035829104
000080 1d 7a 93 bd e0 de 25 bd 56 ae 5a bd c2 2d 05 3d
       -0.07201026 -0.040495753 -0.053388916 0.03251434
000090 8c 6e 3f 3d 32 9a ab 3c c7 ff e7 3c 51 57 5f 3d
       0.046736285 0.02094755 0.028320206 0.05452663
0000a0 44 ab b8 bb 1e f7 8b 3c 75 b7 81 3d 5d 49 67 3c
       -0.005635651 0.017085608 0.0633382 0.014116612
0000b0 cb 41 55 3c 64 f0 36 3d 9e d7 46 bd 18 95 83 bd
       0.013016175 0.044662848 -0.048545472 -0.06424922
0000c0 9c 7a 34 bd d0 0c 6f 3c ef 0d 8a 3d 2c 6b 18 bd
       -0.044062242 0.014590457 0.06740939 -0.037211582
0000d0 f5 cb 98 3c a2 1f b7 3c da 07 9e bd 7b bd 04 bc
       0.018651942 0.02235395 -0.07716341 -0.008101816
0000e0 e3 1d de 3b 5a 2b 68 bd eb 24 6e 3d 57 de 01 bd
       0.006778465 -0.05668197 0.058140676 -0.03170618
0000f0 b4 c0 80 bd 60 a2 cd b7 81 ef 65 bd 54 85 57 3d
       -0.06286755 -2.4513516e-05 -0.05613661 0.052617386
000100 16 66 61 3d b2 aa ff 3c aa 60 da 3c 28 96 0e bc
       0.055028997 0.031209324 0.026657421 -0.008702792
000110 ea de a4 3c 9e 22 08 bc 9c bb 92 bd a6 d2 2a bd
       0.020125825 -0.008309035 -0.0716469 -0.041704796
000120 b5 c3 31 bc 62 31 fc bc 9b 86 a1 ba 03 14 c9 3b
       -0.010849883 -0.030785266 -0.0012323441 0.006136419
000130 1b 1d 4b 3c 2e 62 12 bb 0c 69 37 3c ca 90 13 bd
       0.012397076 -0.0022336352 0.011194479 -0.036026753
000140 eb db c1 bc f5 db 17 3d 50 ae 85 bb 95 33 9a bc
       -0.023664435 0.037075 -0.0040796176 -0.018823424
000150 cb 7d 10 bd 82 8f d5 bc 71 c3 36 bd da 4f 1a 3d
       -0.035276216 -0.026069406 -0.04461998 0.03767381
000160 89 21 37 bd 42 51 81 3c 92 aa 1c bc 79 03 cb 3b
       -0.044709716 0.015785817 -0.0095621515 0.0061954823
000170 ad a6 ce 3c 93 aa 9e 3d 31 10 b4 bc ba 6c 05 3d
       0.025225962 0.07747378 -0.021980377 0.032574393
000180 ec 50 ba bb 40 30 3d bd c8 ad 51 bd 4b 51 0a 3d
       -0.005685916 -0.046188593 -0.05119112 0.033768933
000190 e6 39 df bc 69 b4 b8 b8 b8 3b 90 bd a3 5d 1b bd
       -0.027249288 -8.807408e-05 -0.070426404 -0.037931096
0001a0 2f ad e2 bc 63 c1 70 bd b4 d4 15 3c c3 6d b0 3c
       -0.027670471 -0.058778178 0.009144951 0.021536713
0001b0 80 48 8b bc 16 e2 82 bc 56 4e 0e bc 37 25 a7 bc
       -0.017002344 -0.015976947 -0.008685669 -0.020403488
0001c0 74 c7 16 3d 14 9c 2e bb e7 94 42 bc 70 cf 4b 3c
       0.036811307 -0.0026643323 -0.011876321 0.012439594
0001d0 60 0d 57 bd a0 5a 2a bc 59 a0 17 bc ed 9f 2e 3d
       -0.05250299 -0.010397583 -0.009254538 0.042632986
0001e0 4e 44 81 3d 81 47 0b 3d f7 77 3b bc b5 2e 66 3d
       0.06311856 0.03400374 -0.011442176 0.056196887
0001f0 0c e5 ac bc 24 54 05 bd 92 2a ab bb f2 88 49 bd
       -0.021105312 -0.032550946 -0.0052235806 -0.049202867
000200 f9 b4 19 bd cc d7 2d bd be d1 00 3d de f7 36 bd
       -0.037526105 -0.042442128 0.031450026 -0.04466998
000210 78 f7 90 3c af 35 29 bd 02 3c ae bc 74 c1 b4 bc
       0.017696127 -0.041310962 -0.021268848 -0.022064902
000220 57 29 4c bd 03 7b 1c bc 14 03 68 3d 9c bd 5c 3d
       -0.049844112 -0.009550813 0.05664356 0.053891763
000230 0a 69 86 3d a7 1e c2 3c 19 0c 88 bd ab fd a8 3c
       0.06563003 0.023696257 -0.066429324 0.02062877
000240 1c e0 2f bd 1f e5 2b 3d aa 78 cd 3c 0d cc 16 bd
       -0.042938337 0.041966554 0.025081951 -0.03681569
000250 c9 f8 0c bd e3 18 0a bd 59 cb 60 bc aa fa f1 3a
       -0.034416948 -0.03371514 -0.013720357 0.0018461545
000260 69 4c af 3c 03 94 44 bc 44 e2 3f 3d 6a 35 4e 3d
       0.02139874 -0.011998179 0.046846643 0.05034391
000270 11 04 82 bd 9d bb 12 3d a9 3c f2 bc b2 27 ef bc
       -0.06348432 0.035823453 -0.02956994 -0.029193733
000280 1e b8 b7 3b 16 39 9f 3c 33 a8 87 bc b4 82 1f 3d
       0.0056066653 0.0194364 -0.016559696 0.038943008
000290 43 91 ad 3c 71 a8 3d bd 95 92 31 3d cf 2f 88 bd
       0.02118743 -0.046303216 0.043352682 -0.06649744
0002a0 71 ad 29 ba 3b e1 78 3c 91 c3 f9 bc 94 71 4b 3d
       -0.0006472683 0.015190418 -0.030488761 0.049668863
0002b0 5b 4f 1d 3d ae d0 93 bc 14 3f 05 bd f6 ec 2f bd
       0.038405757 -0.018043842 -0.03253086 -0.042950593
0002c0 f0 e3 5c 3d e5 33 27 3d 0d 57 02 3d ff b8 34 3d
       0.053928316 0.040820975 0.0318213 0.04412174
0002d0 3f 3c b9 bc 6f 63 06 3d cc 70 69 3d d9 ca 30 3c
       -0.022611735 0.03280967 0.056992337 0.01079055
0002e0 07 af 5d 3d a3 ef f0 3c a6 58 65 3b 56 6a c1 bc
       0.054121997 0.029411143 0.0034995466 -0.023610275
0002f0 df 8d 0f 3d 02 f2 40 bd c2 44 69 bd a3 78 63 b9
       0.03504741 -0.047105797 -0.05695034 -0.00021693348
000300 f9 83 6c bd ca 16 2f 3d 1a 0f e9 3c 22 9a 2c 3d
       -0.057743046 0.042746343 0.028449584 0.04213918
000310 95 bd a2 bc dd 80 87 3d 37 a6 63 bc 7d 0c 41 3c
       -0.01986579 0.066163756 -0.013894609 0.011782763
000320 01 44 30 bd 69 95 85 ba 34 93 00 bc 19 5b 24 bb
       -0.043033604 -0.0010191622 -0.007847596 -0.0025078712
000330 f8 ee a1 3b ea ae 9a bd f7 be 3e 3d a3 96 8b 3d
       0.0049418174 -0.075528935 0.046568837 0.06815841
000340 0b 40 0f 3d 48 7c 4c 3c f4 e7 b3 3c f7 65 96 bb
       0.034973186 0.012480803 0.02196119 -0.004589792
000350 ac db 5f 3d 7d 24 35 3d c1 dc 37 bd b7 dc 97 bc
       0.054652855 0.04422425 -0.04488826 -0.018537862
000360 6e 62 28 3d c2 e1 44 3d 99 db 11 bc 1d 1e d2 bb
       0.041109495 0.048066862 -0.008902454 -0.006412281
000370 33 38 05 bd ec b7 80 bd 69 dc da bc a0 b0 ef bc
       -0.0325243 -0.0628508 -0.026716428 -0.029259026
000380 73 3b 90 3c 3d b6 52 bc 66 28 cb bc b2 be 4f 3c
       0.017606473 -0.012860832 -0.024799537 0.012679743
000390 f7 82 41 bd ab c2 8e bd b1 a8 91 3c ff 33 49 bd
       -0.04724404 -0.06970724 0.017780634 -0.049121853
0003a0 92 95 22 bd 1e 45 79 3c 80 de b2 bc d1 a4 80 bc
       -0.039693423 0.015214233 -0.021834612 -0.01570359
0003b0 59 a8 f3 3b 97 f1 98 bb b7 2f 42 bd 28 1b 32 bc
       0.00743584 -0.0046674716 -0.047408786 -0.010870732
0003c0 e3 9c 0b 3d 8e 2a 1e 3d 7b b3 66 3d f3 45 43 bc
       0.034085166 0.038614802 0.05632351 -0.011918533
0003d0 35 b4 02 bd c6 8a 10 3d 84 c4 02 bc 98 b6 c5 3c
       -0.03191014 0.035288595 -0.007981423 0.024134919
0003e0 5b 4e ed 3c fb 8a 09 bc 2f 2c 97 3d 44 50 0b 3d
       0.028968027 -0.008394952 0.07381474 0.034012094
0003f0 c8 48 c0 bc b9 63 80 bd da 42 ce 3c 52 11 29 bd
       -0.023472205 -0.062690206 0.025178362 -0.041276284

module.0.module.0.params.2.bias f4 [256]
000000 88 58 26 3d fe 6e 45 3c 11 ab 09 3d 3b e4 28 3d
       0.040611774 0.012050388 0.033610407 0.041233283
000010 3b 38 03 3d ea f1 b5 3c 8f c6 02 3d b4 64 ac 3d
       0.032036047 0.02221008 0.03192764 0.08417645
000020 25 24 74 bc fe 0b 1a bd bf d3 44 bb 70 64 9d 3c
       -0.014901196 -0.037609093 -0.0030033437 0.019212931
000030 c5 fb 63 3d 48 f3 e5 3c b3 82 c5 bc 4b 02 2a 3b
       0.055660028 0.028070107 -0.024110174 0.0025941308
000040 f0 22 8b bc a9 40 54 3c 2a ae 00 3d 0b d9 20 bd
       -0.016984433 0.012954869 0.031416096 -0.03926949
000050 a2 bd d5 3c c5 cb 5d 3c cf 6f 81 bd 78 7a 20 bd
       0.0260914 0.013537352 -0.06320154 -0.039179295
000060 9c b8 22 3d 8e ac 32 3d 1a 36 cd 3c 48 fd 72 bd
       0.03972684 0.043621592 0.025050212 -0.05932358
000070 89 5d 4c bd 2b 9d 1e bd cf 8b 5a 3c 33 66 8e bd
       -0.04989389 -0.038724106 0.013338997 -0.06953087
000080 d9 2b 1f 3d 17 9f 56 bd 7e 56 c1 3a a4 67 e8 3c
       0.038860176 -0.052397814 0.0014750508 0.028369732
000090 32 bc 0e bd 16 d8 18 3d bf 07 06 3d 3a 5d 09 bd
       -0.034847446 0.03731545 0.03272223 -0.033536173
0000a0 ef 72 3b 3c eb c0 14 bd f9 7d 00 3c cc 40 07 3d
       0.0114409765 -0.036316793 0.007842534 0.03302078
0000b0 f9 f9 65 3c f8 46 9c bb 09 5f 3f 3d 90 74 d3 3c
       0.014036649 -0.0047692023 0.046721492 0.025812417
0000c0 a8 9a b9 bb be f5 48 bd 39 23 0d bd dd 07 35 bd
       -0.0056641884 -0.049062483 -0.03445742 -0.044196952
0000d0 bf 70 0d 3d 72 7b 61 bd d2 21 8a bd f5 b2 40 bd
       0.03453135 -0.055049367 -0.06744732 -0.047045667
0000e0 1e 51 7e 3d 9b f7 ba 3b ec 40 d9 bc d7 54 24 bc
       0.062089078 0.0057057864 -0.026520215 -0.010029993
0000f0 3c e6 ee 3b 18 4c 48 bd 25 95 68 3d 33 50 7e bc
       0.0072906297 -0.048900694 0.05678286 -0.015522051
000100 15 ba 83 3c 7e 72 a2 bc 92 43 5f 3d 63 ee 6e 3d
       0.016079942 -0.019829985 0.0545078 0.058332812
000110 39 9c bb ba 0f e5 ad bc 2e 97 63 3d 66 c3 12 3d
       -0.0014313526 -0.021227388 0.055564098 0.035830878
000120 63 75 11 3d 99 61 a8 3c 00 12 2b bd e6 53 73 bc
       0.03551234 0.02055435 -0.041765213 -0.014851546
000130 13 bf 7e bc d3 08 8f 3d 6c f7 be bc 25 54 73 3d
       -0.015548485 0.06984105 -0.02331134 0.05940642
000140 41 56 53 bd a3 fe 10 3d 69 52 5f 3d d7 7d ed 3c
       -0.05159593 0.03539909 0.05452195 0.02899067
000150 bc eb 36 3d 20 5d e6 3c 47 16 28 bd 76 e8 10 3d
       0.044658408 0.028120577 -0.04103687 0.035377942
000160 ce e0 76 bd 96 44 e0 bc 8c e9 33 3c 6f d3 44 3c
       -0.060272984 -0.027376454 0.010980975 0.0120133
000170 bd 3d 37 bd 16 51 a7 3c d5 dd b3 38 13 8d 9e bc
       -0.044736613 0.020424407 8.5767046e-05 -0.019354379
000180 40 dc 07 bc dd bd 69 bd ab 8d a2 3b 7f 27 5a bc
       -0.008292258 -0.057065833 0.004960736 -0.013315081
000190 e9 cf 3e bd 38 8c 54 bd 19 4d 91 3b b2 eb 08 bd
       -0.046584997 -0.051891536 0.0044342396 -0.0334279
0001a0 67 9e 09 3d 1d 6a 5d 3c 9b 3f 33 bb 05 cd 0e 3d
       0.03359833 0.013514069 -0.0027351144 0.03486349
0001b0 36 94 85 3d 96 34 15 bd 84 d3 13 bc 9e e5 3e 3d
       0.065224096 -0.036427103 -0.009022597 0.0466057
0001c0 00 a2 fa 3c 62 01 93 bd 1a 8b 0d bd db 40 06 bd
       0.030594826 -0.07177998 -0.034556486 -0.032776695
0001d0 81 ef f6 3c 47 bb 71 bd da 16 91 3d 30 bf 83 3c
       0.030143501 -0.059016492 0.07084437 0.016082376
0001e0 39 df 22 bd f1 ed bf 3c d3 f7 88 bc c4 f7 72 bd
       -0.039763663 0.023428889 -0.016719734 -0.05931832
0001f0 7b 2a 04 bd eb 65 cb 38 92 e2 44 bc 08 21 23 bd
       -0.032267075 9.698778e-05 -0.012016909 -0.039826423
000200 67 c5 69 bd c9 13 0f bd e5 1c 41 bd af 42 4d 3d
       -0.057073023 -0.034930978 -0.047146697 0.050112423
000210 14 66 54 3d da aa 4d 3b 04 6a 60 bd d3 bb e8 bc
       0.05185516 0.0031382353 -0.054788604 -0.028409874
000220 36 4c 83 3b e9 2a 0a 3d e9 73 80 3d e5 65 4b 3d
       0.004006888 0.03373233 0.06272108 0.04965772
000230 ba fe 63 3b 2c ba 41 bd 40 81 4d bd 03 54 2a 3d
       0.003478928 -0.047296688 -0.05017209 0.041584026
000240 bd 39 63 3d c2 19 3b 3c 9c 03 4a bc fc b6 15 bd
       0.055474985 0.011419715 -0.012329962 -0.03655146
000250 3d 06 dc 3c 1c 53 4e 3c 55 51 62 3d 60 3d 38 bd
       0.026858443 0.012593057 0.055253346 -0.044980407
000260 05 ba 96 3b 8e fd cf 3b 33 e1 22 3d 3f 84 4c 3d
       0.004599812 0.0063473647 0.039765548 0.049930807
000270 48 5b e9 ba 5c ec 94 3c 09 bc d5 bc a4 3a b7 bc
       -0.0017803693 0.018179111 -0.026090639 -0.02236683
000280 60 57 29 bc 38 71 69 bd 02 a5 47 bd f4 66 ac 3c
       -0.010335773 -0.05699274 -0.048741348 0.021045186
000290 0e ea 1a 3d 5f 5c b6 bc ad f4 6d 3d 3f 7b 22 3d
       0.03782087 -0.022260843 0.05809467 0.039668318
0002a0 cd 9c 03 b9 3c c6 9c bb 8c b3 44 3d c6 23 43 3d
       -0.00012551546 -0.0047843736 0.04802279 0.047641538
0002b0 47 51 9b bd a2 e3 cf bc d9 07 1e 3d 98 96 89 bd
       -0.07583862 -0.025377098 0.038581703 -0.067181766
0002c0 92 8d 07 3d bc 1b 5b 3d 65 9c b7 bd 19 3f 47 3c
       0.033093996 0.053493246 -0.08965377 0.01216104
0002d0 30 a9 66 bc 40 82 8f 3d 4f 6e 3b bd 67 45 33 3c
       -0.014078423 0.07007265 -0.045759495 0.01094184
0002e0 7a d7 59 3d b8 d7 d0 3c 75 3b 5b 3b ef e9 5e bd
       0.05318401 0.025493488 0.0033452187 -0.054422315
0002f0 f8 1a 58 3d 5f 98 fd 3c 91 4d 5b bd 7f e1 f9 3c
       0.052760094 0.030956445 -0.05354077 0.030503033
000300 29 99 ab 3c 4f f5 47 bd b2 0c 46 3d 81 4c 06 bd
       0.020947056 -0.04881793 0.04835195 -0.032787804
000310 e0 38 86 3d c5 07 de 3c 31 eb d1 3c ce 15 24 bd
       0.06553817 0.027103314 0.025624843 -0.040059857
000320 3d a4 15 bd 30 80 1b bd aa 64 b2 bb cd 65 8a 3d
       -0.036533583 -0.037964046 -0.005444129 0.06757698
000330 55 6a 1a bd 54 2f 52 3d 54 aa 85 3d f4 44 82 bd
       -0.037699062 0.051314667 0.06526628 -0.06360808
000340 70 d0 9f 3c fa af f9 bc 16 85 2e bd e1 d5 0a bb
       0.01950857 -0.03047942 -0.04260739 -0.002118461
000350 a5 0c 2a bd df bd 89 3b 6d e4 2d bd e6 2c a3 bd
       -0.041515965 0.0042035426 -0.042454172 -0.07967548
000360 03 32 8d bb c8 84 ce 3b 38 e1 d5 bc 2c e1 28 bd
       -0.0043089404 0.00630245 -0.02610837 -0.041230366
000370 a5 88 6b 3d 0a 6f 19 3d 57 69 e6 bc 88 27 2b bd
       0.05750336 0.03745941 -0.028126402 -0.041785747
000380 af 4d f1 bc 8a 5c 3b bd 77 35 27 3d 98 31 08 3b
       -0.029455988 -0.04574255 0.040822472 0.0020781513
000390 66 d7 b5 bc 5c 9e 79 bd f8 d7 5e bc 23 2c 81 3d
       -0.022197437 -0.06094204 -0.013601296 0.063072465
0003a0 9f d5 56 bd c5 3c bc bc 14 33 a5 3d ec d6 82 3d
       -0.05244982 -0.022978196 0.08066383 0.06388649
0003b0 fb 8f 9c 3d 86 15 80 ba b0 06 01 bd 6a 24 f2 bc
       0.076446496 -0.000977204 -0.03150052 -0.02955838
0003c0 e5 d6 ad 3d a4 ac f6 3c 82 22 5c 3d a8 6f 12 bd
       0.084882535 0.030111618 0.053743847 -0.035751015
0003d0 91 b0 81 bc 83 a7 e5 bc 51 b0 5e bd 93 d3 5c bb
       -0.015831264 -0.028033977 -0.054367367 -0.0033695444
0003e0 87 49 da bc 2f 15 02 3d 36 66 28 3c 39 d7 1f bd
       -0.026646389 0.031758483 0.010278275 -0.03902361
0003f0 a3 f1 88 bd 22 87 0b 3d 1d 4d 40 3d 9a 46 24 bd
       -0.066867135 0.03406442 0.04694854 -0.040106393

module.0.module.0.params.4.weight f4 [4, 256]
000000 e1 49 cf bc 74 00 40 ba 9e 78 81 bb 29 5d e8 3c
       -0.025303783 -0.0007324286 -0.0039511463 0.028364735
000010 73 29 93 bc 3c 5d 44 bc 60 63 5c 3c 01 2b 36 bd
       -0.0179641 -0.011985119 0.013451427 -0.044474605
000020 ce 47 d1 39 53 2b 62 bb e7 44 b5 bb 19 3b 8c bd
       0.00039917085 -0.0034510687 -0.0055318954 -0.068472095
000030 43 4b c7 b9 47 cb 4d 3a 10 24 41 3b b4 73 e9 39
       -0.00038012312 0.000785042 0.0029470958 0.0004452743
000040 0a d1 24 ba 6b 55 6e 3b a8 29 aa 3c 40 2b 1b 3b
       -0.0006287253 0.003636683 0.020771816 0.0023676902
000050 e8 c8 b2 bc 42 35 42 ba 20 42 af bd 21 1b d7 3a
       -0.021824315 -0.0007408449 -0.08557534 0.0016411283
000060 d6 5f c7 ba f1 85 1e ba df f7 95 3d 22 94 31 bb
       -0.0015211056 -0.00060471805 0.07322668 -0.002709635
000070 93 c6 66 b9 6b 2c cf b9 16 8b d2 3a 39 cd 20 3c
       -0.00022008484 -0.0003951521 0.0016063179 0.009814554
000080 97 87 88 3a 05 a5 6f ba 14 13 03 bb 18 1a a7 3a
       0.0010416385 -0.00091417163 -0.0020000385 0.0012748865
000090 e5 f6 a1 3c a0 ff 9c ba 9f 35 ee b8 1b 95 72 3b
       0.019771049 -0.0011978038 -0.00011358712 0.0037015143
0000a0 78 04 e6 b9 54 04 04 3a 2a ec 31 3b 5a 94 9a b8
       -0.00043872348 0.00050360453 0.0027148821 -7.370925e-05
0000b0 78 97 b7 b8 5e 9c 21 bc b6 17 31 bb ae a8 10 b9
       -8.754333e-05 -0.009863941 -0.002702219 -0.00013795748
0000c0 52 d2 06 3b ee c8 92 3b 13 9a 97 3b 03 1d 3b b9
       0.0020572138 0.004479519 0.0046265214 -0.00017844517
0000d0 83 a5 8e bb 38 35 13 bb 06 c5 bb 3c c8 34 4d bb
       -0.0043532266 -0.002246214 0.022921097 -0.0031311978
0000e0 21 0e 8d ba 5f 9e 29 bc e6 33 82 3a eb de 72 b9
       -0.0010761657 -0.0103527 0.000993368 -0.00023161962
0000f0 fb 24 57 3a 05 3c 42 bb 73 0d 76 39 cf 5c e7 3b
       0.00082071096 -0.0029637825 0.00023465398 0.007060624
000100 30 5d 84 3a 93 ec 5e 3a f0 73 e5 ba 80 18 4d bc
       0.0010098573 0.000850388 -0.0017505866 -0.012518048
000110 1c 51 85 bb ee e2 f0 3a 80 99 a6 bd 01 db b1 bb
       -0.004068507 0.0018378177 -0.081347466 -0.0054277186
000120 ee d9 0c bd 28 63 a6 39 30 66 ac 3a cd ac 39 b8
       -0.03438752 0.00031735864 0.0013153013 -4.426837e-05
000130 ef e6 78 bb 5f db d9 bc bf ff 44 39 24 b8 73 bc
       -0.0037979444 -0.026593862 0.0001878729 -0.0148754455
000140 92 13 76 39 eb 22 e9 bc af a2 04 3b 46 be 8d bb
       0.00023467679 -0.028459033 0.0020238569 -0.004325661
000150 40 68 a5 3c 6f 07 1e 39 67 55 f5 bc 6c 3c 0e 3c
       0.020191312 0.00015070823 -0.02994795 0.008681398
000160 fc 37 5d 3a 53 2b fc bb 69 10 f0 bb f3 83 df bb
       0.0008438823 -0.0076955943 -0.007326175 -0.0068211495
000170 27 81 4a ba f7 3a 07 bc 7b b6 d7 bc fe 26 e2 3c
       -0.00077249337 -0.008253804 -0.02633213 0.027606484
000180 2f c8 59 ba 41 72 27 3d b7 7b 45 39 b5 d9 e2 3b
       -0.0008307723 0.040880445 0.00018833471 0.0069229254
000190 41 d8 88 bb 76 2a 7a b8 b5 e1 15 b9 61 d9 54 bc
       -0.00417617 -5.964419e-05 -0.0001429383 -0.01299128
0001a0 0e ae da bc b6 22 5d 3d bc 1e d6 ba 15 28 41 ba
       -0.026694324 0.05398818 -0.0016336064 -0.00073683384
0001b0 d8 e3 fa ba 08 d8 5b 3b 1c 90 da b9 ec 48 97 bc
       -0.0019141389 0.0033545513 -0.0004168757 -0.018467389
0001c0 3f 49 d5 bc 6e 61 a4 3c f4 49 b8 39 27 af da 3b
       -0.026035903 0.02006599 0.00035150314 0.006673712
0001d0 c3 57 d6 39 10 a5 39 b9 53 ce 51 3b 46 89 0c 3a
       0.00040882648 -0.00017704465 0.0032013848 0.00053610315
0001e0 6b 82 37 3c bd e1 74 38 fd 02 98 ba a2 ad 2a 3d
       0.011200528 5.838437e-05 -0.001159757 0.041669495
0001f0 48 27 82 ba 74 46 5d bb 1f 24 44 bc 63 d0 50 39
       -0.000992992 -0.0033763917 -0.011971503 0.00019914056
000200 ed 8b 3c bd eb 1c 34 bb 50 36 69 39 4d a6 c0 3a
       -0.04603188 -0.0027483057 0.00022240845 0.0014697999
000210 54 35 17 3c 80 76 03 bb 75 87 53 bd 0a cb 8a bb
       0.009229023 -0.0020059645 -0.051642854 -0.00423563
000220 53 28 19 3d 7c 00 8f 3b 33 1d ef ba 3c 98 3d 3b
       0.03739197 0.0043640714 -0.0018242955 0.002892985
000230 56 0c f9 ba 9d 4e af 39 e0 06 39 3a ea f1 85 bb
       -0.0019000869 0.00033437173 0.00070582144 -0.0040876763
000240 52 9e 9f b9 e6 43 10 ba 17 61 69 ba 47 d5 fa bc
       -0.000304448 -0.0005503282 -0.0008902712 -0.030619277
000250 94 b0 6b b9 1b d5 2d bc e2 38 2c 3a 7f ea a8 3c
       -0.00022477127 -0.01060989 0.00065697555 0.020619629
000260 47 15 a7 ba a5 de 5a 3c d1 9f 06 3d 64 92 db 39
       -0.001274743 0.013358747 0.032867257 0.00041880005
000270 4c fb fb 3a 3d 80 c0 b9 73 9b ea 39 a8 61 82 3b
       0.0019224673 -0.0003671664 0.00044747777 0.0039789267
000280 7b d2 ae 3d c8 01 c4 ba fc 96 ad bc 8a 4c 75 bb
       0.0853624 -0.0014954144 -0.021190159 -0.0037429654
000290 c3 2e 8f ba cd ed c6 bc b5 de 7f bb bc cd 31 3a
       -0.001092397 -0.024283314 -0.0039042656 0.0006782671
0002a0 81 21 ad 3a e1 2b ff bc 96 60 1c 3b 6f 14 93 3c
       0.0013208837 -0.031148853 0.002386128 0.01795408
0002b0 10 3a 8e bd 24 3f 21 3b f5 c7 4b b8 f1 3c 92 bc
       -0.06944668 0.0024604285 -4.8585196e-05 -0.017851325
0002c0 2f f7 5d 3d ce 10 aa 3a e2 ef 94 bd c4 ff 9c 3a
       0.05419081 0.0012974979 -0.072723165 0.001197808
0002d0 39 64 96 3b a5 9b 30 bc c0 90 c2 3a fd 47 ae 3b
       0.004589584 -0.010779296 0.0014844164 0.0053186403
0002e0 85 23 6c 3d ca 9b 51 3a e3 7f 27 3b cc b1 d2 3a
       0.05765106 0.00079959317 0.0025558404 0.0016074716
0002f0 8c 9e 9a 3c 9d 79 be 3c 6c 57 6c bc ad 62 28 bc
       0.01887443 0.02325135 -0.01442514 -0.010277432
000300 e2 6c 8f bb 44 ab a7 ba 81 a5 63 3a 5a 0b 06 bd
       -0.0043769935 -0.001279213 0.0008684025 -0.03272567
000310 2f fc b6 bc 5a 3e 03 bb 17 70 ce 3c 54 13 0d 3c
       -0.022337047 -0.0020026178 0.025199933 0.008610565
000320 59 35 34 3b 47 ed 12 3a 87 4a 34 bc 41 19 13 bd
       0.0027497618 0.0005604815 -0.011004097 -0.035912756
000330 4c 86 ad ba ba 85 28 bd c6 65 f1 3a 1c 0c de 3b
       -0.0013238876 -0.041143157 0.0018417172 0.006776346
000340 e7 0d ad 3c 6b e8 21 bc c3 d2 0b bb 1c 46 37 39
       0.021124793 -0.009882073 -0.002133534 0.00017478358
000350 73 d6 f9 ba 2b e7 0f 3c 9d 3f 22 3c 60 e0 86 3b
       -0.0019061103 0.008783142 0.009902862 0.004116103
000360 d2 5f 86 3a c4 08 97 3b 44 9a 7b bb 25 21 72 bc
       0.0010251945 0.0046091992 -0.003839151 -0.01477841
000370 ec 9d 22 ba a5 ae 32 39 fe f3 a7 39 24 77 45 b9
       -0.0006203342 0.00017040463 0.0003203451 -0.00018831767
000380 ce 22 72 b9 87 dc 37 ba fe 74 8d 3a 30 98 a8 3c
       -0.00023091884 -0.0007013757 0.0010792313 0.020580381
000390 57 c3 aa 3a d7 64 84 bd 14 47 5b 3a 4c b1 18 bc
       0.0013028187 -0.06464546 0.00083647785 -0.009319615
0003a0 11 e1 22 3b 37 c4 80 bb c9 e3 d0 3b 4b 06 0b bd
       0.0024853388 -0.0039296406 0.0063748104 -0.03394155
0003b0 64 cc b2 bc a8 eb 8b ba cc 41 bb 3b 8e b9 91 bb
       -0.021825977 -0.001067509 0.0057146307 -0.0044471687
0003c0 cc 88 5f 3d ff b6 59 3b fd 8d 01 bc 26 d8 90 bc
       0.05457382 0.0033220646 -0.007907388 -0.017681193
0003d0 c5 13 80 3a 8e 91 64 bc d4 ab 02 ba d5 7a 35 39
       0.0009771517 -0.013950719 -0.0004984711 0.00017307264
0003e0 55 bb dc ba 6d d6 e0 38 e8 cc 0e 39 23 f4 81 bb
       -0.0016840497 0.00010721092 0.00013618509 -0.003965871
0003f0 5f 84 89 bd cb e7 2d ba f2 03 ba bc 8b f4 c2 bb
       -0.06714701 -0.0006633966 -0.02270696 -0.005949562

module.0.module.0.params.4.bias f4 [4]
000000 5d 5e 49 bd f3 33 01 3d a5 c5 bd 3c c9 3f e6 3b
       -0.049162257 0.031543683 0.023165533 0.0070266468
