Future implementations/models/sampling_critic.pth (torch, 342040 bytes, 5 tensors)

module.params.0.weight f4 [256, 72]
-0.08129722 0.0926484 -0.007351291 -0.06159683 0.058417436 0.07163135 0.11228377 0.040913794
0.07471672 -0.08194352 0.003792349 0.05141865 0.11656861 -0.11240093 -0.08820634 0.06464743
0.13959979 0.13616088 0.10761696 0.033983342 0.030670749 -0.048553333 0.04364223 0.11002241
0.039419577 0.07731209 -0.06310124 0.036562234 0.10048245 0.06907061 -0.10868769 -0.076078236
-0.023370137 0.033106573 0.029090699 -0.03939336 -0.068049565 -0.09658655 0.023868278 -0.019046817
0.12491403 0.05563404 0.029002056 -0.037624992 0.014406956 0.10668396 0.027998047 -0.07215355
-0.086301535 0.01456431 0.083316535 0.13730146 -0.052753124 0.011816823 -0.06527861 0.028670149
-0.004665663 -0.05591652 -0.04370207 -0.0016848209 0.050437637 -0.052879736 0.10110273 0.037251003
0.0822258 0.12255817 0.082463145 0.055210512 0.021642832 0.09168851 0.10558316 -0.07415815
0.0048942273 0.023941733 0.040401567 0.13994993 -0.024285778 0.07812258 0.07709443 0.053807665
-0.006007149 -0.10348839 -0.024106301 -0.0071210884 0.06969153 0.051189337 -0.017528722 0.020438584
0.018502418 0.07197497 0.25188577 0.09231012 0.1398782 0.17415585 0.06245452 0.0006760112
0.51243585 0.075311705 -0.03800401 -0.03506916 -0.037238505 0.026360387 -0.072689004 -0.00507885
-0.051361736 -0.034028757 -0.09894092 0.021668224 0.05715932 0.041022427 -0.0008669911 0.0576643
-0.09107804 0.0070022466 -0.03258984 0.117695265 -0.11689121 0.011502693 0.018570818 -0.15081614
-0.02290487 -0.22390607 0.09311127 0.049617153 -0.05932507 -0.08753817 -0.026000937 0.024060665
0.07052215 -0.13278186 -0.1123758 0.04216025 0.016711079 -0.11225506 0.05611777 -0.01862609
-0.102338925 -0.028715722 -0.13355315 -0.12418024 0.097449474 -0.1211702 0.0010488488 0.00048093087
-0.037532818 0.03758244 -0.037603445 0.03452753 0.12052705 -0.06063729 0.09909192 0.07574028
0.11091919 -0.0071581937 0.03822204 0.05511776 0.0007739266 -0.060661823 0.052956127 0.0009497712
0.14569086 0.118148796 0.16530956 0.09511978 0.21701129 0.15858641 0.10565045 0.12500349
0.041398175 -0.048195638 -0.056660928 -0.022930741 0.08097062 -0.059029404 0.01742615 -0.013516364
0.0021592213 0.016133226 -0.10373885 -0.035910666 -0.053051528 0.113079 -0.0472867 0.016352588
0.070601456 0.023337452 0.13158226 0.09284369 0.041851085 0.0010834471 0.15664913 0.08889749
0.008804667 0.047982045 -0.14296643 0.109424725 0.09023108 -0.05828704 -0.022262828 0.06604637
-0.017834984 -0.04911912 -0.011583693 -0.069038995 -0.10422696 -0.023594018 0.022835376 0.103080705
-0.08771524 -0.073066324 0.050030395 -0.0750868 0.05855102 0.09706626 -0.054461945 -0.10788385
-0.030152736 -0.024854347 -0.09813559 -0.08171355 0.02725871 0.13005368 0.03699825 0.09282092
-0.09722319 -0.090469554 0.04857767 -0.062159583 -0.025435556 0.00056009716 -0.05489069 0.014706856
0.011305041 0.18244687 -0.007914939 0.16325471 0.15315282 0.18064745 0.20760408 0.2697572
-0.090151444 -0.105139285 -0.03095616 -0.12913956 0.09521643 -0.094441615 -0.027952524 -0.06028451
0.10759942 -0.050532714 -0.05854217 -0.039691027 0.027449727 -0.0052258843 -0.054550223 -0.034119323
00000000: 287f a6bd 72be bd3d 19e3 f0bb f54c 7cbd
00000010: 1f47 6f3d 75b3 923d 09f5 e53d 3995 273d
00000020: 1405 993d 01d2 a7bd 0f89 783b 5d9c 523d
00000030: 86bb ee3d 7532 e6bd 87a5 b4bd df65 843d
00000040: 3ff3 0e3e c26d 0b3e 4866 dc3d 1e32 0b3d
00000050: 3941 fb3c dcdf 46bd 32c2 323d 6e53 e13d
00000060: 6c76 213d cd55 9e3d 393b 81bd 48c2 153d
00000070: bec9 cd3d e474 8d3d a797 debd e8ce 9bbd
00000080: bb72 bfbc c29a 073d 9e4f ee3c ef5a 21bd
00000090: 925d 8bbd 2bcf c5bd 6887 c33c 1208 9cbc
000000a0: edd2 ff3d 85e0 633d b895 ed3c aa1c 1abd
000000b0: 270b 6c3c 1f7d da3d 295c e53c 3ec5 93bd
000000c0: dcbe b0bd 259f 6e3c dca1 aa3d c198 0c3e
000000d0: a913 58bd 599b 413c cbb0 85bd a9dd ea3c
000000e0: 6be2 98bb b908 65bd f100 33bd 35d5 dcba
000000f0: b297 4e3d 6c98 58bd f30e cf3d 8294 183d
00000100: 0066 a83d c7ff fa3d 70e2 a83d 6b24 623d
00000110: 4f4c b13c 2fc7 bb3d fc3b d83d 3ae0 97bd
00000120: c15f a03b 7421 c43c 1d7c 253d 094f 0f3e
00000130: f8f2 c6bc bbfe 9f3d afe3 9d3d 6d65 5c3d
00000140: 9ed7 c4bb b9f1 d3bd 947a c5bc 0558 e9bb
00000150: 6fba 8e3d e9ab 513d 6598 8fbc d16e a73c
00000160: 6292 973c 9d67 933d 2cf7 803e 170d bd3d
00000170: 3b3c 0f3e e955 323e 50d0 7f3d 5836 313a
00000180: ff2e 033f 063d 9a3d 18aa 1bbd aea4 0fbd
00000190: 6787 18bd bdf1 d73c f9dd 94bd 7b6c a6bb
000001a0: af60 52bd bd61 0bbd 89a1 cabd 8f81 b13c
000001b0: e41f 6a3d 2207 283d ca46 63ba 6731 6c3d
000001c0: 2087 babd 1a73 e53b ed7c 05bd 370a f13d
000001d0: a964 efbd cb75 3c3c d421 983c 8c6f 1abe
000001e0: fea2 bbbc a247 65be 1fb1 be3d 5b3b 4b3d
000001f0: d8fe 72bd 3647 b3bd ebff d4bc df1a c53c
00000200: eb6d 903d f8f7 07be 4925 e6bd 3ab0 2c3d
00000210: ace5 883c fbe5 e5bd bfdb 653d be95 98bc
00000220: 1297 d1bd 3c3d ebbc 28c2 08be 3652 febd
00000230: 9793 c73d 1528 f8bd 8779 893a 7325 fc39
00000240: 03bc 19bd 0bf0 193d 1206 1abd bd6c 0d3d
00000250: e3d6 f63d cf5e 78bd b4f0 ca3d b81d 9b3d
00000260: 9a29 e33d 488f eabb b78e 1c3d 29c3 613d
00000270: 56e1 4a3a 8878 78bd 86e8 583d 11fa 783a
00000280: fc2f 153e fff7 f13d e946 293e 29ce c23d
00000290: 3538 5e3e 7a64 223e 435f d83d ea00 003e
000002a0: 2291 293d ca68 45bd 4a15 68bd 40d9 bbbc
000002b0: edd3 a53d d1c8 71bd 49c1 8e3c bd73 5dbc
000002c0: b981 0d3b d429 843c 0975 d4bd 1017 13bd
000002d0: 8f4c 59bd f695 e73d b3af 41bd ddf5 853c
000002e0: 7f97 903d 2f2e bf3c 80bd 063e d524 be3d
000002f0: 0b6c 2b3d 7402 8e3a a168 203e e30f b63d
00000300: 7341 103c d288 443d cb65 12be 121a e03d
00000310: 13cb b83d 64be 6ebd 8960 b6bc 5243 873d
00000320: ac1a 92bc 2131 49bd 88c9 3dbc 5164 8dbd
00000330: f274 d5bd 3e48 c1bc 4111 bb3c fa1b d33d
00000340: 0ca4 b3bd cca3 95bd acec 4c3d 1cc7 99bd
00000350: 32d3 6f3d adca c63d 7d13 5fbd 35f2 dcbd
00000360: df02 f7bc 589b cbbc 50fb c8bd 6f59 a7bd
00000370: a84d df3c cb2c 053e 7a8b 173d e518 be3d
00000380: f41c c7bd 1a48 b9bd 61f9 463d 0c9b 7ebd
00000390: 3a5e d0bc 7cd3 123a 0fd5 60bd 06f5 703c
000003a0: c738 393c 5ad3 3a3e a9ad 01bc 3e2c 273e
000003b0: 18d4 1c3e a5fb 383e 2a96 543e 9e1d 8a3e
000003c0: 52a1 b8bd 4453 d7bd c697 fdbc 293d 04be
000003d0: d500 c33d 9b6a c1bd b1fc e4bc e4ec 76bd
000003e0: 165d dc3d 64fb 4ebd eac9 6fbd 0f93 22bd
000003f0: 40de e03c e53d abbb 0e70 5fbd b4c0 0bbd

module.params.0.bias f4 [256]
-0.011237137 0.050306905 -0.006711975 0.036573578 0.064408824 -0.10094981 -0.09718557 0.05153664
-0.0557862 -0.19223088 0.03188229 -0.039617162 0.060331736 0.09537961 -0.020216871 0.07189528
-0.07551547 0.10118219 -0.02696996 0.13648957 -0.010394551 -0.0012438085 0.12560025 0.0812736
-0.08722814 -0.010755986 0.16814277 0.004888158 -0.040393166 -0.016744671 -0.043860044 -0.03517545
-0.09126419 0.013147357 -0.1146951 -0.13003309 -0.022209622 -0.04696385 0.12774448 -0.06740952
0.08385557 0.13031952 0.11587118 0.006434031 -0.08973838 -0.06878253 -0.08989812 -0.025130916
0.066129826 -0.09211223 0.07596202 -0.053630278 -0.04305557 0.1312618 0.09959147 0.10749386
-0.07978385 0.09640511 0.08127472 0.08235001 0.0024765925 -0.05956693 -0.10625506 0.082927756
-0.013331241 -0.08952021 -0.094273165 -0.007411532 0.12088847 0.021560641 -0.05478289 0.025901997
-0.030072944 0.009190051 -0.027268058 0.042682204 0.07122946 0.015804242 -0.10461822 -0.033803627
0.14116412 0.08769386 0.064464256 0.14160958 0.03506633 -0.08812391 0.005390296 0.06888986
-0.060700376 0.06758268 -0.013999118 0.12037913 -0.09639412 -0.067587756 -0.10925799 -0.016572785
0.007860799 -0.04221756 -0.10665387 0.046560757 0.08822325 0.15230484 -0.016473217 0.1233102
-0.024665177 0.023442913 -0.10294952 0.10284934 0.11190398 -0.15578197 0.037905395 0.07444421
0.1268513 0.08737137 0.055842407 0.08134915 -0.018855471 0.052134994 -0.12260521 -0.0061607114
0.072402425 0.043218724 -0.041777246 -0.02875233 -0.10854594 0.10136456 0.022575716 0.052644994
-0.10658812 -0.043072086 0.073569834 -0.0105279675 -0.056784183 -0.024527503 -0.09016629 -0.033861756
0.10380834 0.07768956 -0.03891679 0.114864185 0.0858709 -0.08115341 0.09015163 0.004504209
-3.2842887e-05 0.036081176 -0.0366422 0.044501822 -0.09655795 -0.05373491 -0.0031019535 0.041687526
-0.090478286 -0.060266986 0.04111039 0.056160934 0.09322732 0.06735358 0.024746338 0.04976658
-0.044295873 0.046182796 -0.005214191 0.07026205 0.008928972 0.10066765 0.021066336 -0.100227185
0.12527446 -0.06933028 0.010723652 0.036152326 -0.062997945 0.114411466 -0.044201605 -0.012940504
-0.019984579 0.07056662 -0.060814705 -0.12872495 -0.021737156 -0.04436547 0.0122633735 -0.058465213
0.12930314 -0.06835933 -0.02519551 -0.18317549 -0.02697694 -0.046405196 -0.13601467 0.05742681
-0.089693815 -0.04575615 -0.08517428 -0.05460385 -0.008317383 -0.024420677 -0.19064015 0.02690321
-0.005436053 0.12120842 -0.11051627 -0.045680624 0.11628355 0.06830029 -0.044718586 0.0034507276
-0.11247327 -0.04736235 -0.004901704 -0.09330512 0.13656601 -0.018252699 -0.06336119 -0.14577836
0.09091385 -0.11636341 0.009023833 0.015315228 -0.010949599 0.013547744 -0.046930667 0.032735925
0.033623304 -0.1381035 -0.034726698 0.03550117 -0.052530207 -0.11111411 -0.0491745 0.04268281
0.04220503 0.053530797 -0.12118292 -0.0006770264 -0.11486495 -0.04434452 0.16122651 0.032601096
0.08843974 -0.099829376 -0.019919092 0.10500183 -0.023348052 0.107720785 0.13226695 0.07740069
0.11844449 -0.0112549625 0.16201313 0.07267087 -0.013548763 -0.10632452 0.12226744 -0.043460544
00000000: f81b 38bc 9d0e 4e3d 21f0 dbbb 2dce 153d
00000010: c6e8 833d c6be cebd 3a09 c7bd 1518 533d
00000020: 1280 64bd 2cd8 44be 0197 023d 9b45 22bd
00000030: 691e 773d 6356 c33d da9d a5bc d53d 933d
00000040: dba7 9abd 9c38 cf3d 1bf0 dcbc ecc3 0b3e
00000050: e84d 2abc 4a07 a3ba 5a9d 003e c672 a63d
00000060: aba4 b2bd e039 30bc 9e2d 2c3e d72c a03b
00000070: 4e73 25bd 1f2c 89bc 97a6 33bd 2214 10bd
00000080: b8e8 babd 0368 573c 44e5 eabd 6527 05be
00000090: f4f0 b5bc 2a5d 40bd 73cf 023e 010e 8abd
000000a0: 78bc ab3d 7b72 053e df4d ed3d 90d4 d23b
000000b0: c1c8 b7bd dbdd 8cbd 811c b8bd 5adf cdbc
000000c0: 136f 873d 56a5 bcbd fa91 9b3d 6cab 5bbd
000000d0: 0a5b 30bd 7e69 063e 9df6 cb3d be25 dc3d
000000e0: b765 a3bd 0b70 c53d 5c73 a63d 1fa7 a83d
000000f0: 544e 223b 74fc 73bd 419c d9bd 07d6 a93d
00000100: 476b 5abc 5f56 b7bd 4a12 c1bd 70dc f2bb
00000110: 6094 f73d f19f b03c 0664 60bd 6d30 d43c
00000120: 895b f6bc de91 163c 4361 dfbc 89d3 2e3d
00000130: c0e0 913d e677 813c 1442 d6bd ac75 0abd
00000140: 548d 103e d798 b33d d605 843d 1a02 113e
00000150: b6a1 0f3d 4f7a b4bd 15a1 b03b 2016 8d3d
00000160: f5a0 78bd ca68 8a3d 8e5c 65bc 5589 f63d
00000170: 486a c5bd 736b 8abd a7c2 dfbd a6c3 87bc
00000180: 95ca 003c 52ec 2cbd 586d dabd 7eb6 3e3d
00000190: 64ae b43d cdf5 1b3e d7f2 86bc 0f8a fc3d
000001a0: a00e cabc 5a0b c03c 33d7 d2bd ada2 d23d
000001b0: ea2d e53d 4f85 1fbe b042 1b3d 3576 983d
000001c0: 4fe5 013e c3ef b23d 02bb 643d 629a a63d
000001d0: ca76 9abc 818b 553d 7118 fbbd cbdf c9bb
000001e0: b947 943d 1e06 313d 9e1e 2bbd 028a ebbc
000001f0: 554d debd 3998 cf3d b5f0 b83c 47a2 573d
00000200: df4a dabd 5b6c 30bd c8ab 963d 7f7d 2cbc
00000210: 8896 68bd e7ed c8bc 1ba9 b8bd a0b2 0abd
00000220: 7899 d43d b41b 9f3d 3667 1fbd ea3d eb3d
00000230: 15dd af3d c233 a6bd 6ba1 b83d 0b98 933b
00000240: c8c0 09b8 dbc9 133d 2216 16bd 8b47 363d
00000250: 2dc0 c5bd 2319 5cbd 254a 4bbb 8ac0 2a3d
00000260: ae4c b9bd 84da 76bd 5e63 283d 0209 663d
00000270: f7ed be3d acf0 893d d5b8 ca3c 0bd8 4b3d
00000280: 976f 35bd 2c2a 3d3d cedb aabb 8de5 8f3d
00000290: d34a 123c d72a ce3d 4f93 ac3c e943 cdbd
000002a0: f347 003e 09fd 8dbd 42b2 2f3c 7614 143d
000002b0: 1105 81bd 8f50 ea3d be0c 35bd 6804 54bc
000002c0: b3b6 a3bc 3b85 903d d718 79bd 79d0 03be
000002d0: 1f12 b2bc 91b8 35bd 51ec 483c 3879 6fbd
000002e0: 0b68 043e faff 8bbd d066 cebc 5b92 3bbe
000002f0: befe dcbc 6013 3ebd 6e47 0bbe 6038 6b3d
00000300: 64b1 b7bd cd6a 3bbd da6f aebd 49a8 5fbd
00000310: a245 08bc df0d c8bc 2c37 43be 1f64 dc3c
00000320: eb20 b2bb 1f3c f83d 5b56 e2bd 9b1b 3bbd
00000330: 1226 ee3d 06e1 8b3d d62a 37bd 9a25 623b
00000340: 6358 e6bd 06ff 41bd 799e a0bb c116 bfbd
00000350: f6d7 0b3e af86 95bc 83c3 81bd ec46 15be
00000360: 0a31 ba3d f14f eebd b3d8 133c b9ec 7a3c
00000370: f265 33bc 5bf7 5d3c 5f3a 40bd 1b16 063d
00000380: 97b8 093d 016b 0dbe 953d 0ebd ad69 113d
00000390: ea29 57bd cb8f e3bd 336b 49bd 2cd4 2e3d
000003a0: 2edf 2c3d 1c43 5b3d c02e f8bd 797a 31ba
000003b0: 513e ebbd 99a2 35bd 9018 253e ba88 053d
000003c0: e51f b53d 5873 ccbd 5d2d a3bc 330b d73d
000003d0: 6a44 bfbc b79c dc3d fd70 073e 4184 9e3d
000003e0: 0693 f23d bc66 38bc c5e6 253e 77d4 943d
000003f0: a1fb 5dbc acc0 d9bd 5a67 fa3d af03 32bd

module.params.2.weight f4 [256, 256]
0.05905074 0.07524217 -0.03770092 -0.032113213 -0.039267536 0.048222683 -0.04129909 0.01729538
-0.121573314 -0.012877309 -0.091747575 0.037179217 -0.044592373 0.0831303 0.005582418 0.025787557
0.072275154 0.00032824982 0.002357816 -0.09236166 -0.07646261 0.04495385 -0.026852084 -0.054027174
-0.034838133 0.028421538 -0.081901304 0.10619671 0.05788152 -0.07317727 0.038189154 0.01934369
0.04615803 0.022237496 0.059070755 0.16494243 -0.04553168 -0.011495574 0.020983161 0.033086933
-0.058760732 -0.11318181 0.07937312 -0.045259874 0.05850634 -0.011669864 0.046613775 0.047850803
0.05124138 0.03186288 -0.064275146 0.014166968 0.04878717 -0.10657394 0.0149622895 -0.09982588
0.033964384 -0.09916347 0.06955062 -0.08816511 -0.028760774 0.015292729 0.023441238 0.0024806887
-0.01371647 -0.013386554 0.0033708846 0.15080616 0.008297634 -0.02320546 0.016106581 -0.047971804
-0.04984729 -0.059381638 -0.030428838 0.03483602 -0.028585436 -0.014630103 -0.016831314 -0.076561205
-0.1432203 0.006364159 -0.034971986 0.022728588 -0.034667682 0.102901615 0.011872935 0.056049924
-0.008788508 0.039301 0.0028248373 -0.050137274 0.08352659 -0.07269637 0.034864217 -0.028873801
-0.09506476 -0.063136995 0.01916301 -0.0049411748 0.090764835 -0.077213526 0.015025029 0.02195581
0.13043885 -0.06686538 0.04236785 0.013692574 0.016395876 0.024975827 -0.1568406 -0.03925138
-0.026618948 -0.06291926 0.03689587 -0.0020056944 0.04056179 -0.10745011 -0.01261233 0.03487229
0.047603745 -0.02230084 0.08300864 0.028078092 0.031409588 0.07945527 -0.049507733 -0.1286719
-0.03842779 0.074680924 0.06041713 -0.07197859 0.08593769 0.020557292 0.060768533 -0.019695275
-0.17603078 -0.05705315 -0.02090485 -0.120774746 0.077822894 -0.032448873 -0.06965053 -0.012868265
-0.05409334 -0.07722089 -0.021357866 -0.04338657 -0.0055386894 0.08141616 -0.027114842 0.09184543
0.07543765 0.13496223 -0.06988275 -0.051661175 0.056489415 -0.10025376 0.012863343 0.050441626
-0.1219384 -0.017836336 -0.014452053 -0.10924212 -0.039951064 -0.008954637 -0.069003 -0.073731825
-0.0361614 0.07928452 0.063107796 -0.00075258326 0.09982974 0.07047769 -0.08080183 -0.007845995
0.08589663 0.06714279 -0.016889183 0.047373753 -0.0036538402 0.037170466 0.0035908765 -0.0367176
0.046808064 0.054282803 0.14758149 0.03286713 0.010442876 0.057133418 0.07181106 0.09689396
0.0114336135 -0.0070863524 -0.07766217 0.019638319 0.075579904 -0.050850555 0.104549654 0.016858358
0.02856381 0.030685224 0.020743595 -0.008333514 -0.0008616206 -0.13113157 0.06633316 -0.11080489
0.045183897 0.050674576 0.075111784 0.04928188 -0.036117833 0.013767505 0.06153666 0.0353505
-0.11549146 0.18710856 0.021964962 -0.17956862 0.0472913 -0.023909442 0.08537907 -0.031356506
-0.07143605 -0.11695118 0.047126435 -0.0981425 -0.022161601 0.0656052 -0.0048936433 -0.08573906
0.038724266 0.067855194 0.012924058 -0.020078098 0.021613022 -0.061445486 -0.037256252 -0.04553459
0.1413372 -0.056288123 -0.08451555 0.0015234881 0.05471796 -0.007262412 -0.031126313 -0.02400182
0.061114248 0.0859728 -0.05528215 0.06944636 0.005118664 0.041407 -0.08444839 -0.00012115688
00000000: 30df 713d 9118 9a3d 486c 1abd 2589 03bd
00000010: ffd6 20bd 2685 453d 3c29 29bd 0aaf 8d3c
00000020: 6efb f8bd 59fb 52bc 27e6 bbbd 3c49 183d
00000030: 7ea6 36bd 3840 aa3d b7ec b63b 6d40 d33c
00000040: ff04 943d f218 ac39 9785 1a3b 1c28 bdbd
00000050: 6e98 9cbd 8721 383d e7f8 dbbc 994b 5dbd
00000060: 6eb2 0ebd 49d4 e83c dfbb a7bd a97d d93d
00000070: 2c15 6d3d f7dd 95bd 3b6c 1c3d a876 9e3c
00000080: 3410 3d3d 692b b63c 2df4 713d abe6 283e
00000090: 6d7f 3abd ef57 3cbc e1e4 ab3c 2a86 073d
000000a0: 18af 70bd ddcb e7bd 608e a23d 6b62 39bd
000000b0: 58a4 6f3d f532 3fbc 16ee 3e3d 34ff 433d
000000c0: 7be2 513d a782 023d b0a2 83bd 921c 683c
000000d0: 0ed5 473d 7043 dabd 6424 753c 8371 ccbd
000000e0: 3d1e 0b3d 3816 cbbd 8e70 8e3d e98f b4bd
000000f0: b79b ebbc 5b8e 7a3c d707 c03c 0d93 223b
00000100: 0cbb 60bc 4753 5bbc 0fea 5c3b ee6c 1a3e
00000110: cdf2 073c 6019 bebc f3f1 833c 157e 44bd
00000120: ac2c 4cbd 293a 73bd e645 f9bc 37b0 0e3d
00000130: 012c eabc 19b3 6fbc d3e1 89bc 1fcc 9cbd
00000140: 58a8 12be 6f8a d03b c93e 0fbd 4e31 ba3c
00000150: b3ff 0dbd 15be d23d b386 423c 9b94 653d
00000160: adfd 0fbc 16fa 203d e820 393b be5c 4dbd
00000170: fd0f ab3d d6e1 94bd c8cd 0e3d c088 ecbc
00000180: 50b1 c2bd f84d 81bd bffb 9c3c 94e9 a1bb
00000190: eae2 b93d 2022 9ebd 8a2b 763c acdc b33c
000001a0: c391 053e b7f0 88bd e989 2d3d d156 603c
000001b0: a550 863c 1b9a cc3c d29a 20be 0ec6 20bd
000001c0: fb0f dabc d0db 80bd 2020 173d f871 03bb
000001d0: 1f24 263d ce0e dcbd f2a3 4ebc 3fd6 0e3d
000001e0: 25fc 423d 40b0 b6bc 6f00 aa3d 0704 e63c
000001f0: 57a7 003d 72b9 a23d 9fc8 4abd 91c2 03be
00000200: 7566 1dbd 50f2 983d f477 773d 8369 93bd
00000210: 1a00 b03d c467 a83c 6de8 783d fc57 a1bc
00000220: 6a41 34be 90b0 69bd a640 abbc c058 f7bd
00000230: 9c61 9f3d 1ce9 04bd f0a4 8ebd 6ad5 52bc
00000240: fa90 5dbd fc25 9ebd b1f6 aebc 1eb6 31bd
00000250: e57d b5bb 84bd a63d f21f debc 7519 bc3d
00000260: 0e7f 9a3d 8a33 0a3e b01e 8fbd ab9a 53bd
00000270: 7261 673d d851 cdbd c5c0 523c e19b 4e3d
00000280: d7ba f9bd 821d 92bc 4ec8 6cbc 55ba dfbd
00000290: baa3 23bd 78b6 12bc 7251 8dbd b600 97bd
000002a0: fa1d 14bd ec5f a23d a93e 813d 0249 45ba
000002b0: 8973 cc3d 9b56 903d 6e7b a5bd 7d8c 00bc
000002c0: 93ea af3d 2982 893d 2f5b 8abc fb0a 423d
000002d0: 4475 6fbb 0f40 183d e954 6b3b 3265 16bd
000002e0: d0b9 3f3d a557 5e3d 9a1f 173e af9f 063d
000002f0: 9918 2b3c bb04 6a3d ad11 933d 5770 c63d
00000300: 0d54 3b3c a234 e8bb 580d 9fbd 8ae0 a03c
00000310: a3c9 9a3d ac48 50bd 211e d63d 8a1a 8a3c
00000320: a7fe e93c 945f fb3c 79ee a93c 4b89 08bc
00000330: 61de 61ba 5b47 06be aed9 873d aded e2bd
00000340: c012 393d 2590 4f3d 35d4 993d ccdb 493d
00000350: 4bf0 13bd 1a91 613c dd0d 7c3d b0cb 103d
00000360: c986 ecbd 6399 3f3e ddef b33c d6e0 37be
00000370: 86b4 413d bcdd c3bc 39db ae3d ae6f 00bd
00000380: 104d 92bd 1a84 efbd a607 413d effe c8bd
00000390: 3f8c b5bc 055c 863d db5a a0bb f697 afbd
000003a0: 569d 1e3d aaf7 8a3d 6ebf 533c d37a a4bc
000003b0: cb0d b13c 43ae 7bbd 039a 18bd 7a82 3abd
000003c0: b3ba 103e 608e 66bd 7d16 adbd c7af c73a
000003d0: f11f 603d 87f9 edbb 9cfc febc 779f c4bc
000003e0: ef52 7a3d 8212 b03d 896f 62bd e539 8e3d
000003f0: 77ba a73b 639a 293d 47f3 acbd 9b15 feb8

module.params.2.bias f4 [256]
-0.04638513 0.009952298 -0.06483263 -0.042924613 -0.015592093 -0.07979453 -0.024017217 -0.0035291605
0.03151112 -0.043462377 -0.052821487 0.040638853 -0.062224712 -0.026275815 0.0422723 -0.089756474
-0.03426716 -0.055049907 0.029293204 0.07908129 -0.08888998 -0.026387235 0.09074153 0.024445575
0.06976388 0.05203121 0.04065101 -0.029368937 -0.08183326 -0.016090637 -0.07283712 -0.0044359695
-0.056375947 0.021632042 0.03318431 0.027718335 -0.0687408 0.09060171 0.039132286 -0.011276394
-0.036030225 -0.02414745 -0.046919573 -0.07298995 -0.0065498487 -0.026752926 -0.019364854 0.01982386
0.08945086 -0.012980096 0.0330742 0.01026699 0.012244076 -0.064332254 -0.03315176 0.03312367
-0.05644375 0.014948139 0.019186422 0.094881885 -0.0359154 -0.021599103 -0.04422552 0.01996169
0.037578437 0.028045444 0.03776966 0.08071212 0.00032794394 0.009670652 -0.0010201228 -0.090416
-0.07849187 0.067827165 -0.015482895 0.021628909 0.047791317 0.048001695 0.028162524 -0.04389591
0.09698624 -0.061394267 -0.052445676 -0.043793373 -0.010963183 0.00043911318 -0.050319646 -0.09144541
-0.04303864 0.04332643 -0.08106031 0.020273954 -0.02789948 0.01665377 0.08080709 0.01011397
-0.06947944 -0.045178145 -0.05625044 -0.076380566 -0.050546344 -0.04249718 -0.07350719 0.034168106
0.053315986 -0.070103265 -0.041960113 -0.010107644 -0.0018708076 -0.060842853 0.044695266 -0.089130506
-0.060369037 0.015833782 -0.03533253 0.007891219 0.0053897933 0.0205039 0.00046472176 0.049887083
-0.06450046 -0.08235811 -0.012449398 -0.018551888 0.10941932 -0.046733845 0.0520672 0.023137912
0.027175326 0.0614773 -0.060438756 -0.015716298 -0.02923516 0.005677932 -0.02647417 0.046508864
0.03957861 -0.025217397 0.062680185 0.007909159 0.013493457 0.06618129 -0.010821387 0.1261052
-0.059740208 -0.03290655 -0.042966772 0.03820789 0.04569361 -0.01919136 -0.027280144 -0.0002481994
0.057984293 0.07341023 0.000994308 0.07070198 0.095829315 0.06160049 0.013514119 0.062164444
-0.012591738 0.0480633 0.03689983 -0.07099684 -0.07221107 -0.017734703 -0.041485593 0.010823666
0.01396257 -0.046880897 -0.05491012 -0.016462319 -0.033184256 -0.016314367 0.0019620622 -0.006078243
-0.030581918 0.008024857 0.027081434 0.059664927 0.05476787 -0.07541825 0.030456325 0.0043521794
-0.10028121 0.012721642 -0.004359793 0.061983474 0.019369239 -0.027484765 0.04909001 -0.001305624
0.017135065 0.054955687 -0.045446906 -0.0440977 -0.073229566 0.059934422 -0.033909887 0.072192855
-0.01655848 0.017359357 -0.04852532 -0.03186904 0.02130588 -0.03934122 -0.09781661 0.02154481
-0.062857844 -0.07902125 -0.026277713 0.025341315 -0.04218754 -0.0633039 -0.036713604 -0.04912016
-0.029075462 -0.009724979 -0.049771953 -0.019709775 -0.00072723045 -0.038315058 -0.030058555 0.006892632
-0.07603165 -0.021821834 0.0001594976 -0.07653108 -0.055029552 -0.112559795 -0.008442216 0.0595021
-0.015322157 0.033705473 -0.07732223 0.02360205 -0.053041503 -0.1060401 -0.027916307 -0.04985224
0.027032806 0.07323457 -0.01327341 -0.04903652 -0.0050261035 -0.07179657 -0.07917937 0.056755494
0.008589295 -0.08741394 0.055982407 -0.020506933 0.059356473 -0.010013048 0.055172432 -0.032620843
00000000: 56fe 3dbd f70e 233c f8c6 84bd b8d1 2fbd
00000010: fa75 7fbc 516b a3bd c1bf c4bc 7d49 67bb
00000020: ce11 013d 9b05 32bd 585b 58bd ed74 263d
00000030: 57df 7ebd 6140 d7bc b825 2d3d 3ed2 b7bd
00000040: b95b 0cbd 037c 61bd 4df8 ef3c 5ff5 a13d
00000050: f30b b6bd 0b2a d8bc b2d6 b93d 1642 c83c
00000060: 5de0 8e3d ae1e 553d ac81 263d 2097 f0bc
00000070: 3298 a7bd 83d0 83bc a12b 95bd 9c5b 91bb
00000080: 77ea 66bd ae35 b13c 45ec 073d 9011 e33c
00000090: fac7 8cbd 648d b93d 2d49 203d a0c0 38bc
000000a0: 6e94 13bd e0d0 c5bc bd2e 40bd c17b 95bd
000000b0: 1da0 d6bb f428 dbbc 0ba3 9ebc a665 a23c
000000c0: 0332 b73d 78aa 54bc d078 073d e136 283c
000000d0: 609b 483c a1c0 83bd 24ca 07bd afac 073d
000000e0: 9031 67bd 0ae9 743c d82c 9d3c 6f51 c23d
000000f0: 071c 13bd 9af0 b0bc d225 35bd b386 a33c
00000100: d9eb 193d 8fbf e53c 5cb4 1a3d 654c a53d
00000110: e4ef ab39 a871 1e3c a4b5 85ba 062c b9bd
00000120: 58c0 a0bd f8e8 8a3d f8ab 7dbc 1c2f b13c
00000130: d4c0 433d 6d9d 443d 18b5 e63c 33cc 33bd
00000140: b9a0 c63d 8e78 7bbd 47d1 56bd ae60 33bd
00000150: ec9e 33bc c638 e639 f91b 4ebd bb47 bbbd
00000160: 4949 30bd 0e77 313d f302 a6bd 9015 a63c
00000170: 738d e4bc 7d6d 883c 307e a53d 11b5 253c
00000180: 3d4b 8ebd b80c 39bd dd66 66bd 6a6d 9cbd
00000190: af09 4fbd 8611 2ebd f08a 96bd dbf3 0b3d
000001a0: dd61 5a3d 4d92 8fbd 5ede 2bbd 889a 25bc
000001b0: e335 f5ba 5b36 79bd 6212 373d 0e8a b6bd
000001c0: 8645 77bd d9b5 813c d8b8 10bd 2c4a 013c
000001d0: dd9c b03b cbf7 a73c e6a5 f339 6656 4c3d
000001e0: d118 84bd 5eab a8bd 8ff8 4bbc 21fa 97bc
000001f0: 3d17 e03d fd6b 3fbd 6b44 553d b88b bd3c
00000200: ca9e de3c 9fcf 7b3d a18e 77bd 77bf 80bc
00000210: 937e efbc f20d ba3b 5ce0 d8bc 1480 3e3d
00000220: 2e1d 223d b794 cebc 785e 803d 6b95 013c
00000230: a913 5d3c 0e8a 873d 304c 31bc b921 013e
00000240: 26b2 74bd 05c9 06bd edfd 2fbd e07f 1c3d
00000250: 3929 3b3d 3337 9dbc 9c7a dfbc c220 82b9
00000260: f080 6d3d 1a58 963d 7153 823a 33cc 903d
00000270: 2942 c43d cc50 7c3d 536a 5d3c 25a0 7e3d
00000280: 944d 4ebc 06de 443d 4724 173d cb66 91bd
00000290: 66e3 93bd 5e48 91bc ccec 29bd bf55 313c
000002a0: 43c3 643c 2f06 40bd 6fe9 60bd fcdb 86bc
000002b0: 37ec 07bd b5a5 85bc f195 003b ff2b c7bb
000002c0: ee86 fabc b17a 033c e2d9 dd3c 3663 743d
000002d0: 4654 603d e274 9abd 8b7f f93c ba9c 8e3b
000002e0: 3c60 cdbd 6f6e 503c 98dc 8ebb 62e2 7d3d
000002f0: 3dac 9e3c bb27 e1bc 9b12 493d 7921 abba
00000300: d65e 8c3c 3719 613d 8926 3abd ca9f 34bd
00000310: 62f9 95bd cc7d 753d 18e5 0abd d9d9 933d
00000320: a6a5 87bc 3635 8e3c 7cc2 46bd 1c89 02bd
00000330: ab89 ae3c 4224 21bd 1354 c8bd be7e b03c
00000340: 9dbb 80bd e5d5 a1bd 5c44 d7bc 9798 cf3c
00000350: d8cc 2cbd 7aa5 81bd 0161 16bd 3932 49bd
00000360: aa2f eebc 8555 1fbc addd 4bbd 6576 a1bc
00000370: 9ca3 3eba 40f0 1cbd 5c3d f6bc 97db e13b
00000380: 7bb6 9bbd b4c3 b2bc d03e 2739 54bc 9cbd
00000390: ab66 61bd c085 e6bd 3851 0abc 79b8 733d
000003a0: c909 7bbc c00e 0a3d 1e5b 9ebd 1659 c13c
000003b0: 0c42 59bd 8d2b d9bd bdb0 e4bc dd31 4cbd
000003c0: e773 dd3c 02fc 953d b778 59bc 85da 48bd
000003d0: 03b2 a4bb 150a 93bd cb28 a2bd 7378 683d
000003e0: 1dba 0c3c 1406 b3bd cf4d 653d 28fe a7bc
000003f0: c61f 733d c40d 24bc 7dfc 613d 6f9d 05bd

module.params.4.weight f4 [1, 256]
0.23372516 -0.27010837 -0.25567284 -0.25634652 0.25942528 -0.22878583 0.25920987 -0.22354658
0.23925027 -0.25315577 -0.23338036 -0.21624754 -0.21740882 -0.25865117 0.24905342 -0.21945652
0.25448632 -0.21697597 -0.19421284 0.20630711 0.19078356 0.29018268 -0.33844468 0.22941992
-0.2535656 -0.2502636 0.2006437 -0.24312125 0.24745469 -0.26817584 -0.2516516 0.2785373
-0.21118115 0.22956738 0.22904515 0.26419455 0.24228549 0.2310766 -0.27805123 -0.28431785
-0.22297877 -0.2408584 -0.23850133 -0.2295327 0.26950136 0.27195507 -0.27260482 0.21890222
0.20862341 0.25589612 0.26632017 0.23496297 -0.20582731 0.2350017 -0.26745266 -0.22580792
-0.2301229 -0.26227665 -0.22947349 -0.2504056 0.22163534 -0.23858996 -0.20903893 0.29065546
-0.24924673 -0.2684304 0.26227444 -0.24357527 -0.2161382 0.2649651 -0.23896632 0.23279317
-0.27280617 0.24369973 -0.21746686 -0.26455247 0.25308478 -0.26288086 0.22347163 -0.20069727
0.19433689 -0.23225613 -0.24111794 -0.29493675 -0.25836468 0.29483747 -0.21063718 -0.20438336
-0.22363126 -0.25247225 -0.2486936 0.2386931 0.2691956 0.21135886 -0.24294439 -0.2539262
-0.2159421 0.3371949 -0.26412252 -0.21742854 -0.23012182 0.23725945 -0.2310578 0.2209779
0.22984815 -0.22492701 0.21492064 0.21397212 0.24959303 -0.23633535 0.2542195 0.30047914
-0.25141084 -0.22817983 0.22458673 -0.24631144 -0.2524473 -0.21406147 -0.2229028 -0.23651308
-0.22632077 -0.22247522 -0.21889158 0.27219537 -0.1753106 0.2744364 -0.22371662 0.27698678
0.25532767 0.21863839 -0.20891628 -0.2731491 0.305782 0.28685746 -0.26358265 0.2294044
0.28895915 0.21556863 0.26294804 0.24564059 -0.22047749 0.24311508 0.2667903 -0.23573485
-0.25446087 -0.21780168 -0.22218871 0.22917095 0.24440546 -0.24325794 0.24514697 0.23858391
-0.20144595 -0.24041778 -0.1996722 0.22898789 -0.23932406 -0.2386304 0.30313852 0.2879281
-0.22559856 0.3025653 0.24028233 -0.23609886 -0.29108745 -0.27681732 0.2359503 -0.2692883
0.29003298 -0.30924568 0.21612881 0.24895743 0.24020258 0.20579594 0.22777817 0.24980815
0.22571696 0.2212717 -0.23119262 0.25868604 -0.29494724 -0.21398647 -0.27394944 0.21779637
-0.23886892 0.29644874 -0.26090136 0.21719438 -0.24705535 -0.2393811 0.24178095 -0.20820105
-0.24962479 0.23875123 -0.22218034 0.21646953 0.25667626 0.23088852 -0.21820486 0.26981646
0.26460016 0.2557556 -0.2079611 0.2510989 0.21552864 0.2832643 0.22820498 -0.24429567
0.30879876 -0.23795526 -0.2422055 -0.25052 -0.23672369 -0.26036948 -0.23325229 0.26772022
0.24515922 0.19682504 0.26526764 0.24454193 -0.2339703 -0.24048781 0.23346102 0.23683733
-0.22522658 0.26240027 -0.26396674 -0.21868518 0.24060184 0.2417754 0.23345123 0.26893383
0.2197404 0.1864769 -0.22771598 0.22244953 -0.23436908 -0.21083127 -0.2579224 -0.24417643
-0.26179865 0.2144638 0.23641062 -0.21701135 -0.23234466 0.21207151 0.24084803 0.24669506
0.20699632 0.1820731 -0.25934124 -0.22693714 0.2167751 -0.24529791 -0.18283878 -0.24569595
00000000: a655 6f3e a54b 8abe 8de7 82be da3f 83be
00000010: 64d3 843e d546 6abe 28b7 843e 65e9 64be
00000020: 06fe 743e a29d 81be 43fb 6ebe ff6f 5dbe
00000030: 6ba0 5ebe ed6d 84be dc07 7f3e 36b9 60be
00000040: 084c 823e f32e 5ebe bbdf 46be 2c42 533e
00000050: c45c 433e d392 943e 9f48 adbe 0eed 6a3e
00000060: 5ad3 81be 8d22 80be 8b75 4d3e c7f4 78be
00000070: c364 7d3e 584e 89be 7ad8 80be 719c 8e3e
00000080: df3f 58be b613 6b3e d08a 6a3e 8244 873e
00000090: b019 783e 589f 6c3e bb5c 8ebe 1c92 91be
000000a0: 8c54 64be 96a3 76be b139 74be 9f0a 6bbe
000000b0: 15fc 893e b23d 8b3e dc92 8bbe e727 603e
000000c0: 60a1 553e d104 833e 1e5b 883e 229a 703e
000000d0: 65c4 52be 49a4 703e 8eef 88be 313a 67be
000000e0: 56a5 6bbe 2049 86be 19fb 6abe 2a35 80be
000000f0: 60f4 623e ed50 74be 4d0e 56be cbd0 943e
00000100: 893a 7fbe b66f 89be d648 863e cc6b 79be
00000110: 5553 5dbe 81a9 873e 96b3 74be 5561 6e3e
00000120: 40ad 8bbe 6c8c 793e a2af 5ebe 6c73 87be
00000130: 5494 813e 5298 86be bfd5 643e 9683 4dbe
00000140: 4000 473e 8dd4 6dbe 9fe7 76be f301 97be
00000150: 6048 84be f0f4 963e 46b1 57be df49 51be
00000160: 98ff 64be 0b44 81be 89a9 7ebe f76b 743e
00000170: 01d4 893e 756e 583e 6ac6 78be 9d02 82be
00000180: ed1f 5dbe cfa4 ac3e 113b 87be 96a5 5ebe
00000190: 0ea5 6bbe 24f4 723e 6a9a 6cbe 0848 623e
000001a0: 505d 6b3e 4453 66be 2814 5c3e 821b 5b3e
000001b0: 5195 7f3e e501 72be 0f29 823e 67d8 993e
000001c0: ecb8 80be f9a7 69be 10fa 653e 1139 7cbe
000001d0: c640 81be ee32 5bbe a240 64be 7c30 72be
000001e0: a2c0 67be 8bd0 63be 1d25 60be 315d 8b3e
000001f0: 9f84 33be ee82 8c3e f815 65be 36d1 8d3e
00000200: 4fba 823e bee2 5f3e 26ee 55be 33da 8bbe
00000210: 758f 9c3e fbde 923e 4ef4 86be fde8 6a3e
00000220: 74f2 933e 06be 5c3e 20a1 863e 3589 7b3e
00000230: dac4 61be 29f3 783e bd98 883e 7a64 71be
00000240: b248 82be 6707 5fbe 7085 63be caab 6a3e
00000250: 6d45 7a3e 9c18 79be cf07 7b3e 574f 743e
00000260: d947 4ebe 1430 76be df76 4cbe cd7b 6a3e
00000270: 5e11 75be 875b 74be f934 9b3e 506b 933e
00000280: 4f03 67be d7e9 9a3e 920c 763e e6c3 71be
00000290: 6a09 95be 00bb 8dbe f59c 713e 28e0 89be
000002a0: 347f 943e 7355 9ebe df50 5d3e b2ee 7e3e
000002b0: aaf7 753e 2cbc 523e ae3e 693e b5cd 7f3e
000002c0: 5922 673e 0c95 623e c2bd 6cbe 7f72 843e
000002d0: 5303 97be 451f 5bbe 1a43 8cbe 0306 5f3e
000002e0: 0e9a 74be 21c8 973e dd94 85be 3468 5e3e
000002f0: 14fc 7cbe 5220 75be 6d95 773e a832 55be
00000300: a49d 7fbe 347b 743e 3e83 63be 30aa 5d3e
00000310: 126b 833e 0a6e 6c3e 1871 5fbe 6225 8a3e
00000320: ac79 873e 66f2 823e c1f3 54be 0990 803e
00000330: 8ab3 5c3e 0508 913e 91ae 693e a528 7abe
00000340: df1a 9e3e 8baa 73be b804 78be 2844 80be
00000350: b267 72be 264f 85be b0d9 6ebe a012 893e
00000360: 050b 7b3e 818c 493e 29d1 873e 3369 7a3e
00000370: e995 6fbe 7042 76be 6810 6f3e 7c85 723e
00000380: cca1 66be 5459 863e a626 87be 02ef 5fbe
00000390: 5460 763e f893 773e d70d 6f3e b2b1 893e
000003a0: a103 613e cdf3 3e3e 612e 69be cfc9 633e
000003b0: 73fe 6fbe 27e4 57be 680e 84be 6309 7abe
000003c0: 790a 86be 669c 5b3e a015 723e 3938 5ebe
000003d0: c2eb 6dbe 4629 593e dea0 763e a19d 7c3e
000003e0: d8f6 533e 5f71 3a3e 60c8 84be 3662 68be
000003f0: 4bfa 5d3e 602f 7bbe 173a 3bbe b897 7bbe
