Future implementations/models/sampling_policy.pth (torch, 296280 bytes, 6 tensors)

module.0.module.0.params.0.weight f4 [256, 24]
0.04434286 -0.13966075 -0.17091489 0.08083113 -0.18796991 0.12290561 0.18629275 -0.06372665
0.15568924 0.061599497 -0.08207769 0.036970012 0.16094197 0.04858332 -0.08957173 0.13503173
-0.08175345 -0.17490336 0.2113258 -0.14329118 -0.20038165 -0.01179865 0.08127109 -0.1383073
0.04397826 0.19217007 -0.11008489 -0.14369647 -0.17112364 -0.19180612 -0.057867266 0.0063553182
0.16910651 0.10856779 -0.121682175 -0.00027240382 0.16504824 0.0777781 0.026163671 -0.053743143
0.00790365 -0.13370448 0.12832086 -0.16087855 -0.002861471 -0.04145961 -0.06165899 0.19539507
-0.12259656 -0.1019304 0.2102296 -0.052201424 0.070293084 0.027787415 -0.11947911 0.12523292
-0.20290564 -0.13335113 -0.1022607 0.007977152 -0.011018059 0.0077082715 0.1948427 -0.20118296
0.14270644 0.066861 0.17489488 0.019152816 0.051264513 0.1884776 0.101087146 -0.10314476
0.16216695 0.03547602 -0.22166555 -0.00474507 0.11078743 0.17054646 -0.16094203 -0.088768125
-0.13630334 -0.114463225 -0.10017157 0.16290016 -0.07326401 0.17390363 0.119437225 0.020494128
-0.028499786 -0.15168758 0.099988475 0.12543531 -0.091370106 -0.054357998 0.08579914 -0.0022977355
-0.077314176 -0.08201786 -0.08366759 -0.08935767 0.0018527439 0.18215053 0.08744219 -0.05056431
0.1011762 -0.091635786 -0.13649593 0.06743413 0.11715548 0.15943892 0.18480687 -0.066050015
0.17050132 0.094279476 -0.12047622 0.03199291 0.16874853 0.09619499 0.17088147 0.05280007
-0.057818428 -0.15184167 -0.24549557 0.10511904 -0.016681409 0.110141166 -0.07593867 -0.103307046
-0.042597793 0.06855284 -0.13722736 -0.08311113 0.11297335 -0.036322054 -0.07027551 0.16241218
-0.11603863 0.18746589 0.15964782 0.17591599 0.20767754 -0.22313488 0.057337165 0.105290435
-0.0050079226 -0.0035024148 -0.0037382205 0.018531272 -0.043512646 0.03232668 0.13230795 0.06964727
0.07374674 -0.05884303 -0.047450125 -0.09285326 -0.0015794731 -0.17006296 -0.11067772 -0.046591848
-0.04482802 0.012319943 -0.22642107 -0.061051123 0.06558578 -0.065772675 -0.16828528 -0.22979213
0.1479461 0.022525419 0.16611563 0.1002613 -0.17690611 0.09204339 -0.024002483 -0.11663378
0.078074284 0.12636048 0.028644491 0.06664869 -0.10786197 -0.038149003 0.18634269 -0.18392463
-0.07802623 0.17753722 -0.170922 0.08821108 0.09793185 -0.2039471 0.07037604 0.045801982
-0.107769676 -0.11357308 -0.09673038 0.0018724164 0.02845796 0.046229716 0.18969576 -0.16930555
-0.059187785 -0.10747799 0.08475078 -0.09519395 -0.054575942 -0.017769357 -0.09227216 0.17989796
-0.12159035 0.11456517 -0.1147337 0.17974341 0.1236302 0.08004804 0.14211166 -0.10924734
-0.10052913 0.05839577 0.00027957838 -0.11382559 0.15908568 0.17306942 -0.17734466 0.20098378
-0.045531485 0.12432053 -0.0054603023 -0.07217573 0.19667786 0.17662849 -0.13297133 0.09710118
-0.19107004 0.09784768 0.10851903 -0.13514282 -0.18194456 0.089383684 -0.052418076 0.12198607
0.13300358 -0.032204356 0.17596743 0.003555406 -0.08745491 0.058766805 -0.061089005 0.08644613
-0.19493367 -0.13139705 0.12182257 0.08075011 0.07656368 -0.05287405 -0.040726956 0.17588343
00000000: dca0 353d 3a03 0fbe 5004 2fbe cb8a a53d
00000010: 2f7b 40be f0b5 fb3d 87c3 3e3e 1e83 82bd
00000020: 006d 1f3e c14f 7c3d 5918 a8bd de6d 173d
00000030: f9cd 243e 4eff 463d 6271 b7bd c245 0a3e
00000040: 5a6e a7bd de19 33be ca65 583e ecba 12be
00000050: d930 4dbe 204f 41bc 7571 a63d 6ea0 0dbe
00000060: 8c22 343d 3bc8 443e 3074 e1bd 2b25 13be
00000070: 093b 2fbe d368 44be 3a06 6dbd 4640 d03b
00000080: 422a 2d3e ca58 de3d 8134 f9bd 6cd1 8eb9
00000090: 6802 293e 204a 9f3d 3255 d63c c521 5cbd
000000a0: 507e 013c d4e9 08be 8b66 033e 59bd 24be
000000b0: 8487 3bbb 8dd1 29bd 238e 7cbd a515 483e
000000c0: e813 fbbd e3c0 d0bd 6e46 573e 29d1 55bd
000000d0: d2f5 8f3d 6fa2 e33c 77b1 f4bd 0f3d 003e
000000e0: 7fc6 4fbe 338d 08be 0f6e d1bd 9ab2 023c
000000f0: 1785 34bc ab95 fc3b d884 473e e802 4ebe
00000100: a321 123e 6cee 883d a517 333e 5ee6 9c3c
00000110: bdfa 513d 4600 413e c706 cf3d 8f3d d3bd
00000120: 180f 263e 4e4f 113d 4bfc 62be 887c 9bbb
00000130: 85e4 e23d bba3 2e3e fdcd 24be 10cc b5bd
00000140: 1a93 0bbe b26b eabd c126 cdbd 4dcf 263e
00000150: 710b 96bd cb13 323e 819b f43d 4de3 a73c
00000160: 6278 e9bc fd53 1bbe c2c6 cc3d 1d72 003e
00000170: 4020 bbbd 7ea6 5ebd 76b7 af3d 9b95 16bb
00000180: e556 9ebd fbf8 a7bd ea59 abbd 2701 b7bd
00000190: c5d7 f23a ab85 3a3e e414 b33d 861c 4fbd
000001a0: 7835 cf3d 8bab bbbd 97c5 0bbe e81a 8a3d
000001b0: 36ef ef3d f543 233e 033e 3d3e 3b45 87bd
000001c0: e697 2e3e 9915 c13d 3dbc f6bd ff0a 033d
000001d0: 6acc 2c3e e101 c53d 8dfb 2e3e e344 583d
000001e0: 04d3 6cbd 627c 1bbe 3163 7bbe a748 d73d
000001f0: 73a7 88bc b191 e13d bc85 9bbd a592 d3bd
00000200: 067b 2ebd 6e65 8c3d 5485 0cbe 2b36 aabd
00000210: 925e e73d 6fc6 14bd 9bec 8fbd 614f 263e
00000220: a9a5 edbd 0ff7 3f3e b87a 233e 5223 343e
00000230: 6ca9 543e 787d 64be 60da 6a3d 83a2 d73d
00000240: 8019 a4bb c588 65bb effc 74bb e5ce 973c
00000250: 513a 32bd fb68 043d bc7b 073e 3aa3 8e3d
00000260: 8808 973d 6405 71bd 105b 42bd da29 bebd
00000270: 5306 cfba fc24 2ebe 00ab e2bd 18d7 3ebd
00000280: 969d 37bd 96d9 493c edda 67be be10 7abd
00000290: d651 863d d3b3 86bd fa52 2cbe a14e 6bbe
000002a0: 2f7f 173e 3a87 b83c 371a 2a3e cc55 cd3d
000002b0: e026 35be 3f81 bc3d dba0 c4bc b1dd eebd
000002c0: 69e5 9f3d a464 013e daa7 ea3c 1c7f 883d
000002d0: bde6 dcbd 2142 1cbd 9ed0 3e3e bd56 3cbe
000002e0: 37cc 9fbd 51cc 353e 2d06 2fbe 03a8 b43d
000002f0: 7e90 c83d 82d7 50be 5021 903d dc9a 3b3d
00000300: 59b6 dcbd 0199 e8bd 941a c6bd de6b f53a
00000310: ab20 e93c 5f5b 3d3d 9b3f 423e 6f5e 2dbe
00000320: e46e 72bd 6c1d dcbd d191 ad3d 0cf5 c2bd
00000330: 068b 5fbd 0b91 91bc 30f9 bcbd 2c37 383e
00000340: 5d04 f9bd 25a1 ea3d 81f9 eabd a80e 383e
00000350: d531 fd3d 3af0 a33d b885 113e 12bd dfbd
00000360: 37e2 cdbd 6730 6f3d 6094 9239 641d e9bd
00000370: 5be7 223e 1c39 313e d799 35be b1ce 4d3e
00000380: 397f 3abd c39b fe3d 56ec b2bb ded0 93bd
00000390: ec65 493e 19de 343e a329 08be fcdc c63d
000003a0: dda7 43be 5d64 c83d 3a3f de3d e162 0abe
000003b0: ad4f 3abe cb0e b73d 56b4 56bd d5d3 f93d
000003c0: 1732 083e b7e8 03bd ce30 343e d001 693b
000003d0: 8f1b b3bd 76b5 703d 7738 7abd ab0a b13d
000003e0: b19c 47be f38c 06be 1d7e f93d 5060 a53d
000003f0: 6bcd 9c3d 7692 58bd 4fd1 26bd c91a 343e

module.0.module.0.params.0.bias f4 [256]
-0.06201596 -0.19176488 0.1186911 0.16413689 -0.07421431 0.19119471 -0.10340698 -0.08277681
0.02399136 -0.14774632 -0.096531495 -0.11576191 -0.16753651 0.11299153 -0.06119239 0.0707266
0.1363548 -0.061582264 0.05212062 0.17420226 -0.105107 0.013299582 0.11840826 -0.13517718
0.017608358 0.14908095 -0.14691113 -0.11783272 -0.13170958 0.0909776 -0.1904254 0.05591377
-0.038637474 -0.02496964 0.08769997 0.06852958 -0.12319895 0.014183696 -0.07905793 0.106214345
-0.011352112 0.13433789 -0.1146145 -0.052217733 0.1726276 0.13231625 0.16732675 0.025816038
-0.0599339 -0.18309379 -0.14183255 -0.025475651 0.112832926 0.16887838 -0.10548464 -0.15458289
-0.1946325 -0.08476158 -0.107893206 0.1535784 -0.07792121 -0.01190382 0.0710602 -0.054013804
0.007357006 -0.17255089 -0.09387033 0.054997936 -0.14441632 0.0014006721 -0.11853448 -0.005607573
0.08521999 0.08120808 0.043542296 0.15474458 0.08663138 0.007436012 0.116027296 0.106714875
-0.05448989 0.14226486 -0.00089373597 0.1698758 0.16006497 0.029336514 0.14044726 0.06802526
0.05705118 -0.0011309923 0.075687714 0.16090705 -0.046654414 0.12352643 -0.17921458 -0.088239625
-0.1766601 -0.16923453 -0.10687347 0.041163 -0.025043009 -0.03453433 0.0363722 -0.11549748
-0.01906695 -0.15449075 0.14883989 0.04069571 0.14177132 0.08860969 0.021612197 0.08839392
-0.095892355 -0.13806204 0.08471086 0.07564912 0.0752329 0.09013507 -0.1321207 -0.077146254
0.0017389925 -0.114944875 -0.12097542 0.10883388 -0.1154915 0.18081892 0.050374407 0.11368639
-0.097368546 0.042622592 -0.18000317 0.17155103 0.18872446 -0.17570114 -0.12359429 -0.17074929
-0.035111193 0.107199505 -0.05429288 0.10418026 -0.11660876 0.054017633 -0.05549976 0.16497825
-0.102058284 -0.14477487 0.09618172 -0.15099397 -0.012406014 -0.19356607 -0.18752061 -0.108636245
0.11998122 0.10192566 0.025630645 0.030024394 0.07512738 -0.029330218 0.12842007 -0.0852723
-0.063645326 0.065545134 -0.07154562 -0.10830137 0.119696036 -0.14005622 0.07633205 -0.17323238
-0.114205755 -0.10197894 -0.11113412 -0.18103077 0.06238216 -0.16219988 -0.09793295 0.009730668
0.110053465 0.16936845 0.040645786 -0.08496767 0.051050883 -0.02353597 -0.13537775 -0.18996477
0.11174313 -0.07508755 -0.11161307 -0.0057618143 0.19514608 0.082013436 -0.030434165 -0.12816605
0.009503128 0.10292688 0.009516705 0.08725972 0.12329978 0.111187786 0.19390248 0.03417309
0.084512174 -0.14637552 0.15588187 -0.19022973 0.11878286 -0.041951694 0.0060198703 0.017621627
-0.05105533 -0.17662892 0.042873126 -0.12449709 0.03393249 -0.1907239 -0.03870307 0.12701267
-0.045957614 0.13592342 -0.00029997173 0.07141374 0.16485152 0.082245074 -0.11271287 0.03838206
0.13825183 0.044922154 0.10461037 0.18734 -0.011468743 0.19269285 0.04507749 0.078593224
-0.10404993 0.05247737 0.03152545 -0.09414565 -0.107854076 -0.193925 -0.019768452 -0.18254063
-0.0054967892 0.11668199 0.076928146 0.09165795 0.075298645 0.08101989 -0.1701165 0.013023556
0.10823309 -0.17807338 -0.036347568 -0.088984765 -0.10942077 0.18167908 0.08645262 0.17737608
00000000: 7304 7ebd 035e 44be 5214 f33d 8013 283e
00000010: acfd 97bd 8cc8 433e 0ac7 d3bd e386 a9bd
00000020: 8789 c43c d04a 17be 4eb2 c5bd 9514 edbd
00000030: b18e 2bbe 1a68 e73d dfa4 7abd 1cd9 903d
00000040: 98a0 0b3e af3d 7cbd 6e7c 553d 1462 323e
00000050: 5742 d7bd 7de6 593c 0880 f23d e36b 0abe
00000060: 673f 903c ada8 183e df6f 16be 4852 f1bd
00000070: e0de 06be 7752 ba3d e0fe 42be d605 653d
00000080: 5442 1ebd 218d ccbc 0b9c b33d 3d59 8c3d
00000090: bb4f fcbd bc62 683c 20e9 a1bd e886 d93d
000000a0: 35fe 39bc df8f 093e 02bb eabd 43e2 55bd
000000b0: 4ac5 303e e97d 073e b457 2b3e 287c d33c
000000c0: 407d 75bd f07c 3bbe 8d3c 11be 50b2 d0bc
000000d0: f314 e73d 74ee 2c3e 5508 d8bd fa4a 1ebe
000000e0: be4d 47be 7b97 adbd 1df7 dcbd a843 1d3e
000000f0: 2895 9fbd 3d08 43bc 0388 913d 943d 5dbd
00000100: 0a13 f13b 2eb1 30be 163f c0bd 8445 613d
00000110: dfe1 13be c296 b73a 35c2 f2bd bbbf b7bb
00000120: d187 ae3d 6c50 a63d 6859 323d 5d75 1e3e
00000130: cb6b b13d caa9 f33b b89f ed3d 548d da3d
00000140: ca30 5fbd e1ad 113e 9b49 6aba ecf3 2d3e
00000150: 12e8 233e 2153 f03c 68d1 0f3e d450 8b3d
00000160: 80ae 693d ce3d 94ba 2902 9b3d d1c4 243e
00000170: b318 3fbd 6dfb fc3d 0784 37be fab6 b4bd
00000180: 63e6 34be d14b 2dbe 7ae0 dabd 899a 283d
00000190: ff26 cdbc df73 0dbd 04fb 143d f189 ecbd
000001a0: 4b32 9cbc d332 1ebe 7c69 183e 8bb0 263d
000001b0: 802c 113e ff78 b53d 100c b13c df07 b53d
000001c0: 3663 c4bd 2360 0dbe e37c ad3d eded 9a3d
000001d0: b513 9a3d bc98 b83d a64a 07be dbfe 9dbd
000001e0: e8ee e33a 3868 ebbd f6c1 f7bd 4ce4 de3d
000001f0: cf86 ecbd 9828 393e 6555 4e3d 69d4 e83d
00000200: 2969 c7bd 0795 2e3d c052 38be 13ab 2f3e
00000210: fc40 413e 00eb 33be 011f fdbd e7d8 2ebe
00000220: c1d0 0fbd 6a8b db3d 3662 5ebd 765c d53d
00000230: 93d0 eebd 9841 5d3d b753 63bd 0ff0 283e
00000240: ef03 d1bd dd3f 14be ecfa c43d 2a9e 1abe
00000250: 9842 4bbc 2f36 46be 6705 40be ae7c debd
00000260: b7b8 f53d 67be d03d 5cf7 d13c b8f5 f53c
00000270: 62dc 993d ed45 f0bc 8d80 033e 3ea3 aebd
00000280: 7b58 82bd 873c 863d 8386 92bd 1ccd ddbd
00000290: 3223 f53d e66a 0fbe fa53 9c3d d463 31be
000002a0: b5e4 e9bd 56da d0bd 499a e3bd 2160 39be
000002b0: 7084 7f3d ba17 26be 1291 c8bd 616d 1f3c
000002c0: b663 e13d ec6e 2d3e 327c 263d 8803 aebd
000002d0: bb1a 513d 82ce c0bc 77a0 0abe 2086 42be
000002e0: 95d9 e43d 80c7 99bd 6595 e4bd 9acd bcbb
000002f0: 60d4 473e a9f6 a73d 1251 f9bc f63d 03be
00000300: 02b3 1b3c 54cb d23d f4eb 1b3c 39b5 b23d
00000310: 9884 fc3d 6cb6 e33d 5f8e 463e 15f9 0b3d
00000320: b814 ad3d 77e3 15be 7f9f 1f3e 95cb 42be
00000330: 6e44 f33d 8ad5 2bbd 5542 c53b 3b5b 903c
00000340: 651f 51bd 36de 34be bb9b 2f3d 55f8 febd
00000350: cbfc 0a3d 204d 43be 1c87 1ebd 9c0f 023e
00000360: 0d3e 3cbd 822f 0b3e 8645 9db9 5e41 923d
00000370: d6ce 283e 1b70 a83d 01d6 e6bd 8236 1d3d
00000380: e391 0d3e 4b00 383d f63d d63d 0fd6 3f3e
00000390: 65e7 3bbc 4651 453e 2da3 383d 7cf5 a03d
000003a0: 2118 d5bd 83f2 563d d520 013d 6fcf c0bd
000003b0: 99e2 dcbd 4694 46be 73f1 a1bc eeeb 3abe
000003c0: 691e b4bb f8f6 ee3d 818c 9d3d 2ab7 bb3d
000003d0: 2d36 9a3d c2ed a53d 0533 2ebe c160 553c
000003e0: 4fa9 dd3d de58 36be 30e1 14bd a53d b6bd
000003f0: ff17 e0bd 150a 3a3e 120e b13d 13a2 353e

module.0.module.0.params.2.weight f4 [256, 256]
-0.05893288 -0.049841024 0.070860736 -0.027640551 0.05336321 0.04433117 -0.042976514 0.008475182
0.027181715 -0.058637444 0.03119373 0.04125552 0.0074510174 0.009110294 -0.055416692 0.04874509
-0.06021998 0.046208337 0.024045605 -0.05304447 -0.009250852 0.020927098 0.039125875 -0.043066513
-0.008833464 -0.0106276935 0.031740364 0.0072978167 -0.06297034 0.011815485 -0.025641587 0.023833266
0.005151366 -0.034045693 -0.033448663 -0.033802565 0.04112136 0.053024635 0.020122955 0.030394968
-0.033272706 -0.029808583 0.060617212 0.014434405 -0.017324595 -0.03841884 0.03620091 -0.039933067
-0.0066914265 -0.008262595 -0.049970314 -0.0560033 0.0010694074 -0.07250134 0.047757685 -0.04907134
-0.034620386 -0.03997609 -0.05698708 -0.041989088 -0.01148206 -0.027571797 0.034618065 -0.030644672
0.056004405 -0.072898574 -0.021381909 0.03313154 -0.019278519 -0.046579733 0.010849996 0.03502916
0.044660382 0.048982713 -0.031195903 0.059928704 0.05508518 0.021178212 -0.013098784 0.015651874
-0.019301511 -0.009887722 -0.05183561 0.05879844 0.038234863 -0.019425217 0.050074685 -0.0030853234
-0.05257325 -0.046338547 -0.060864013 -0.034951963 0.033990536 -0.021176845 -0.026444267 0.036822677
0.020087523 -0.05536017 0.048516292 0.052620213 0.043904644 -0.014769058 0.004559533 0.03608321
-0.058902446 0.048444934 -0.024598455 0.045902457 0.042500056 -0.031669967 0.017207202 0.012171896
0.065973565 -0.053306308 -0.060083102 0.058544602 0.059996966 -0.016306425 0.019170666 -0.026196264
-0.032249704 -0.014614773 -0.023296237 -0.03484204 0.08285455 0.003952579 0.045618318 0.041069236
0.03215331 0.039049216 -0.040023617 -0.016651336 -0.0063657397 0.013085173 -0.0077947876 0.033583716
-0.021302177 -0.013418677 0.0022627388 -0.06578056 -0.0009123133 0.013347707 -0.007833421 0.022010172
-0.05495006 0.08030467 0.002215425 0.042351484 -0.049650174 -0.03493067 -0.03497957 0.0126244705
-0.0354931 -0.047562823 -0.01648123 0.03334667 0.040230185 0.059868954 -0.030383172 -0.05024744
-0.027231451 0.010260027 -0.029727213 -0.05352815 0.023989921 0.040471498 0.037632793 -0.011562821
0.0434865 -0.005297666 0.023006663 0.027431015 0.02337404 -0.06639293 0.012075035 0.015050229
-0.004107483 0.044774733 -0.022885177 -0.035586286 -0.05387529 0.032090295 -0.005924776 -0.005477581
0.04884525 -0.031824406 -0.032122906 -0.00032255726 -0.03539016 0.038856976 -0.016411975 -0.014936003
0.056402426 -0.046070337 -0.006796413 -0.026613919 -0.003254323 0.018299013 -0.028208787 0.06730796
-0.0782302 -0.0123504065 -0.014979621 -0.028702749 -0.023569915 0.030585002 0.0307826 -0.050248593
-0.0055191237 -0.013231554 -0.04051533 0.037965667 0.02764471 0.021749325 -0.051103845 -0.03600141
0.064273715 -0.06669277 -0.015534359 -0.04820425 0.017328836 -0.06519998 -0.0591297 -0.056180246
0.025127502 -0.040457238 0.009283643 -0.048351638 -0.0415114 0.02533515 -0.05018585 -0.06116965
-0.059089284 -0.019341132 -0.008780732 -0.012714249 -0.053095546 0.04385972 0.011452177 0.01838329
-0.04179048 -0.013787163 -0.011130726 0.0065628807 -0.021870472 0.03932635 -0.054970995 0.04115847
-0.048571143 -0.032642573 -0.0097124055 -0.027287139 -0.03695543 0.07673455 -0.0479839 -0.010138721
00000000: 9b63 71bd 1a26 4cbd 6f1f 913d 706e e2bc
00000010: 6293 5a3d 9a94 353d 2408 30bd 7ddb 0a3c
00000020: 30ac de3c d12d 70bd fe89 ff3c 8cfb 283d
00000030: aa27 f43b 5843 153c 9dfc 62bd eea8 473d
00000040: 3aa9 76bd f444 3d3d 4afb c43c 2845 59bd
00000050: e390 17bc 4e6f ab3c 7442 203d 8366 30bd
00000060: 3cba 10bc c71f 2ebc 2f02 023d 8622 ef3b
00000070: 98f6 80bd bc95 413c 4e0e d2bc fb3d c33c
00000080: cacc a83b 7f73 0bbd 7701 09bd 8f74 0abd
00000090: df6e 283d 5c30 593d e5d8 a43c defe f83c
000000a0: f648 08bd 2131 f4bc c149 783d 487e 6c3c
000000b0: 4fec 8dbc 135d 1dbd 6847 143d db90 23bd
000000c0: c143 dbbb d65f 07bc acad 4cbd b763 65bd
000000d0: 5c2b 8c3a 957b 94bd 909d 433d 08ff 48bd
000000e0: 1bce 0dbd f8bd 23bd 496b 69bd c0fc 2bbd
000000f0: 401f 3cbc 40de e1bc accb 0d3d 890a fbbc
00000100: e064 653d d94b 95bd 1d29 afbc f0b4 073d
00000110: fced 9dbc 64ca 3ebd 2ec4 313c bd7a 0f3d
00000120: ceed 363d 19a2 483d 8d8e ffbc cd77 753d
00000130: ffa0 613d ee7d ad3c 489c 56bc 5c38 803c
00000140: 341e 9ebc 1d00 22bc 9451 54bd a2d6 703d
00000150: 299c 1c3d a221 9fbc 1d1b 4d3d 2333 4abb
00000160: 0c57 57bd 7dcd 3dbd 8b4c 79bd ca29 0fbd
00000170: a939 0b3d 107b adbc a6a1 d8bc 60d3 163d
00000180: 978e a43c 58c1 62bd 05b9 463d 4b88 573d
00000190: 5bd5 333d ebf9 71bc 2368 953b fdcb 133d
000001a0: b143 71bd 326e 463d b382 c9bc 3704 3c3d
000001b0: 8a14 2e3d 5eb8 01bd 1ef6 8c3c a26c 473c
000001c0: 261d 873d b757 5abd b319 76bd 77cc 6f3d
000001d0: 61bf 753d 0d95 85bc cd0b 9d3c 8c99 d6bc
000001e0: 4418 04bd cd72 6fbc c0d7 bebc 87b6 0ebd
000001f0: a5af a93d a384 813b 46da 3a3d 3738 283d
00000200: 30b3 033d 12f2 1f3d ceef 23bd 6268 88bc
00000210: b297 d0bb 3263 563c 6b6b ffbb 148f 093d
00000220: e781 aebc 03da 5bbc 754a 143b f5b7 86bd
00000230: 4f28 6fba 57b0 5a3c c057 00bc ad4e b43c
00000240: 5013 61bd c676 a43d aa30 113b c078 2d3d
00000250: fb5d 4bbd 7613 0fbd bd46 0fbd ded6 4e3c
00000260: 3661 11bd 3cd1 42bd a503 87bc 8596 083d
00000270: 68c8 243d 2639 753d 21e6 f8bc 42d0 4dbd
00000280: 7e14 dfbc ac19 283c 7c86 f3bc 5540 5bbd
00000290: 8386 c43c 71c5 253d d824 1a3d fd71 3dbc
000002a0: e61e 323d 0b98 adbb 7878 bc3c 02b7 e03c
000002b0: ea7a bf3c 04f9 87bd 5ed6 453c 3c95 763c
000002c0: 1198 86bb b665 373d b279 bbbc edc2 11bd
000002d0: 56ac 5cbd 1d71 033d a024 c2bb 487d b3bb
000002e0: f511 483d 4f5a 02bd 4f93 03bd e71c a9b9
000002f0: 46f5 10bd 7e28 1f3d 6872 86bc 23b6 74bc
00000300: 3b06 673d 40b4 3cbd 72b4 debb 6f05 dabc
00000310: 7b46 55bb d0e7 953c 1d16 e7bc c1d8 893d
00000320: 2837 a0bd 5c59 4abc 166d 75bc 0722 ebbc
00000330: b215 c1bc 668d fa3c cb2b fc3c 78d1 4dbd
00000340: c4d9 b4bb 29c9 58bc 67f3 25bd e381 1b3d
00000350: 2977 e23c a42b b23c 4452 51bd 3776 13bd
00000360: f0a1 833d 3896 88bd d383 7ebc d271 45bd
00000370: 34f5 8d3c 9187 85bd fc31 72bd 421d 66bd
00000380: 31d8 cd3c 7db6 25bd 6c1a 183c 5e0c 46bd
00000390: dc07 2abd a98b cf3c ae8f 4dbd 078d 7abd
000003a0: 9b07 72bd 4b71 9ebc 0fdd 0fbc 6d4f 50bc
000003b0: b77a 59bd 40a6 333d e9a1 3b3c 8e98 963c
000003c0: 7f2c 2bbd 8ee3 61bc a65d 36bc 6f0d d73b
000003d0: b429 b3bc ab14 213d 4429 61bd c995 283d
000003e0: 89f2 46bd 38b4 05bd c820 1fbc 4789 dfbc
000003f0: 945e 17bd 0127 9d3d c48a 44bd e11c 26bc

module.0.module.0.params.2.bias f4 [256]
0.036481615 0.03781934 0.04397746 0.0032192094 -0.046592467 0.034742527 0.0016710088 -0.016848238
0.054214206 0.024416098 -0.02710488 -0.0022153892 0.046819635 -0.026498167 0.039686732 -0.018483648
0.032374464 -0.008470015 0.005633811 0.047682896 0.007336547 -0.020685023 0.0040637264 0.0132545605
-0.017818576 0.021360444 0.02567131 -0.055517767 0.059051767 -0.0026627302 -0.03746409 0.03721505
-0.016806133 -0.05094211 -0.007987888 0.036772832 0.048276514 0.020933162 -2.0755888e-05 0.027334837
-0.040544454 -0.033259004 -0.026427895 0.02583955 -0.046458818 0.061905358 -0.013758475 -0.0439283
-0.054736916 -0.022175321 -0.027489217 -0.019613111 -0.05410197 -0.016244119 -0.041533224 0.046600014
0.024836574 0.057460573 -0.024023365 -0.04527783 -0.007790423 0.017592927 -0.031264737 -0.063459136
-0.07164268 0.0112788305 0.0108155385 -0.059445955 0.029204467 -0.0072242916 0.020069137 -0.012812009
0.025793482 0.021555897 0.03351567 0.028965343 -0.03582583 0.037629638 -0.045133077 -0.020228684
0.06294719 -0.037288237 0.02036635 -0.06375423 -0.06866847 -0.06201861 0.006052327 -0.03663839
0.064296946 -0.0077320896 -0.0022869918 -0.021625575 0.035223816 -0.033755336 0.0041756947 0.021447338
0.04330581 -0.017799227 0.037404273 -0.012397468 -0.007136169 0.03529427 0.028896749 0.045653258
-0.034293205 -0.0457182 0.037540495 0.029774474 0.041112103 -0.014783648 0.060934357 0.056241836
-0.015511825 -0.033405993 -0.036981415 -0.056903135 0.04162393 -0.0067145936 -0.01468397 0.034133118
-0.003203823 -0.050085794 0.009279695 0.03908777 -0.04193607 -0.027899327 0.007854846 -0.047665283
-0.031614833 0.041872263 -0.03932752 -0.0606612 0.00827776 0.028418355 0.04290784 -0.036608014
0.015762912 -0.03014711 0.054913376 0.00805399 -0.0048924647 0.012050963 -0.05950726 -0.021275392
0.008269219 -0.029894449 0.008702091 -0.03045535 -0.03861237 0.03730415 0.035359293 -0.032281853
-0.008689501 0.008001797 0.029493555 0.023910025 0.037687022 -0.011828666 0.008012479 0.00054387335
0.0010977237 -0.03485783 0.04642153 0.0035856254 -0.0065533337 -0.047667786 -0.038470116 -0.06643111
0.021474624 -0.030918226 0.05372905 -0.05757258 0.01370826 0.00737364 0.041193414 -0.0002127202
0.039051376 0.01528853 -0.056746308 0.017214613 0.03200431 -0.020335678 0.016311951 0.014547517
0.03763455 0.00977367 -0.03153236 0.0036890318 -0.0017693285 -0.04473104 0.0562333 -0.008306523
0.048683606 -0.043852217 0.021619493 0.034267116 -0.022363102 -0.015788896 -0.059854172 -0.003992028
0.0039556203 -0.055383276 0.05312312 0.061263356 -0.0013691641 -0.04342357 -0.06116723 -0.031146968
-0.0470332 0.050774343 -0.008069153 0.012604809 0.05294103 -0.038162287 0.017452553 0.046511345
0.01432258 -0.03656767 -0.02034072 0.050859727 0.040116128 -0.012544581 0.0014528203 -0.024445597
0.044308793 -0.0080692135 0.0045373784 0.032342635 -0.04185363 0.06334622 0.009211779 -0.047225997
-0.06388501 0.04285887 -0.045413878 -0.024507498 0.049298257 -0.032175355 -0.024574809 0.0450943
0.017862653 -0.035817526 -0.017833428 -0.020282933 -0.052167628 -0.043398343 0.05878571 0.009590802
-0.002407464 0.052790157 -0.021401972 -0.050433792 0.008337688 0.00579956 -0.053454474 0.022142442
00000000: bf6d 153d 74e8 1a3d b621 343d 5ff9 523b
00000010: bed7 3ebd 2e4e 0e3d c005 db3a 5105 8abc
00000020: b70f 5e3d 4504 c83c 0e0b debc 1030 11bb
00000030: f2c5 3f3d af12 d9bc 8e8e 223d 056b 97bc
00000040: 169b 043d d1c5 0abc d59b b83b 244f 433d
00000050: 6b67 f03b a373 a9bc 0229 853b a829 593c
00000060: 43f8 91bc 19fc ae3c a44c d23c 9966 63bd
00000070: 44e0 713d 3381 2ebb f273 19bd cf6e 183d
00000080: 04ad 89bc ada8 50bd a1df 02bc 1c9f 163d
00000090: 98bd 453d 067c ab3c ee1c aeb7 4fed df3c
000000a0: f111 26bd 983a 08bd 507f d8bc 77ad d33c
000000b0: 9a4b 3ebd 7990 7d3d 3a6b 61bc 29ee 33bd
000000c0: d133 60bd 05a9 b5bc 1131 e1bc adab a0bc
000000d0: 079a 5dbd 6312 85bc be1e 2abd a8df 3e3d
000000e0: 1276 cb3c c75b 6b3d a6cc c4bc 3f75 39bd
000000f0: ce46 ffbb 0b1f 903c 740f 00bd ddf6 81bd
00000100: 66b9 92bd d8ca 383c a833 313c 9a7d 73bd
00000110: 353e ef3c c0b9 ecbb 0868 a43c 76e9 51bc
00000120: da4c d33c fe95 b03c ba47 093d ba48 ed3c
00000130: 1bbe 12bd 8921 1a3d 76dd 38bd a0b6 a5bc
00000140: 75ea 803d 8dbb 18bd 55d7 a63c 9491 82bd
00000150: 0ea2 8cbd 3a07 7ebd 9952 c63b 2312 16bd
00000160: 1eae 833d 785d fdbb 5be1 15bb 1e28 b1bc
00000170: d946 103d 0943 0abd 44d4 883b 54b2 af3c
00000180: 6f61 313d afcf 91bc 3935 193d c01e 4bbc
00000190: 86d6 e9bb b990 103d e0b8 ec3c e9fe 3a3d
000001a0: 0877 0cbd 0243 3bbd 10c4 193d 99e9 f33c
000001b0: 2a65 283d 1d37 72bc 4e96 793d d75d 663d
000001c0: 4f25 7ebc b9d4 08bd d379 17bd 4313 69bd
000001d0: db7d 2a3d 1806 dcbb 0995 70bc 2bcf 0b3d
000001e0: 3bf7 51bb c326 4dbd dd09 183c 7f1a 203d
000001f0: 28c5 2bbd 218d e4bc 9db1 003c ac3c 43bd
00000200: 8e7e 01bd 4082 2b3d e515 21bd e177 78bd
00000210: 719f 073c 9ccd e83c 22c0 2f3d 49f2 15bd
00000220: 3921 813c 12f7 f6bc d9ec 603d e2f4 033c
00000230: f850 a0bb 6771 453c e2bd 73bd bb49 aebc
00000240: 9e7b 073c 34e5 f4bc 3793 0e3c 807d f9bc
00000250: 0128 1ebd 3dcc 183d e8d4 103d fa39 04bd
00000260: 695e 0ebc f819 033c 789c f13c f5de c33c
00000270: b55d 1a3d 05cd 41bc c646 033c b992 0e3a
00000280: 7fe1 8f3a 15c7 0ebd 8124 3e3d d0fc 6a3b
00000290: 59bd d6bb 4c3f 43bd d792 1dbd 090d 88bd
000002a0: 8deb af3c 3848 fdbc fe12 5c3d 3ad1 6bbd
000002b0: 9c98 603c 939e f13b 6dba 283d a50d 5fb9
000002c0: 56f4 1f3d be7c 7a3c d16e 68bd a905 8d3c
000002d0: f416 033d 0297 a6bc a4a0 853c b558 6e3c
000002e0: b026 1a3d be21 203c 1328 01bd afc3 713b
000002f0: d0e8 e7ba e537 37bd e454 663d 1518 08bc
00000300: 7668 473d 629e 33bd 5d1b b13c ad5b 0c3d
00000310: d332 b7bc b757 81bc a629 75bd 8fcf 82bb
00000320: 269e 813b 93d9 62bd a197 593d 49ef 7a3d
00000330: 8675 b3ba eadc 31bd 7d8a 7abd ed27 ffbc
00000340: e2a5 40bd c2f8 4f3d 7b34 04bc 6784 4e3c
00000350: b2d8 583d 0f50 1cbd a8f8 8e3c ae82 3e3d
00000360: 41a9 6a3c fbc7 15bd 95a1 a6bc 4a52 503d
00000370: cf50 243d c987 4dbc 8f6c be3a 2242 c8bc
00000380: 237d 353d bc34 04bc 4aae 943b b679 043d
00000390: b66e 2bbd aabb 813d 00ed 163c 0c70 41bd
000003a0: 25d6 82bd c88c 2f3d e703 3abd f3c3 c8bc
000003b0: f8ec 493d 4eca 03bd 1c51 c9bc cdb4 383d
000003c0: b354 923c 66b5 12bd 6917 92bc 6528 a6bc
000003d0: b9ad 55bd 76c2 31bd 49c9 703d bd22 1d3c
000003e0: 8bc6 1dbb 7e3a 583d 3053 afbc aa93 4ebd
000003f0: cc9a 083c 3c0a be3b 14f3 5abd 1164 b53c

module.0.module.0.params.4.weight f4 [4, 256]
0.004185093 0.023343822 0.041885402 0.050964616 0.02723067 0.026539022 0.01863459 0.003813133
-0.061314367 -0.0056436937 0.018177869 -0.027133051 -0.027392332 -0.0009613968 -0.09007468 0.030448513
-0.0090792645 -0.01718763 0.01395631 0.027824119 0.044478334 -0.029503763 -0.037490655 0.026227055
0.045401406 0.02876466 0.045452673 0.0036716221 0.028810995 0.02535304 -0.035450373 -0.018158322
-0.05499828 -0.06419506 -0.049950324 -0.031232947 -0.036522727 -0.041884426 -0.02983706 0.06756901
0.053436995 -0.03492674 0.06989581 -0.004282268 -0.023923937 -0.028888134 0.003926008 0.034423042
-0.05736931 0.029528126 -0.030966362 -0.0346801 -0.025077134 -0.045058552 -0.083110854 -0.034713853
-0.04752893 0.036609642 0.062511496 0.01445133 0.013940294 0.026735522 0.06093084 -0.0038717333
-0.029161291 0.040884197 0.022507252 0.016316898 0.01249202 -0.015060947 -0.030072449 -0.042187043
0.035810098 -0.03849035 0.011283964 -0.05387903 -0.029933212 -0.0016395508 0.06231597 -0.06692406
-0.02139373 0.03988827 -0.045517713 -0.038182393 0.004469588 0.009665676 0.0638814 -0.052997798
0.019110395 0.02334097 -0.047553785 0.010816723 0.043226182 0.0723063 0.0061857672 0.010079751
-0.03808924 -0.04131307 -0.019177303 0.011077214 0.087121375 0.062535256 -0.011866476 0.039531782
0.05297761 0.0690267 0.044420395 -0.07312024 0.011780943 0.0031680374 0.04145636 0.0014530767
0.045599334 0.016332217 0.012543653 0.0033150762 0.054936025 -0.037782025 0.02141123 0.015271657
0.032880537 -0.019789971 0.02986716 -0.04080582 0.010534302 -0.011710063 -0.032141957 0.06560343
-0.053164985 -0.053831473 -0.019786598 0.013321675 -0.019423217 0.047415257 -0.011649919 0.041263618
0.0387205 0.05002301 0.036001 0.015422711 -0.0707924 0.0022627916 0.035002 -0.054247413
-0.035169005 0.04110052 0.061425928 -0.0056308503 0.012114561 -0.0050934223 -0.02735808 -0.034034498
-0.024977991 -0.0027435008 0.00039484497 0.051697474 -0.005294071 -0.0023236668 -0.04592634 0.008352441
0.072965935 -0.04388648 -0.051236145 -0.009665751 -0.030167218 -0.066818126 -0.07381253 -0.015118143
0.040525917 -0.030864581 0.070172355 0.002581174 0.016865589 -0.060952567 -0.053670693 0.024330279
0.06332237 -0.016821641 0.036740463 -0.07210632 0.05305902 -0.088591 -0.012258766 -0.017544353
-0.03951577 -0.059294295 0.00729589 0.009610518 0.016660204 0.023650397 0.004324022 0.0047496324
0.044083174 0.07939758 0.038043596 -0.049736682 0.002717338 0.07456835 0.0892101 -0.03883112
-0.037491366 -0.0032457034 -0.027284035 0.021414151 -0.0034750875 -0.056597847 -0.028284471 0.0063904487
-0.004278346 0.03796344 -0.0526306 -0.019938055 0.039924774 -0.0059359195 0.0066418825 -0.01532748
0.01572743 0.040557846 -0.054042086 0.042434413 0.038707096 -0.03816178 -0.0003660767 -0.021516543
-0.001517319 -0.04203694 -0.062155798 -0.046514455 0.06917339 -0.014816564 -0.013779411 -0.06471868
-0.046394587 -0.06182552 -0.00014978647 -0.0001667263 -0.060611792 -0.01598436 0.00901652 0.05519953
-0.06937008 -0.061098937 -0.0078249145 -0.053526096 -0.025613893 0.025200555 -0.046281703 0.07960789
-0.04659241 -0.049156543 0.016632019 -0.009294854 0.02993656 -0.014172739 -0.010700961 -0.037544046
00000000: 1b23 893b 8b3b bf3c 0790 2b3d 46c0 503d
00000010: db12 df3c 5d68 d93c 91a7 983c c2e5 793b
00000020: c624 7bbd bcee b8bb c1e9 943c 2246 debc
00000030: e265 e0bc 3f06 7cba 1379 b8bd 296f f93c
00000040: 32c1 14bc 13cd 8cbc 02a9 643c 68ef e33c
00000050: ea2e 363d e0b1 f1bc cd8f 19bd 1fda d63c
00000060: d3f6 393d dda3 eb3c 952c 3a3d 999f 703b
00000070: 0905 ec3c 2eb1 cf3c 6934 11bd c3c0 94bc
00000080: e045 61bd b378 83bd b698 4cbd 3ddc ffbc
00000090: db98 15bd 018f 2bbd da6c f4bc 9f61 8a3d
000000a0: c0e0 5a3d 570f 0fbd 8925 8f3d 4552 8cbb
000000b0: 22fc c3bc cfa6 ecbc bea5 803b 2dff 0c3d
000000c0: 15fc 6abd f8e4 f13c 2bad fdbc b80c 0ebd
000000d0: 906e cdbc 518f 38bd 0636 aabd 1d30 0ebd
000000e0: b2ad 42bd fef3 153d 0706 803d 45c5 6c3c
000000f0: d565 643c 7404 db3c 9e92 793d e8bc 7dbb
00000100: a9e3 eebc 3076 273d 2161 b83c 04ab 853c
00000110: 54ab 4c3c 31c2 76bc 7f5a f6bc 52cc 2cbd
00000120: 9cad 123d 0fa8 1dbd 60e0 383c 42b0 5cbd
00000130: 7f36 f5bc 32e6 d6ba 083f 7f3d 7b0f 89bd
00000140: e741 afbc e261 233d c870 3abd 2465 1cbd
00000150: 9f75 923b c95c 1e3c 40d4 823d 3814 59bd
00000160: 678d 9c3c 9035 bf3c c2c7 42bd a038 313c
00000170: f00d 313d 5315 943d fab1 ca3b 8a25 253c
00000180: 7703 1cbd e537 29bd b819 9dbc 347d 353c
00000190: b16c b23d 7c12 803d 9c6b 42bc 14ec 213d
000001a0: 0dff 583d df5d 8d3d 29f2 353d 10c0 95bd
000001b0: db04 413c d99e 4f3b 25ce 293d 2a75 be3a
000001c0: 5ec6 3a3d 24cb 853c e583 4d3c c041 593b
000001d0: 9904 613d 53c1 1abd 9b66 af3c f935 7a3c
000001e0: bead 063d 941e a2bc f9ab f43c 0124 27bd
000001f0: 1198 2c3c 90db 3fbc 49a7 03bd 175b 863d
00000200: 87c3 59bd 647e 5cbd 8117 a2bc 2843 5a3c
00000210: 701d 9fbc 8036 423d 4ddf 3ebc 0a04 293d
00000220: 6399 1e3d ede4 4c3d c975 133d 8aaf 7c3c
00000230: 9bfb 90bd 584b 143b 425e 0f3d 8932 5ebd
00000240: 600d 10bd 0559 283d c199 7b3d ff82 b8bb
00000250: 277c 463c b9e6 a6bb 0d1e e0bc c267 0bbd
00000260: a59e ccbc 4ecc 33bb 3203 cf39 bbc0 533d
00000270: e379 adbb a948 18bb 421d 3cbd add8 083c
00000280: 2a6f 953d 4fc2 33bd fedc 51bd 195d 1ebc
00000290: 3e21 f7bc f1d7 88bd 062b 97bd 16b2 77bc
000002a0: 81fe 253d b8d7 fcbc 86b6 8f3d ea28 293b
000002b0: b429 8a3c 66a9 79bd cdd5 5bbd 4b50 c73c
000002c0: 29af 813d 8acd 89bc 2b7d 163d 7aac 93bd
000002d0: 6a54 593d 336f b5bd fed8 48bc 2db9 8fbc
000002e0: 4adb 21bd 93de 72bd 5c12 ef3b 6f75 1d3c
000002f0: fb7a 883c 7abe c13c 87b0 8d3b cea2 9b3b
00000300: 8f90 343d 339b a23d 9ad3 1b3d b1b8 4bbd
00000310: 5e15 323b 4bb7 983d c9b3 b63d 610d 1fbd
00000320: 8c90 19bd deb5 54bb c582 dfbc bb6c af3c
00000330: 4bbe 63bb 25d3 67bd d6b4 e7bc f866 d13b
00000340: 5e31 8cbb 8d7f 1b3d 2f93 57bd 2255 a3bc
00000350: 2988 233d 1a82 c2bb 26a4 d93b 1c20 7bbc
00000360: d0d6 803c fc1f 263d 3c5b 5dbd b5cf 2d3d
00000370: 558b 1e3d 874f 1cbd fced bfb9 7643 b0bc
00000380: c7e0 c6ba ed2e 2cbd 1497 7ebd f185 3ebd
00000390: c7aa 8d3d 2cc1 72bc 0ac3 61bc 3a8b 84bd
000003a0: 4008 3ebd c23c 7dbd 0010 1db9 40d3 2eb9
000003b0: 1244 78bd a2f1 82bc 07ba 133c e718 623d
000003c0: e711 8ebd e142 7abd 1234 00bc 2e3e 5bbd
000003d0: 3ad4 d1bc 6571 ce3c e291 3dbd 7609 a33d
000003e0: afd7 3ebd 5f58 49bd df3f 883c 7149 18bc
000003f0: 843d f53c c734 68bc 1553 2fbc c9c7 19bd

module.0.module.0.params.4.bias f4 [4]
-0.042878002 -0.029084362 -0.04272784 0.011312562
00000000: d8a0 2fbd 5442 eebc 6303 2fbd 5358 393c
