Lander/_policy_net.pth (torch, 22704 bytes, 6 tensors)

model.0.weight f4 [64, 8]
000000 e8 7a 6c be 25 46 68 3e 1c 87 7c 3e 53 cb 17 be
       -0.2309376 0.22683008 0.24660915 -0.14823656
000010 55 2e 80 3d 00 81 ea 3c 92 0c a4 3e 82 22 7a bf
       0.06258837 0.028625965 0.3204084 -0.97708905
000020 76 2a 45 bf 60 9c 8f bb bc bd aa be 0c 50 b5 3d
       -0.77017915 -0.004382655 -0.3334788 0.08853158
000030 18 0b ec bf ac a6 d4 3e c3 d2 c6 3e 27 70 40 be
       -1.8440886 0.4153341 0.38832673 -0.18792783
000040 9b be aa 3e ef a1 20 3e 99 d2 17 bf f1 41 9d bf
       0.33348545 0.15686773 -0.5930572 -1.2285749
000050 ac 68 c0 bd 03 86 17 bd 47 ae cf be 11 ed 1d 3f
       -0.093949646 -0.036993038 -0.4056265 0.6168986
000060 7c b6 a5 be 88 66 e7 3e 4d 9a 3a be c7 3e 29 3e
       -0.32365787 0.45195413 -0.18222924 0.16527854
000070 55 b4 9b bd d4 ec 00 3e cd 1f 84 3f c4 5a ca bf
       -0.07602755 0.12590343 1.0322205 -1.580895
000080 f5 6c 59 be a6 d6 e8 3d fd 99 5d bf 57 0c 1c 3f
       -0.2123297 0.11369066 -0.8656309 0.6095633
000090 d9 24 72 3e ab ab 18 c0 80 2e 97 be 37 4e d4 3f
       0.23646869 -2.3854778 -0.29527664 1.6586369
0000a0 09 3e 52 3e cf 89 5f be 14 17 8c 3d 2e 63 9f 3e
       0.20531477 -0.21829914 0.06840339 0.31130356
0000b0 66 f2 b1 3f 25 31 92 3f f4 fd 66 bf 2e 57 f7 bd
       1.3902099 1.1421248 -0.9023125 -0.12077175
0000c0 61 6d 83 be d0 d3 fd be c7 8e ef be bf 87 c8 3e
       -0.25669387 -0.49575663 -0.46788618 0.39166066
0000d0 74 27 bd 3f 2e 99 a6 3e 24 f0 04 40 1e 4e 76 3e
       1.4777665 0.32538742 2.077157 0.24053237
0000e0 28 e8 85 bd 1f 18 4e 3f 9a f0 f1 be 17 7a 1d be
       -0.06538421 0.80505556 -0.47253877 -0.15378605
0000f0 17 ef 99 3e d8 88 61 bf 73 b3 e6 bf 43 4c 8e 3e
       0.30065224 -0.8809943 -1.8023514 0.27792558
000100 3e 66 45 3f 44 c2 be 3e 15 57 af be 00 f0 a0 bf
       0.77109134 0.37257588 -0.34246126 -1.2573242
000110 c8 cf 95 3e 63 76 0b 3f 9b 2b c6 3b dc 07 84 3e
       0.29260087 0.5447752 0.0060476786 0.25787246
000120 d4 00 9e be 1d 0d 37 bf 59 77 68 3f a6 ca f9 3d
       -0.30860007 -0.71504384 0.9080711 0.12196855
000130 6e 96 72 be 1b 3f 20 3f af cf 37 3f b8 ca 75 bd
       -0.23690197 0.6259629 0.71801275 -0.06000778
000140 43 4e d2 3f 2b 20 09 3f aa 9c 0e 3f 70 fe 1d 3f
       1.6430134 0.5356471 0.557078 0.61716366
000150 6a c8 fa bf 61 d3 12 c0 65 79 99 3f 8c 9e 25 be
       -1.9592412 -2.2941515 1.1990172 -0.16173762
000160 30 de 40 bf de 56 85 3e a8 ee dc be 3c 5c 59 be
       -0.7533903 0.26042837 -0.4315083 -0.21226591
000170 0d 0d d6 3d c2 57 60 bf 71 a7 dd bf 1d b0 0d 3f
       0.10451708 -0.8763391 -1.7316724 0.5534685
000180 b4 3b 7a bf 3b 1e 70 be 74 d0 c9 be e8 08 b6 3e
       -0.9774735 -0.23449032 -0.3941685 0.3555367
000190 5e 1e 41 3f 9f c5 56 3f 7c cd 35 bf 62 a0 51 3e
       0.7543696 0.83895296 -0.7101667 0.20471337
0001a0 c4 ea 47 bf fc 73 fa 3e e9 09 85 3e 5b 27 8f be
       -0.780926 0.48916614 0.25984123 -0.27959713
0001b0 18 84 88 3e 0f 89 99 3e 45 f6 8e bf a9 9b 6f 3e
       0.2666328 0.2998738 -1.1168905 0.23399223
0001c0 ea e0 65 3e 87 80 93 3f 5a d2 6a 3d f1 d8 b8 3e
       0.22449079 1.1523598 0.057329513 0.36103013
0001d0 58 86 33 3e 71 33 94 bf 0a aa 06 be 02 25 07 bf
       0.17531717 -1.1578199 -0.13150802 -0.52790844
0001e0 96 4e 5b bf eb d1 65 bc c7 7d 10 3f 3f be 21 be
       -0.8566679 -0.014027099 0.5644192 -0.1579523
0001f0 c6 66 99 be 99 07 b7 be ac 2c eb 3d 4f 0d f7 3d
       -0.29961222 -0.35747984 0.1148313 0.12063085
000200 c7 7b 4c 3f 96 0d 81 3e 04 8b ef be 51 d7 05 c0
       0.7987637 0.25205678 -0.46785748 -2.0912669
000210 d0 63 03 be 6a 57 96 3e 86 2d 35 bf 17 57 9b 3f
       -0.12831044 0.29363567 -0.7077259 1.2135953
000220 00 69 61 bf d4 ba 39 3f 7e 27 5a 3c a1 b5 e2 bc
       -0.8805084 0.725507 0.01331508 -0.027674498
000230 5c bc ac 3e 9b 3f 78 3e 3e 06 fa 3e cd c9 c0 be
       0.33737457 0.24243014 0.48832887 -0.37653962
000240 33 c4 1a bf f1 a2 01 3f e2 26 04 3e 5d 11 23 be
       -0.60455626 0.50639254 0.12905458 -0.15924592
000250 a0 cb 0f be 9a 5d 03 3f 8b 4e 67 bf f5 76 35 bf
       -0.1404252 0.513147 -0.9035422 -0.7088464
000260 66 9a b7 3f 54 4f 08 3f b4 5e 9b 3e 0c 5f 27 be
       1.4343994 0.53246045 0.3034569 -0.16344851
000270 78 62 0d 3f f3 ff d6 3d 47 e1 72 bf 80 1f 8c bf
       0.55228376 0.10498037 -0.94874996 -1.0947113
000280 6d 53 3a bf de ef d6 3e 0d 4d d5 3e d2 d2 a8 3e
       -0.7278355 0.4197988 0.41660348 0.32973343
000290 9c b6 84 3d fc 5e c9 3e 3f 3d 2e bf 6c f7 c0 3e
       0.064801425 0.3933028 -0.68062204 0.37688768
0002a0 9b e3 8f 3f 0e 93 f7 3e ce 4f 00 3d d2 2e eb be
       1.1241335 0.4835438 0.031326108 -0.4593416
0002b0 6d 31 72 bf f2 c7 1c bf fd 39 00 c0 05 27 3a be
       -0.9460667 -0.6124259 -2.0035393 -0.18178947
0002c0 d5 4d 01 3d 2f dd c2 3e bc 78 4a bd 7b da 10 3f
       0.031568367 0.38059375 -0.049431548 0.56583375
0002d0 bb 86 27 bf 67 4b ab bf d0 a9 3a c0 86 35 5c 3f
       -0.6543996 -1.3382386 -2.9166145 0.8601917
0002e0 cc bc ef 3c a9 bf 04 bf cc 6f f3 bc a0 d8 3e 3f
       0.02926483 -0.5185495 -0.029716395 0.74549294
0002f0 12 b2 da 3e 4d 2a 97 3f 6c b4 f7 bf 01 0a c3 3e
       0.42713982 1.1809784 -1.9351935 0.3809357
000300 68 ec 59 be 6f 01 1a 3e 89 af 45 be 5d 77 9b 3e
       -0.21281588 0.1503961 -0.19305243 0.30364504
000310 bb 90 dc bd 40 72 96 be 64 be 8c bf 12 42 6d 3f
       -0.10769793 -0.2938404 -1.0995603 0.9267894
000320 43 3c ae bf b9 6a 96 be 94 67 12 bf d8 cc 67 bf
       -1.361214 -0.29378298 -0.571893 -0.9054694
000330 7c ec 72 bf a5 28 51 c0 68 6d bc bf 22 c6 6e bf
       -0.94892097 -3.2681057 -1.4720888 -0.93271077
000340 0c 1b a0 bd 90 75 d5 3d c7 67 cf bf 9e b8 a7 3f
       -0.07817659 0.10422814 -1.6203545 1.3103216
000350 92 cd 93 3d 6a 3c a3 3d b7 e0 36 3c e0 d7 58 bf
       0.07216944 0.079705074 0.011161975 -0.847044
000360 9c ba e2 be 01 81 63 3c 9d 60 ce be 05 b7 3b bf
       -0.44282997 0.013885737 -0.40308085 -0.7332614
000370 59 11 ac bd 84 9d c7 3e 05 51 01 bf 72 c0 e7 be
       -0.08401746 0.38987362 -0.5051425 -0.45264012
000380 ce 5f 2e 3f 4c 09 60 be e5 c8 30 3f 33 70 8d 3f
       0.68114936 -0.21878546 0.6905654 1.1049865
000390 41 3e 04 bf ee f9 2c be 39 90 42 bf 39 74 a5 3e
       -0.5165749 -0.16892216 -0.76001316 0.32315233
0003a0 69 e6 e1 3e 65 07 7c 3e 48 6c 21 3d d3 0f d0 be
       0.44121101 0.24612196 0.039409906 -0.40637073
0003b0 94 84 5a 3e 2c 61 9f 3e 6c 6f 53 bf b2 03 c1 3d
       0.21339637 0.31128824 -0.8259189 0.09424533
0003c0 30 14 d9 3e ae 84 11 3f bd 23 e5 3d 41 b4 a8 3e
       0.42398214 0.5684308 0.11188457 0.32950023
0003d0 ab 8c 74 3e c8 77 5c 3f 76 19 93 be 83 7d a3 be
       0.23881786 0.8612027 -0.28730363 -0.31931695
0003e0 4b e2 ba 3e 1d 25 fd 3e 46 f8 be 3b f4 96 0a 3f
       0.36500773 0.49442378 0.0058279363 0.54136586
0003f0 24 63 02 bd 20 e8 7a be a1 07 ce bd 03 ed ae bf
       -0.03183283 -0.24502611 -0.10060049 -1.366608

model.0.bias f4 [64]
000000 f3 b5 06 3f 6c 3e 4b bd ae 4d 7f 3d cf 35 2b 3c
       0.5262138 -0.049620077 0.06232994 0.010449841
000010 09 e8 0e bd 69 b2 8e bf 05 59 46 bf cb 11 56 3e
       -0.034889255 -1.1148196 -0.77479583 0.20905225
000020 f1 7d 19 3f 9c c0 69 3f 91 40 c4 3e b8 17 38 3d
       0.59957796 0.91309524 0.3833051 0.044944495
000030 2f a2 bf be 3c 8a 37 3e 31 92 b0 3d 8a c5 0f 3f
       -0.37428424 0.17923826 0.08621634 0.56160796
000040 ff de 6e 3e 4d 2b d4 3e 38 56 fb 3e 7a e8 ca 3e
       0.23327254 0.41439286 0.49089217 0.3963049
000050 d2 a8 29 3f 42 17 07 3f 95 f1 8d 3e ca f7 c3 be
       0.66273224 0.52769864 0.27723375 -0.38274986
000060 96 be 61 3f 4f 04 07 bf e5 93 d1 bb 6f 68 fd be
       0.88181436 -0.5274095 -0.006395804 -0.4949374
000070 01 3f 62 3f 00 74 a9 3e 7b 36 65 bf bd 36 41 bf
       0.88377386 0.33096313 -0.89536256 -0.7547415
000080 15 78 e4 3e b0 3a 1b 3f 94 04 7e 3e 88 b4 18 3f
       0.44622865 0.60636425 0.24806434 0.5965047
000090 2c 96 6f 3f a0 fa 1c 3f fd d5 b8 be fe 56 a3 be
       0.9358852 0.61319923 -0.3610076 -0.31902307
0000a0 4e 00 1c 3f 20 38 b0 3e de 7b 34 3d f5 51 18 3e
       0.60937965 0.3441782 0.04406344 0.14875014
0000b0 66 a1 c6 3d 64 ed 31 bf f0 24 07 bf 58 8d f4 3d
       0.09698753 -0.69502854 -0.5279074 0.11941022
0000c0 1a 58 c0 3e b9 40 4b bf 38 4f 30 bf c5 45 06 be
       0.37567216 -0.79395634 -0.6887088 -0.13112552
0000d0 e4 39 a7 3e d6 5f ca 3e 90 6c a9 3d f1 64 33 bf
       0.32661355 0.39526242 0.0827266 -0.700759
0000e0 25 23 52 3f aa 49 e9 3e 70 c2 03 3f 42 41 0b 3e
       0.82084876 0.45564014 0.51468563 0.13599113
0000f0 10 ba c7 3c 69 fd b8 be 18 30 0a 3f 0b 76 b9 3e
       0.024380714 -0.36130837 0.53979635 0.36222872

model.2.weight f4 [64, 64]
000000 26 c3 78 bc ff 61 1c 3e a5 8a 11 c0 b7 0d 27 bf
       -0.015183246 0.15271758 -2.2740872 -0.652553
000010 18 d4 13 40 68 50 31 be 8a 42 cb bf 8d 9d 37 bd
       2.3098202 -0.17315829 -1.5879681 -0.044827987
000020 e8 4c 29 c0 83 5b 22 3f 73 a1 89 3f b8 dd 8a 3f
       -2.645319 0.63420886 1.0752395 1.0848913
000030 2c bb 73 3f fe f8 d1 be 3b 80 6b 3c c0 f9 55 3f
       0.95207477 -0.41010278 0.014373834 0.83584213
000040 ba 55 62 bf fb 44 21 bd 43 61 06 3e d5 0f 19 bf
       -0.8841206 -0.039372426 0.1312304 -0.5978978
000050 f3 c7 b6 3f 70 d4 ad bf b4 b0 66 3f 35 aa e3 3e
       1.427977 -1.3580456 0.9011338 0.44465795
000060 22 5a d7 3f a9 c1 9e bf 86 c0 a5 3e fc 26 e4 be
       1.6824381 -1.240285 0.32373446 -0.44560993
000070 90 16 b5 3f f5 25 71 bf 92 18 13 bd aa 9f 04 bf
       1.414751 -0.9419854 -0.035912104 -0.5180613
000080 6c 16 7e be 70 ac 8b 3f b5 7a ce bf c8 3b db be
       -0.24813241 1.0911999 -1.6131197 -0.42819047
000090 cc 61 58 be d7 28 dd 3e 74 4d 8b be de 9d 94 3f
       -0.21131057 0.4319522 -0.2720753 1.1610677
0000a0 a1 3f 81 c0 e9 c7 17 c0 0c 5d 12 c0 26 76 db 3f
       -4.039017 -2.3715765 -2.2869291 1.7145431
0000b0 70 29 1b c0 f9 58 5c 3f 97 5d 41 c0 57 1f 2c c0
       -2.4244041 0.8607326 -3.0213373 -2.6894128
0000c0 c1 1b 20 c0 5e fc 8a bf b3 03 4d bf 34 4d c2 3f
       -2.501694 -1.0858266 -0.8008377 1.517981
0000d0 44 98 18 bf 6f 0d b3 bd 6d 14 4f 3e a0 a6 b1 3f
       -0.5960734 -0.08742797 0.20222636 1.3878975
0000e0 57 13 a2 be 80 39 a9 be d7 ad 21 c0 e5 b1 ea bf
       -0.3165538 -0.33051682 -2.5262353 -1.8335539
0000f0 3f 19 ab 3d 91 d9 71 3e ab 05 3e 3d a9 57 c1 be
       0.08354425 0.23618151 0.046392124 -0.37762192
000100 67 ae 8d 3e fb 07 c3 3e da c1 85 3e 40 5b 1e 3e
       0.2767212 0.38092026 0.2612446 0.15464497
000110 29 b5 57 bf a7 e0 13 3f c1 5a 89 3f c8 4c 67 3e
       -0.84260803 0.5776467 1.0730821 0.22587883
000120 52 6c 94 3d cd be c2 be 7c 42 1d bf 34 bb 50 3e
       0.07247223 -0.38036194 -0.6142957 0.20383912
000130 98 15 e0 3e 24 b5 c0 3e 4d 62 85 3e d5 a5 a2 3e
       0.43766475 0.376382 0.2605156 0.31767145
000140 79 0e 20 3f 94 ee 6a 3e 29 92 8c 3e 83 e7 11 3f
       0.62522084 0.22942573 0.2745526 0.56993884
000150 a8 4e 78 3e e4 94 cb 3e 6e 5c 5c bf 25 53 f1 3e
       0.24248755 0.39762032 -0.86078537 0.47133747
000160 1c f9 d6 3e 89 a1 aa 3e 1a 02 b6 3f 0d 60 19 3f
       0.4198693 0.33326367 1.4219391 0.59912187
000170 54 4f 73 3e cf a5 22 3d b2 92 3a bd ac 8b 2d 3e
       0.2376073 0.03970891 -0.045550056 0.16947812
000180 60 f2 50 3e 1c fa f5 3d d1 2b 6e 3e ab 69 a1 3e
       0.20404959 0.12010595 0.23258902 0.3152593
000190 fe 3c cf 3f 3f e0 26 be 18 2c 1f 3f 38 ec 8c bc
       1.6190488 -0.1629648 0.62176657 -0.017202482
0001a0 0f b9 d3 bf 57 fe 6e be 83 22 74 3e 47 9e 8f 3e
       -1.654085 -0.2333921 0.2384129 0.28050444
0001b0 2e 96 0b 3f 4a b4 1e 3f c8 4e 1d 3f 03 01 af bf
       0.5452603 0.6199385 0.61448336 -1.3672184
0001c0 a0 21 56 3e b4 74 e4 3e 11 94 65 bf 6e 2d d7 3f
       0.20911264 0.44620287 -0.89679056 1.6810739
0001d0 b4 94 c0 3e 80 27 84 3e f6 d2 e8 3e e1 90 23 3f
       0.3761345 0.25811386 0.4547345 0.6389294
0001e0 db 4e 02 3f e0 94 17 3e b4 70 d9 bd 7b 05 16 3f
       0.50901574 0.14802885 -0.106171995 0.5860211
0001f0 7b 10 e5 3e fa e4 9e bf ed 05 79 3e 7f 02 28 3e
       0.44739136 -1.2413628 0.24318667 0.16407202
000200 6b 93 56 bd 2b d5 b1 3e 32 12 55 bf 82 6f 81 3e
       -0.052386682 0.34732947 -0.8323089 0.25280386
000210 a0 f8 87 be 39 d1 bd 3f 37 6d c1 be df 7e 1b 3d
       -0.26556873 1.4829475 -0.37778637 0.03796279
000220 54 ec 23 bf af f2 24 bf 7d 79 87 bf 4a 07 85 be
       -0.64032483 -0.64432806 -1.058395 -0.25982124
000230 46 4d ff 3e 5e e7 e6 3d 3d d7 34 3f 31 40 92 be
       0.49863642 0.112745985 0.7064093 -0.285646
000240 d0 60 03 c0 40 8b 6e 3e 7e 06 d9 3d 48 88 93 3f
       -2.052784 0.23295307 0.105969414 1.1525965
000250 09 d1 a6 3e b7 b1 70 3f e5 87 2c bf 23 54 23 3f
       0.32581356 0.9402117 -0.6739486 0.6380026
000260 59 7e 0b bd c7 a8 80 3f 60 aa e9 3f 63 a3 05 3e
       -0.03405604 1.0051507 1.8255119 0.13050608
000270 94 3c ff bd c5 d4 9e be 7b 51 0b 3f ef b6 99 3e
       -0.12462726 -0.31021705 0.54421204 0.3002238
000280 30 fa 5e bf 6a a2 8f 3d 07 62 46 3e f9 90 15 3f
       -0.87100506 0.070134 0.19373332 0.58424336
000290 95 2b 89 3f 79 94 9f be e4 23 dd 3c 14 94 c1 bf
       1.0716425 -0.31167963 0.026994653 -1.5123315
0002a0 03 53 b6 bf b8 2e fa be 66 d1 3f bc cb 65 f6 be
       -1.4244083 -0.4886377 -0.011707639 -0.48124537
0002b0 5a 4a 25 be 42 82 c8 3f 13 33 19 be 77 c4 9f bf
       -0.16141644 1.5664752 -0.1496089 -1.2481831
0002c0 6a 33 3e 3e bc 7a 3c 3f 70 45 01 bf 9a c0 a7 3e
       0.185743 0.7362478 -0.5049658 0.3276413
0002d0 30 b9 d8 be f1 73 df 3b e2 4e 4f 3e b8 6f 37 40
       -0.42328787 0.006819241 0.20244935 2.8661938
0002e0 6d 23 90 be 35 40 de be 52 8e 32 3f 6f 27 35 be
       -0.28152028 -0.4340836 0.69748414 -0.17690824
0002f0 64 4b 0b 3f 53 74 68 be c8 da 2e be 7c 50 87 bf
       0.5441191 -0.22700624 -0.17075646 -1.0571437
000300 6d 90 93 3e 2d b5 0e 3f 96 80 cd 3e 07 ec 4e 3e
       0.28821126 0.557452 0.40137166 0.20207225
000310 23 a4 30 bf 55 d1 3f 3e 45 dc 81 3f ea 7b 09 3e
       -0.6900045 0.18732198 1.0145346 0.13426176
000320 89 6d 07 3e 71 73 4f bd 59 94 11 bf 0f 4e cc 3d
       0.13225378 -0.050647203 -0.56866986 0.09975826
000330 db 9a ee 3e 92 20 92 3e 87 32 01 3f bd b6 e4 3d
       0.4660252 0.28540474 0.50467724 0.11167667
000340 23 6f c7 3e 96 49 84 3e 56 cc 77 3e 69 ad 10 3f
       0.38951978 0.25837392 0.24199042 0.565146
000350 2e 10 d7 3e 92 89 0b 3e a3 de 0e bf ab 53 d4 3e
       0.42004532 0.13626698 -0.55808467 0.41470084
000360 9e 38 5a 3e 3c c6 dc 3e 99 eb cf 3f 87 30 09 3f
       0.2131066 0.4311999 1.6243774 0.5358967
000370 c5 38 4c 3e 8d a0 6d 3e 34 db 3e 3e 11 b4 8a 3e
       0.19943531 0.23205777 0.18638307 0.27090505
000380 5b c3 45 3e db 7d 09 3e 3e cc df 3e 4d 3e a8 3e
       0.19312803 0.13426916 0.43710512 0.32860032
000390 28 97 e2 3f 17 44 e2 bd 0b 5e 2d 3f 9a ae 63 bd
       1.7702379 -0.11048143 0.67721623 -0.055586435
0003a0 64 44 e0 bf fc cb ee bd 80 e0 cf 3e d8 ca 46 3e
       -1.7520871 -0.11660001 0.40600967 0.19413316
0003b0 77 a1 17 3f 60 cb 10 3f 50 1c 59 3f 82 cb a9 bf
       0.5923075 0.56560326 0.84808826 -1.3265231
0003c0 fe 68 f8 3d 1a f0 9f 3e 7e 8f 7d bf 73 8a eb 3f
       0.12129401 0.3123787 -0.99047077 1.8401626
0003d0 5a ac 92 3e c3 30 a9 3e 7b e7 e7 3e 94 2d 1e 3f
       0.2864712 0.33045015 0.45293793 0.61788297
0003e0 f2 89 9f 3e 7b bf 60 3e b7 ba c1 3c 79 a5 21 3f
       0.3115993 0.21948044 0.023648603 0.63143116
0003f0 a9 a5 9a 3e af 02 99 bf 97 7e 73 3c a4 15 75 3e
       0.30204514 -1.1953944 0.014861724 0.23934036

model.2.bias f4 [64]
000000 94 4c d6 3f f0 da 51 3e ee 46 0f bf c7 1f c4 3d
       1.674212 0.20493674 -0.55967605 0.095763735
000010 77 09 36 be 90 45 85 3e 7f 93 1a 3a 96 95 70 3e
       -0.17777048 0.26029634 0.00058966124 0.23494563
000020 2e c2 4a 3c 35 c8 fb bd 4e a1 ce 3d 9e f7 a6 3d
       0.012375398 -0.12294046 0.1008936 0.08152698
000030 3b a0 08 be c8 b8 68 3f 3f 1a 27 3d f7 2e 24 bf
       -0.13342373 0.90906954 0.040796515 -0.6413416
000040 e4 6c dc 3f 49 e8 af 3e 44 b6 c9 3d 2c 07 99 3e
       1.7220731 0.34356907 0.098492175 0.29888284
000050 7c 59 37 3d 85 14 14 3f 41 b8 e2 bd 54 39 c9 3e
       0.044763073 0.5784381 -0.110703 0.3930155
000060 bc 85 63 3e 56 cf a0 3e 49 8c 17 be e4 b5 70 3e
       0.22218984 0.31408185 -0.14799608 0.23506886
000070 b5 0c d8 3d 7d b4 e5 bc 45 a0 cc be 98 c5 08 bd
       0.10549299 -0.028040165 -0.39966026 -0.033391565
000080 2b 9a ba 3e 3a 64 f9 3e 18 87 b1 bc eb 1a 23 3f
       0.36445746 0.4870928 -0.021670863 0.6371295
000090 d1 d5 96 3e 8a 2f 81 3e 32 41 e1 bd 59 08 00 3e
       0.29460004 0.25231582 -0.10998763 0.12503184
0000a0 92 47 c9 3e 26 97 27 3e 88 62 a7 3e 1c 7b b4 3e
       0.39312416 0.16366252 0.3269236 0.35250175
0000b0 ee ec d6 bd d4 85 88 3e ef cb 33 3f 5d 8d ac 3e
       -0.104944095 0.26664603 0.7023305 0.33701602
0000c0 a0 01 cc bd 14 7d 8f 3e 08 ad 8c 3e ff bc 6a 3f
       -0.099612474 0.28025115 0.27475762 0.91694635
0000d0 67 74 90 3e 9d 07 1d 3d 03 3a 32 3e 21 81 5a 3d
       0.28213808 0.03833734 0.17404942 0.053345803
0000e0 88 df 74 bd ce 4d 36 bf 5a 22 5c be 19 21 91 3e
       -0.05978349 -0.7121247 -0.21497479 0.28345564
0000f0 b3 6b 34 3e 68 7d 91 3f 5f 2d 81 3e b1 ce f1 3c
       0.17619209 1.1366396 0.25229928 0.029517503

model.4.weight f4 [4, 64]
000000 70 67 f4 3f 89 80 ac 3e c7 0a 3f 3f 19 5a 8b 3e
       1.9094067 0.33691815 0.7462582 0.27217177
000010 cc e7 c4 bb 39 4e 67 3e 13 83 de 3e e1 fd be 3e
       -0.0060090777 0.22588433 0.43459377 0.3730307
000020 15 56 ac 3d 83 86 c7 3e 4a 85 80 3e 9d d9 e3 3e
       0.08414856 0.38969812 0.2510169 0.44501963
000030 a5 12 23 bd 38 56 67 3f 9a 10 eb 3e 5e 0a b3 bf
       -0.039812703 0.90365934 0.45911103 -1.3987539
000040 b6 0c b6 3f b4 ef 2a 3f 69 b3 09 3f d3 db ee 3e
       1.4222629 0.6677201 0.53789383 0.46652088
000050 b2 fa 2c 40 13 21 dc 3f 40 2e c8 3d 8b e0 d8 bf
       2.7028012 1.7197593 0.097744465 -1.6943525
000060 74 77 d7 3e 24 a5 56 3e 39 70 e8 bf 8d 2d ef be
       0.42083323 0.20961434 -1.8159248 -0.4671444
000070 3c e8 b7 3e 6d cf c9 bd 75 75 64 3f ed e1 13 3e
       0.35919368 -0.098540165 0.89241725 0.14441653
000080 96 29 f0 3e 79 99 b1 bf 8a 1b 8a 3d 5c 2b 9b bf
       0.46906728 -1.3874961 0.06743534 -1.2122607
000090 d5 54 d2 3e 6f 61 1e 3f c6 c7 48 3e 68 7b 6e 3e
       0.41080347 0.6186742 0.19607458 0.23289263
0000a0 36 35 c4 3e 47 91 22 3f f0 90 cd 3f 33 a6 63 be
       0.38321847 0.63502926 1.6059856 -0.22231369
0000b0 59 84 9c bb 96 eb c1 3e 2c 92 7f 40 d7 5c 0a c0
       -0.0047765193 0.3787505 3.9932966 -2.1619165
0000c0 90 9e 0c 3d 02 71 3f bf e5 2c d5 3e e7 ec fe bf
       0.034330904 -0.7478181 0.41635814 -1.9916047
0000d0 9b 79 81 3e db 2c 01 3a cd 0d 0d c0 02 8a 4a 3d
       0.2528809 0.00049276435 -2.2039673 0.04944802
0000e0 2c b4 1d bd f9 f9 0e c0 8b 3d ee bf c6 55 8f 3e
       -0.038501903 -2.2340071 -1.8612531 0.27995127
0000f0 c6 93 9d 3e 03 23 e0 3f 99 57 95 3e 7e 01 6f 3c
       0.30776805 1.7510685 0.29168394 0.014587758
000100 f3 68 f6 3f fb fe 01 3f 09 5f 4c 3f 39 45 d5 3e
       1.9250778 0.50779694 0.7983251 0.41654375
000110 01 da b8 3d 3a 26 03 3f b1 26 c2 3e 96 96 cc 3e
       0.09025956 0.51230204 0.37920144 0.39958638
000120 ad 0e 92 3d 19 e6 11 3f 4b 7b 7c 3e 6d 53 d6 3e
       0.071317054 0.56991726 0.24656408 0.41860524
000130 78 41 bc bd 03 ed ae 3f e8 39 04 3f 8a 64 99 bf
       -0.09192175 1.366608 0.5165086 -1.1983807
000140 77 c2 ae 3f 93 c6 e2 3e 3e ac 95 3e 72 0d 46 3e
       1.3653096 0.44292125 0.29232973 0.19341066
000150 12 4d 1c 40 08 eb bb 3f f2 78 94 bd 4a de c7 bf
       2.442204 1.4681101 -0.07249631 -1.5614712
000160 5c 62 a9 3e 84 c8 99 3e d0 ab f4 bf 15 95 c5 bf
       0.33082855 0.30035794 -1.9114933 -1.5436121
000170 b1 26 c7 3e 25 03 08 3d b5 fb 91 3f 36 63 ed 3e
       0.38896707 0.033206124 1.140494 0.46364754
000180 db ca 9e 3e 5d d3 aa bf 35 6a 96 bd 61 fc bf bf
       0.3101414 -1.3345753 -0.07344476 -1.4998895
000190 00 f2 e1 3e 91 9e 51 3f 9a 33 c7 3e a5 a2 72 3e
       0.44129944 0.8188258 0.38906556 0.23694856
0001a0 e2 e1 86 3e b5 89 60 3f c3 80 cc 3f 02 40 0f bf
       0.2634421 0.87710124 1.5976795 -0.55957043
0001b0 99 2f 26 bb 88 eb 83 3e 46 58 77 40 28 c7 14 c0
       -0.002535796 0.25765634 3.8647628 -2.3246555
0001c0 c0 63 69 bb a5 88 29 bf 41 b4 de 3e 8d d5 d7 bf
       -0.0035612434 -0.6622413 0.43496898 -1.6862046
0001d0 ff cd cc 3e b2 8a 33 3d 3a 8b 04 c0 cf bd a4 bd
       0.40000913 0.043833442 -2.0709977 -0.080440156
0001e0 36 69 e8 3d 2d 1a fe bf da 0a f7 bf 10 dd b8 3e
       0.113481924 -1.9851738 -1.9300187 0.36106157
0001f0 61 e0 cb 3e 73 ae ae 3f b8 af 8f 3e 33 7c d2 bd
       0.39819625 1.3646988 0.2806375 -0.10277595
000200 fe ae 72 3f 6d ef c6 3e 3f 82 90 3f 0b c6 f0 3e
       0.94798267 0.38854542 1.1289748 0.47026095
000210 44 6c 23 bd ab a7 e9 3e c6 c0 d8 3e 41 bf 91 3e
       -0.039898172 0.45635733 0.42334574 0.28466228
000220 be 6a 5e be cb 2a 80 3e 34 8d ee 3e 1a 02 a7 3e
       -0.21720406 0.25032648 0.46592104 0.3261879
000230 05 e6 45 3d 41 52 93 3f 87 f6 10 3e c4 a2 a0 bf
       0.048315067 1.1509477 0.14156543 -1.2549672
000240 c6 0e 9e 3f c4 cc ec 3e f7 e5 7f 3d a9 51 bd 3e
       1.2348258 0.46249974 0.06247517 0.36976364
000250 27 b2 32 40 d3 be d7 3f 24 da 01 bd d9 94 b6 bf
       2.7921236 1.685511 -0.031702176 -1.4264175
000260 59 11 de 3e 52 19 a5 3e ff 80 e0 bf 14 07 32 bf
       0.4337261 0.3224588 -1.7539366 -0.6954205
000270 4c 3d f6 3e b7 e5 41 be 5f aa fd 3e e7 41 82 bf
       0.4809364 -0.18935286 0.49544045 -1.0176362
000280 8c 99 d2 3e 7d 32 df bf 1f 5b de 3d b3 95 9e bf
       0.41132772 -1.7437283 0.10857224 -1.2389435
000290 16 99 f5 3e d8 68 71 bc 43 1b e2 3e b9 93 a4 3e
       0.47968358 -0.014734469 0.44161424 0.32143953
0002a0 9f a0 e1 3e 3a 36 28 3f 90 53 dd 3f 34 97 0f bf
       0.44067857 0.65707743 1.7291126 -0.5609009
0002b0 94 52 a8 3d 41 1e 51 3e 3d 1d 80 40 27 14 12 c0
       0.082188755 0.20421697 4.003569 -2.28248
0002c0 83 5e dc 3d 5a 90 06 bf 91 b7 d2 3e f0 b3 f2 bf
       0.10760214 -0.52564013 0.41155675 -1.8961163
0002d0 c0 a9 a8 3e c3 e5 43 3d ae 0c 08 c0 48 a2 8a 3d
       0.3294201 0.04782654 -2.125774 0.06769234
0002e0 5e 97 8f bd 92 76 ff bf 60 36 d4 bf 0c db 02 3f
       -0.07011293 -1.995806 -1.6579094 0.5111549
0002f0 dd a2 ef 3e 10 97 93 3f 0c d7 02 3f df 54 61 3d
       0.46803942 1.1530476 0.51109385 0.05501258
000300 0f b7 d1 3f bc 20 47 3e 3a fc 67 3f e1 f6 a0 3e
       1.638399 0.19446081 0.9061924 0.31438354
000310 f5 6e 35 3d 58 6e 8f 3e 76 07 89 3e af 00 fc 3e
       0.04429527 0.28013873 0.26763505 0.49219272
000320 3a dd 11 bd 6c 42 42 3d eb 5d ec 3e 76 1d f9 3e
       -0.03561137 0.047426626 0.46165404 0.4865529
000330 a1 e9 38 3c dd 30 09 3f 00 7f 0b 3d 2d 02 cb bf
       0.01128617 0.53590184 0.034056664 -1.5860039
000340 7e c3 c6 3f 5f e2 2a 3f df c7 fd 3e bf f3 85 3e
       1.552841 0.66751665 0.49566552 0.26162526
000350 0e 71 34 40 b2 fa ee 3f bc 54 68 3d 51 71 d6 bf
       2.8194003 1.8670256 0.056721434 -1.6753331
000360 20 c2 4d 3e 57 dd fa 3e 3a ed c6 bf 21 5d da 3e
       0.20093584 0.48996994 -1.5541146 0.42649177
000370 93 34 82 3e 6f a0 c2 3b c4 cc 7b 3f 95 5f 3c bf
       0.25430736 0.0059395353 0.9835932 -0.73583347
000380 78 83 87 3e f7 83 e1 bf 43 1d cd 3d 51 6a a3 bf
       0.2646749 -1.7618397 0.10015347 -1.276682
000390 65 e8 70 3e 6c 6b 29 3e 48 de ce 3e ba ab f7 3e
       0.23526151 0.16544884 0.40403962 0.48373204
0003a0 c1 f9 ed 3e 52 8f 68 3f 42 8a bd 3f e7 4b d7 bc
       0.4647961 0.9084369 1.4807818 -0.02628131
0003b0 4e cf 01 be 35 ed 17 3f 20 dd 80 40 3a 03 07 c0
       -0.12676737 0.59346324 4.026993 -2.109572
0003c0 40 d2 ee 3c 9e 8c 36 bf 39 a9 56 3e c2 35 f4 bf
       0.02915299 -0.71308315 0.20962991 -1.9078906
0003d0 77 84 f6 3e 46 39 23 3d bb f9 0a c0 1b d7 8b ba
       0.48147938 0.039849542 -2.1714923 -0.0010668965
0003e0 f6 9a a2 bc ef 88 f5 bf 8e e5 e7 bf 8d 9a 79 3e
       -0.019849282 -1.9182414 -1.811693 0.24375363
0003f0 6d 60 9b 3e d6 59 cf 3f c4 03 84 3e b9 e9 91 3d
       0.30347005 1.6199291 0.25784123 0.07124657

model.4.bias f4 [4]
000000 48 a0 d5 3e 2d 61 92 be 06 76 d0 3d 37 a5 a3 3e
       0.41723847 -0.28589764 0.10178761 0.31961986
