models/icm_model.pth (torch, 50584 bytes, 8 tensors)

inverse_model.0.weight f4 [128, 36]
000000 5c 5c bd bd e2 6a 05 3d 7f a5 16 3f 9c 9e e4 be
       -0.09246132 0.032572635 0.58846277 -0.4465226
000010 ff 8b 0c bb 83 74 b0 bd de 4b bd bd 26 17 d4 3d
       -0.002144575 -0.08615973 -0.09242986 0.10355978
000020 df 7d 16 3e 26 11 ac 3d 10 04 e6 3d 0e ea cd 3d
       0.14696454 0.08401708 0.112312436 0.10054408
000030 fe 4f f8 3d 3b c1 68 3d db db 64 3d eb 9f 25 be
       0.12124632 0.056824904 0.055873733 -0.16174285
000040 bb 82 08 3e 56 30 5d bc 6d 39 d8 3d 1d ad b2 bc
       0.1333112 -0.013500294 0.10557828 -0.021811062
000050 70 8e 5b bf 6f a3 69 3f c0 ea 57 3d 62 70 88 3c
       -0.8576422 0.91265005 0.05271411 0.01665515
000060 50 2a 7c bd 80 07 f9 3b 80 ad a6 bd 73 05 cc bd
       -0.06156379 0.007599771 -0.08138561 -0.09961977
000070 cb 91 c0 3c bb 6d e5 3d 80 b7 ac bb f7 22 16 be
       0.02350702 0.1120257 -0.0052708983 -0.14661776
000080 10 4d 03 be 9b a0 51 3d a3 9c b6 3d 40 94 d6 3c
       -0.12822366 0.051178556 0.08916595 0.026193738
000090 9c 60 9e 3a d9 97 a9 bc b8 e6 e5 be a5 b7 f4 3e
       0.0012083235 -0.02070229 -0.44902587 0.4779636
0000a0 1b 53 03 3d 92 3f 09 3e 80 47 11 bc 1b 3c 94 3d
       0.032061677 0.13403156 -0.008867145 0.07238027
0000b0 10 28 fa bd ae 2e dc bd 88 f2 80 3d 6b c5 18 3e
       -0.122146726 -0.10751091 0.06296259 0.14919059
0000c0 b8 f9 d2 bd d6 9a 0c 3e 00 5e b1 bb 6b b7 8d bd
       -0.10301536 0.1373094 -0.005412817 -0.0691975
0000d0 a0 e8 58 bd 5c e0 02 be 21 fc d5 3b c7 12 c3 3c
       -0.052956223 -0.12780899 0.0065303002 0.023812665
0000e0 09 17 63 3f 0a 26 61 bf 84 5c 84 bc 22 2c 18 be
       0.88707024 -0.8794867 -0.016157396 -0.14860585
0000f0 f6 51 e8 bd 7b 2b 0d 3e 4e b0 9e 3d cb f8 f0 bd
       -0.11343758 0.13786118 0.07748471 -0.117662035
000100 b8 0e 86 bd f0 b3 38 bd 63 26 a2 bd a4 4e 07 be
       -0.06545776 -0.045093477 -0.07917478 -0.13213593
000110 a6 c5 2a bd fc e1 14 be e0 c8 9b 3c 8b f3 b6 bd
       -0.0416924 -0.14539331 0.019016683 -0.08933171
000120 03 28 77 3c 9b fe 66 bd 5d b1 1c 3f 3f a1 ff be
       0.015085223 -0.056395154 0.61208135 -0.49927709
000130 f2 f9 fd 3c cf f9 34 bb 4e 0a e0 bd 53 4e 1c be
       0.031002972 -0.0027614718 -0.109394655 -0.15264253
000140 ab 9d f8 bc 3e 41 dd 3d d8 98 e7 3d 3b ca 1c 3d
       -0.03034862 0.108034596 0.113084495 0.0382788
000150 f3 3f e4 3d 50 5a 1f 3d 6b c0 88 bd 1a 6b 0e be
       0.1114501 0.038904488 -0.06677326 -0.13908044
000160 00 8a af 3d cb e5 98 bc 1b 5d 47 3d e6 34 2b 3c
       0.08571243 -0.018664261 0.048672777 0.010449624
000170 80 ee 68 bf 6f 7f 42 3f 8c 23 b5 bd b6 2e 50 bc
       -0.9098892 0.759757 -0.08844671 -0.012706449
000180 3f b8 29 3e 16 ce fa bc 0b 0a 67 3d 56 63 9e 3d
       0.1657419 -0.030615848 0.056406062 0.077337906
000190 db c4 13 3d 1b 7f c9 bd 56 c4 d7 3c c3 d6 b7 3d
       0.036076408 -0.098386966 0.026338737 0.089765094
0001a0 36 51 5f bd 9b 9a 15 3e 20 90 83 bd ae a4 c4 bd
       -0.05452081 0.14609759 -0.06423974 -0.09601723
0001b0 71 19 43 bc 1a bb c4 bd 21 56 e0 be d3 1e 26 bf
       -0.011907921 -0.09605999 -0.4381571 -0.64890784
0001c0 80 65 9d b6 87 4d de 3d ce f6 fa bd f8 68 c5 3d
       -4.6907808e-06 0.10854631 -0.122541055 0.09639162
0001d0 b0 24 cb 3d e6 31 64 bd eb 81 28 be 5b 01 07 bd
       0.09919107 -0.05571165 -0.1645581 -0.032960277
0001e0 b6 80 d8 3c e8 3f d5 bd 16 38 d9 3c c0 7b fb 3d
       0.026428562 -0.1041258 0.026516002 0.12279463
0001f0 5b 75 2a 3d 48 3c 04 be 11 28 83 bc 43 43 bd 3d
       0.041615825 -0.1291362 -0.016010316 0.09241345
000200 ff 1c 39 3f 5f 50 46 3f 1e bc c7 3c cb 8e 1a be
       0.7230987 0.77466387 0.024381693 -0.15093534
000210 60 03 a2 3d eb ac cd 3d 70 b9 46 bd 33 f0 81 bd
       0.079108 0.10042747 -0.04851669 -0.063446425
000220 b4 74 00 be 40 c9 19 bd 70 59 42 bd c3 29 cd 3d
       -0.12544519 -0.037545443 -0.047448575 0.10017731
000230 06 a8 24 3d bb b3 a8 bd 20 47 bb bd db 19 00 bd
       0.040199302 -0.08237406 -0.091444254 -0.031274658
000240 3f fa 4b 3d 6e 9e 02 bb 33 7f 30 bf 0c 57 91 be
       0.0497992 -0.0019930857 -0.6894409 -0.28386724
000250 6d e0 f9 bd 42 1f c0 bc 50 48 d8 bd f6 60 a6 3c
       -0.12201009 -0.023452405 -0.105606675 0.020309906
000260 1e 8d b4 3d c7 55 0f 3e ba b9 1a be 2b cc 9b 3d
       0.088159785 0.13997565 -0.15109912 0.07607301
000270 f6 38 f9 bd 80 f6 48 bc a2 5d 06 be 8b 7f a9 bd
       -0.121690676 -0.012265801 -0.13121656 -0.0827628
000280 12 8c 0c be 2b f5 10 be 37 03 7f bd 54 15 77 3c
       -0.13725308 -0.14156024 -0.062258925 0.015080769
000290 f7 8c 4f 3f 83 89 29 3f 48 d7 b4 3d 6a 48 78 bd
       0.8107447 0.6622545 0.08830124 -0.060615934
0002a0 6e a3 07 be 9b de 87 bd d0 2e cd bd 50 f1 36 3d
       -0.13245937 -0.066342555 -0.100186944 0.044663727
0002b0 83 98 c9 bd 5e 52 c4 bd 43 f9 b3 bd cb 58 01 3d
       -0.098435424 -0.09586023 -0.08787777 0.03157882
0002c0 03 63 02 3e 4e 52 e1 3d 4e 81 d4 bd 7f 64 11 3e
       0.12733082 0.110020265 -0.103762254 0.14198492
0002d0 7f 72 5b 3d e8 a5 6e bc 62 d4 1b bf 69 a1 e0 be
       0.05357599 -0.014565922 -0.60870945 -0.43873146
0002e0 44 c7 91 3d 23 6e 31 bd 2b 56 56 bc 17 b6 08 3e
       0.07118085 -0.043317925 -0.0130820675 0.13350712
0002f0 eb 53 79 3d 1b 74 ae 3d 43 f1 fb bd 80 b5 24 bd
       0.060871046 0.08518239 -0.123018764 -0.040212154
000300 00 2b be 3d 66 f7 07 be 80 20 f6 3c 20 00 20 bd
       0.09285545 -0.13277969 0.030044794 -0.03906262
000310 ab ea ed 39 2b c0 64 bd 03 5e b8 bd 52 ed 5d bc
       0.00045379004 -0.05584733 -0.09002306 -0.013545351
000320 5c 3f 5a 3f 06 d3 4b 3f 78 10 ce bd d5 e6 7a 3d
       0.8525293 0.7961887 -0.10061735 0.061255295
000330 b0 e5 17 be 70 65 4f 3d 1a b3 08 3e d6 c2 8d 3c
       -0.14833713 0.050633848 0.13349572 0.01730482
000340 f6 10 16 bd 46 02 81 3d b6 95 72 bd 26 c3 af 3d
       -0.03663727 0.06299262 -0.059224807 0.085821435
000350 38 52 90 bd 0b 2a 8b bd ab 70 a7 3c 58 f3 fa bd
       -0.07046932 -0.067951284 0.020439466 -0.122534454
000360 18 6f 1c bd 2e 7f 60 bd 21 fe 0f 3f 80 be a2 3e
       -0.038191885 -0.054808788 0.56247145 0.31785965
000370 9a 38 9d bd 10 d5 1e 3e 30 96 0f 3d 76 da 34 bd
       -0.076768115 0.15510964 0.03505534 -0.044153653
000380 3a 38 0d be f0 10 6b bd 2b cf c3 3b f6 e9 0c bd
       -0.1379098 -0.0573892 0.005975624 -0.03440281
000390 ab e6 83 bd 8b c7 70 bd b6 3e 07 3d 56 b2 00 3e
       -0.06440481 -0.05878405 0.03301879 0.1256803
0003a0 8b 9f a2 3d 80 fc b9 3c e7 68 15 bd f2 5b 29 bc
       0.07940587 0.02270341 -0.036476996 -0.010336863
0003b0 46 27 60 bf 05 f4 26 bf 2a 85 8a bd 6b f7 67 bd
       -0.87559927 -0.65216094 -0.0676368 -0.05663244
0003c0 94 bd 24 3e 80 78 4a 3c 16 0c 65 3c 00 56 f0 3b
       0.16087943 0.012357831 0.013979932 0.0073344707
0003d0 1b ab 3f bd 56 d4 1d 3e 3b 39 54 3d 26 0b f6 3d
       -0.04679404 0.15413031 0.05181239 0.12013845
0003e0 d3 86 f8 bd ab 29 81 3b c3 10 02 be 78 2f 2a 3e
       -0.12135091 0.003941735 -0.12701707 0.1661967
0003f0 a8 59 34 bd 27 19 7b 3d 39 f9 1f bf ac f9 c8 3e
       -0.044030815 0.061303284 -0.6248966 0.39252985

inverse_model.0.bias f4 [128]
000000 ff 3e 6d 3e 42 41 82 3e f2 f8 94 3e 8a 16 2f 3e
       0.23168562 0.25440413 0.2909618 0.17098442
000010 af ae 35 3e 39 0b 1c 3e 61 10 a1 3e ed 4b 92 3e
       0.17742418 0.15238656 0.3145781 0.28573552
000020 d4 1c 5e 3e d1 00 2f 3e c7 8a 50 3e 73 bd 6a 3e
       0.21690685 0.17090155 0.2036544 0.22923832
000030 a9 30 8a 3e d8 2f 8c 3e 92 09 79 3e 38 78 7e 3e
       0.2699025 0.27380252 0.24320057 0.24850547
000040 75 9a 16 3e cf f7 52 3e b0 9a 64 3e 54 c4 99 3e
       0.14707358 0.20602344 0.22324634 0.300326
000050 e4 2a 80 3e a1 77 48 3e bc 64 31 3e 68 0e ba bd
       0.25032723 0.19576885 0.17323583 -0.09084779
000060 56 4c 59 3e 50 e6 a0 3e 62 27 60 3e 25 8d 8b 3e
       0.21220526 0.31425714 0.21890023 0.27256122
000070 d3 e1 78 3e 6e ce 79 3e ea 2f 30 3e 60 93 67 3e
       0.24304895 0.24395153 0.17205778 0.22614813
000080 51 a9 44 3e 58 e4 4c 3e f7 d8 9b 3e 13 95 9b 3e
       0.19205214 0.20008981 0.3043897 0.30387172
000090 42 a5 54 3e de 38 51 3e 2e 04 69 3e d0 4b 5a 3e
       0.20766166 0.2043185 0.227555 0.21317983
0000a0 ed ca 60 3e ae 10 67 3e bd 01 80 3e 0a 62 67 3e
       0.2195241 0.22564957 0.25001326 0.22595993
0000b0 7e 84 2e 3e f2 75 6d 3e 7f b2 30 3e 57 3a 30 3e
       0.1704273 0.23189524 0.17255591 0.17209755
0000c0 95 12 4d 3e a5 e9 76 3e 02 8f 6d 3e 73 4d b0 3e
       0.2002662 0.24112566 0.23199084 0.3443409
0000d0 4c fb 31 3e ce 7d a9 3e 4e 74 50 3e 88 36 82 3e
       0.17381018 0.33103794 0.20356867 0.2543223
0000e0 41 9a 5b 3e 14 cf 54 3e 76 5d 40 3e 11 4b c1 3e
       0.21445562 0.20782119 0.18785653 0.37752584
0000f0 66 70 5a 3e 3a b0 32 3e 92 8d 7a 3e 0f b9 ee 3d
       0.21331939 0.17450038 0.24468067 0.11656391
000100 6b c8 17 3e da 60 71 3e 13 ca 16 3e 85 03 88 3e
       0.14822547 0.23572102 0.14725523 0.26565185
000110 e8 17 b8 3e a5 69 86 3e 8b 3a 80 3e 40 b1 8d 3e
       0.3595574 0.26252475 0.25044665 0.27674294
000120 97 5f 55 3e 42 31 91 3e b3 31 7e 3e 96 78 55 3e
       0.20837246 0.28357893 0.24823646 0.20846781
000130 94 24 90 3e 03 9d 6c 3e 55 6d 84 3e 04 05 90 3e
       0.28152907 0.2310677 0.25864664 0.28128827
000140 dd 34 7c 3e a2 43 b6 3e 52 07 36 3e e1 10 26 3e
       0.2462954 0.35598475 0.1777623 0.16217376
000150 75 ba 36 3e 77 db 52 3e d9 6d 9e 3e 50 ac 5b 3e
       0.17844565 0.20591532 0.30943182 0.21452451
000160 0a 92 2a 3e 6e 65 cc 3d 4a 20 73 3e 81 31 60 3e
       0.16657272 0.09980284 0.23742786 0.21893884
000170 b4 5d a1 3e 8c c3 30 3e d8 08 84 3e c3 cf 61 3e
       0.31516802 0.17262095 0.25787997 0.22051911
000180 83 7a 6f 3e 06 16 60 3e 54 75 79 3d 4b 06 50 3e
       0.23386578 0.21883401 0.06090291 0.203149
000190 a9 45 6b 3e 4d d2 26 3e b9 15 66 3e ce 83 7d 3e
       0.22975792 0.16291161 0.22469224 0.24757311
0001a0 51 9a 28 3e e8 61 19 3d f0 20 70 3e 05 44 12 3e
       0.16465117 0.037446886 0.23450065 0.1428376
0001b0 cc 39 5b 3e 23 d9 26 3e 39 c4 99 3e f1 d5 72 3e
       0.21408767 0.16293769 0.30032519 0.23714425
0001c0 60 85 4a 3e ca 3f b6 3e b4 65 18 3e 89 ab 3c 3e
       0.19777441 0.35595542 0.14882547 0.1842481
0001d0 2c 8b 39 3e b5 b1 56 3e 99 56 87 3e 1c 5b 42 3e
       0.18119496 0.20966227 0.26433256 0.18980068
0001e0 06 4e 55 3e 7a 9f 7e 3e 81 bd 52 3e 1d 41 8a 3e
       0.20830545 0.24865523 0.20580103 0.27002802
0001f0 79 db 37 3e 1f 34 79 3e 12 7c d7 3d 9b 0a 89 3e
       0.17954816 0.24336289 0.105217114 0.26765904

inverse_model.2.weight f4 [9, 128]
000000 ed 03 5c bd b8 45 d5 bc 6e e6 09 be 30 69 59 bd
       -0.05371468 -0.026034221 -0.13466808 -0.05307883
000010 3e e4 de bd 31 ef ec bc d3 58 dc bd f8 ee 5a bc
       -0.108833775 -0.02892265 -0.107591294 -0.013362639
000020 08 66 07 be 6c fd eb bc 97 bf 29 be 28 3f 78 ba
       -0.13222516 -0.028807364 -0.16576992 -0.000946986
000030 f1 0a 59 bd d1 19 e3 bd 8d 30 33 be 5c 85 f8 bd
       -0.05298895 -0.110889085 -0.1749899 -0.12134811
000040 fd d0 15 bd 73 6d 85 bd 86 c6 17 bd 23 22 d8 bd
       -0.03657626 -0.065150164 -0.03705456 -0.10553386
000050 68 0f 13 be 8c 79 6c 3c 0f 53 bb bb fe 6a 2b be
       -0.14361346 0.014433276 -0.0057166885 -0.16740033
000060 06 1e ba bd 34 e7 da ba 89 6f 3a bd 38 fd e1 bd
       -0.09087758 -0.0016700984 -0.045516524 -0.11034626
000070 33 83 32 3c 7f da d1 bd 13 6a 2e be a6 47 64 bd
       0.010895538 -0.10246753 -0.17032652 -0.05573239
000080 76 f6 2b bd fb 6b 2a be 7a 42 db bd 66 71 1f be
       -0.04198309 -0.16642754 -0.10706039 -0.15570602
000090 e8 6b 8d bc 3a c9 eb bd c5 ca 16 be 67 17 e6 bd
       -0.017263368 -0.1151299 -0.14725788 -0.112349324
0000a0 6c ac 32 be 88 99 57 3c 1b 83 69 bd 9f fb ef 3b
       -0.17448586 0.013159163 -0.057009798 0.0073236967
0000b0 f2 ff 24 bc 33 96 9a bc 60 1c 16 be e8 d5 cb bd
       -0.010070788 -0.018870449 -0.14659262 -0.09952909
0000c0 d4 8d 2b be ae 20 ed bb a4 0f b9 bd 4c 3c 26 bd
       -0.16753322 -0.0072365617 -0.09036186 -0.040584847
0000d0 cb da 8f bd a0 62 1d be 82 cc 4d be c0 8f 0f be
       -0.07024153 -0.15369654 -0.20097545 -0.1401968
0000e0 b8 8e b5 bd c9 ad a2 bd 46 20 08 3d d8 bc a0 bd
       -0.08865112 -0.07943303 0.033233903 -0.07848519
0000f0 e0 89 3c bd d1 9e 08 be 7c c7 31 be 9d cd 0c be
       -0.046029925 -0.13341834 -0.17361253 -0.1375031
000100 7b 46 19 3d da 7e c8 ba 3b 29 ea bd ea a6 9c bc
       0.03742073 -0.0015296594 -0.11433645 -0.01912256
000110 36 12 ae bd e0 a7 28 bd 11 ce 3c bd 79 95 35 be
       -0.08499567 -0.041175723 -0.046094958 -0.177328
000120 66 be 3d bc 33 59 cc bd 93 b9 4f bd 49 d8 f1 bd
       -0.011581039 -0.09977951 -0.050714087 -0.11808831
000130 8c b8 38 be ce 58 28 bd 41 bd 11 bd bc ab e3 bd
       -0.18039149 -0.041100316 -0.035580877 -0.1111674
000140 21 09 f3 bd f3 7e 07 be 1d 7e 2b bd 06 40 31 be
       -0.118669756 -0.13232021 -0.041868318 -0.17309579
000150 e0 48 33 bc ae 90 27 be 36 22 c6 bd d5 79 9b bb
       -0.010942668 -0.16363785 -0.09674494 -0.004744748
000160 08 e7 68 bd 07 ee ab bd fe 49 ab bd 7c 9d 1e be
       -0.056860954 -0.083950095 -0.08363722 -0.15489763
000170 ac 75 34 be 5f 9d c3 bd 5a ea d1 bd 8d 73 a3 bd
       -0.17623013 -0.095515005 -0.10249777 -0.07981024
000180 43 8b a3 3a 7f 76 04 be c6 6e 2c bd 2c 9f de bd
       0.0012477416 -0.12935828 -0.04209783 -0.108702034
000190 f5 79 15 bc 8b cf 43 bd 03 31 85 bc 02 fc fe bd
       -0.009123315 -0.04780535 -0.016258722 -0.124504104
0001a0 11 54 18 be 1b 18 72 bd ef 9b 11 be be ac 74 bd
       -0.14875819 -0.05910502 -0.1421964 -0.059735052
0001b0 68 5d c8 bd 23 93 e7 bd e1 13 12 be d1 da f7 bd
       -0.09783441 -0.11307361 -0.14265396 -0.12102283
0001c0 c0 e1 42 bd 5a 1b f2 bd bf 6f 77 3c 83 c0 0d bc
       -0.047578573 -0.11821623 0.015102326 -0.008651855
0001d0 e5 c5 81 bd 16 ff b1 bc 02 4e 83 bd 03 5b b2 3c
       -0.063365735 -0.02172808 -0.06411363 0.021771913
0001e0 be 55 46 be ca 11 67 bd 9d f7 05 be e1 aa c9 bd
       -0.19368646 -0.05641345 -0.13082738 -0.09847046
0001f0 86 42 a9 bd 01 e1 ef bd 87 5a 83 bd 8c 28 17 be
       -0.082646415 -0.11712838 -0.06413751 -0.14761561
000200 ae 16 0e bf 10 ac ed 3e 96 66 8f be 10 83 b3 be
       -0.55503356 0.46420336 -0.28007954 -0.3506093
000210 af 02 b9 be 19 a0 08 bf 2e d7 5b 3e bb a1 c6 3e
       -0.3613486 -0.5336929 0.21468803 0.38795266
000220 fb a2 2f 3e ac d6 d3 3e 43 07 db 3e 1c 20 ba be
       0.17152016 0.4137472 0.42778978 -0.36352623
000230 b7 eb 8d 3e fe 19 a4 3e ad 9d 03 3f 0b 77 29 be
       0.277189 0.3205108 0.5141247 -0.16549318
000240 f7 01 ef 3e 45 90 cd be 65 7a 84 3e 8b cd 82 3e
       0.46681187 -0.4014913 0.2587463 0.25547442
000250 4d 36 6d be dc 9f d6 3e 58 ef eb be 56 d0 3e 3e
       -0.23165245 0.41918838 -0.46081042 0.18634161
000260 64 04 d6 3e f2 d0 da 3e 98 14 fc be 09 59 4f be
       0.41800225 0.42737538 -0.49234462 -0.20248808
000270 6b f6 a6 3e ed 7b 13 bf 5f 4e f7 3e 57 b5 fa be
       0.32609877 -0.5761097 0.4830198 -0.48966476
000280 61 f5 2d bf 49 9d 0a 3f 28 93 02 3d d4 9b f4 be
       -0.67952543 0.5414625 0.03187862 -0.47775137
000290 07 cf 0e 3f d1 7c 4a be be dc 49 bd c7 c0 de 3e
       0.5578465 -0.19774176 -0.04928278 0.43506452
0002a0 ad d2 ec 3e f6 4c 02 be 59 c3 d7 3d 12 3c 5f 3e
       0.46254483 -0.12724671 0.105353065 0.21800259
0002b0 b0 52 fd be 08 f7 94 be e9 dc c3 be 07 cd dd be
       -0.49477148 -0.2909472 -0.3825448 -0.43320486
0002c0 42 df 5d be ca 2b 78 bd cd 07 a2 3e be 06 c8 3e
       -0.21667197 -0.060588636 0.31646577 0.39067644
0002d0 07 48 db be 8e 54 95 3e 41 52 ab be 5e c8 cb 3e
       -0.4282839 0.29166073 -0.33461192 0.39801306
0002e0 63 9d f4 3e c9 0b 65 be e9 d1 e8 be 24 13 6d be
       0.47776327 -0.22367777 -0.4547265 -0.23151833
0002f0 ae 70 62 3e 5c fa 03 3f bd 21 13 bf f0 5e 35 bf
       0.22113296 0.51553893 -0.57473356 -0.7084799
000300 8b 6a d1 be 44 21 b1 3e 06 ea a1 be 3b 89 87 be
       -0.40901598 0.34595692 -0.31623858 -0.26471886
000310 35 32 d1 3e f2 27 fc be e6 d3 d6 3d ae 30 05 bd
       0.40858617 -0.49249226 0.10489635 -0.032517128
000320 6d ee b5 3e f7 00 c2 3e 92 6f 66 be 5a 77 97 be
       0.35533467 0.3789136 -0.22503498 -0.29583246
000330 c8 bd bd 3e ba 1e 0a 3f 17 74 c8 3e 8b e8 fa 3e
       0.37058854 0.53953135 0.3915107 0.4900554
000340 a7 42 b5 be 47 ba 7a 3e 1f 10 db 3e 4e 66 33 3f
       -0.35402414 0.24485122 0.42785737 0.7007798
000350 6e f0 08 bf 5e d1 c3 be 69 d3 90 be 0e ce d1 3e
       -0.53491867 -0.38245672 -0.28286293 0.4097752
000360 2c 9c 77 be 26 e6 11 bf f8 b0 c2 be 16 dd 3b 3e
       -0.24180669 -0.56991804 -0.3802564 0.18346056
000370 07 ae c3 3e b9 b2 fd 3e d2 f2 cb 3e c6 48 ad 3e
       0.3821871 0.49550417 0.39833695 0.33844584
000380 b0 47 99 bd 58 d3 c6 be 85 8e b7 bd 89 08 05 bf
       -0.074843764 -0.38833117 -0.0896273 -0.5196615
000390 5f 83 1c 3d 96 de f6 3e 89 bc a4 be 74 bf bd be
       0.038211223 0.48216695 -0.3217509 -0.3706013
0003a0 fe 07 1b 3f 3e 61 3e 3e 87 8a b4 3e 06 26 16 3f
       0.6055907 0.18591782 0.35261938 0.5865177
0003b0 c6 ca 15 bf 45 fb dd be 77 c5 a8 3e 8a c1 0d 3f
       -0.5851253 -0.43355766 0.32963154 0.5537344
0003c0 0d 8d dd 3e 69 52 5e 3d 7c 12 10 be d9 29 e1 be
       0.43271676 0.05427781 -0.14069551 -0.4397724
0003d0 00 f0 dd 3e 0c 83 24 3e e8 0b 9e 3e 23 62 f6 be
       0.43347168 0.16065615 0.3086846 -0.48121747
0003e0 4a fa 07 3f 31 25 a9 3e 5b 28 2f be 27 6c 2a be
       0.53116286 0.33036187 -0.17105238 -0.1664282
0003f0 0e 2d da 3e 4e 51 ab be a0 b4 c6 be 65 1c 3f bd
       0.426125 -0.33460468 -0.3880968 -0.04665794

inverse_model.2.bias f4 [9]
000000 7e a8 b0 bd 24 0f 05 3d 01 50 51 bc 8e f6 18 3d
       -0.08625887 0.032485142 -0.012775422 0.037344508
000010 31 8c d8 bd 0c 0b c5 3a 06 f8 1e bd 5b 67 74 3b
       -0.105736144 0.00150332 -0.038810752 0.003729305
000020 3f e2 7a bc
       -0.01531273

forward_model.0.weight f4 [128, 27]
000000 8d 60 73 be 34 ac 93 bd c3 ee 94 be db 3c ec bd
       -0.237673 -0.072105795 -0.2908841 -0.11535045
000010 da bb 03 be 18 18 76 3b 09 fd 9d 3d 2b 61 77 3d
       -0.12864628 0.0037550982 0.07714278 0.0603954
000020 26 9c e3 3d 03 a6 68 3d 0c d5 1b be 42 7e df bd
       0.11113767 0.056798946 -0.1521799 -0.10912754
000030 48 df 34 3e 42 78 29 be b2 b3 d4 bd 51 9f 15 bd
       0.176633 -0.16549781 -0.10385837 -0.03652889
000040 0a 93 29 be 88 99 14 3e 8e ba d9 bc 0f 95 b1 bd
       -0.16559997 0.14511693 -0.026578214 -0.08671009
000050 c1 2b 8b 3d 59 28 ae 3d a9 62 50 bd 59 f6 a4 bd
       0.06795455 0.085037895 -0.05087534 -0.080547996
000060 38 a7 a1 bd 5e 06 b6 3d 0d ec 7b 3b 05 0e 94 3d
       -0.078932226 0.08887933 0.0038440258 0.072292365
000070 30 d4 4c be ef e0 96 3d 8f a6 29 bc 6d d6 4e be
       -0.20002818 0.073671214 -0.010354652 -0.20198984
000080 23 69 07 be ac 06 d4 bd 2d 73 19 3d b1 d9 05 be
       -0.132237 -0.10352835 0.037463356 -0.13071324
000090 e2 b3 e3 3c 7f 95 30 3e 04 f4 ea 3d aa 6e c0 3d
       0.027795736 0.17244528 0.114723235 0.093961075
0000a0 2d 25 29 bc 9f 82 d2 3d ce 5b c9 bc 8e c5 97 3c
       -0.010323805 0.1027882 -0.024579909 0.018526819
0000b0 a5 69 39 3e 90 a4 7a bd ea 79 05 be 0f 22 80 bd
       0.18106706 -0.061192095 -0.13034788 -0.06256496
0000c0 16 7b 5a bd 03 a0 b6 bd 97 1f 2a bb e0 dd 10 bd
       -0.05334004 -0.089172386 -0.002595877 -0.035367846
0000d0 38 4b 9a bc bc df 0c 3e 47 d0 e6 3c 22 c7 bc bc
       -0.018834695 0.13757223 0.028175486 -0.023044173
0000e0 d5 62 05 3e c7 fc b4 3d be 19 89 3e 64 d0 a9 bd
       0.13025983 0.08837276 0.26777452 -0.082917005
0000f0 49 9b 34 3e a9 ee e8 bd 60 dc 20 bc cc 46 84 3d
       0.17637362 -0.11373646 -0.0098181665 0.06458816
000100 e9 20 48 bb a8 72 22 3e 27 19 f3 bd 78 cd 44 3e
       -0.0030537194 0.1586405 -0.11870032 0.19219005
000110 fe bc fb bc 63 56 26 be e1 31 2c 3e 46 84 3e 3e
       -0.030729767 -0.16243891 0.16815902 0.18605146
000120 db 0b 09 3e fd 87 0e 3e b9 66 ef 3c 4b 5e c7 3d
       0.13383429 0.13919063 0.029223787 0.09734782
000130 8f 6f 0b 3e 62 a6 45 3e 16 5a f4 3d cd 2b 09 bc
       0.13616775 0.19301751 0.11931245 -0.008372259
000140 3d 73 69 bd 6d 61 3a bd 69 d2 ed 3d 06 e2 d7 bd
       -0.056994665 -0.04550307 0.11612398 -0.105411574
000150 a3 0f 96 be c5 b4 7b be c5 74 53 be 04 9e fc bc
       -0.29308805 -0.24580677 -0.20650013 -0.030837066
000160 42 1e 72 3d 60 52 ae 3d c1 b6 9d 3d 12 9e 21 be
       0.059110887 0.085118055 0.07700873 -0.15782955
000170 32 28 34 be c3 6c c3 3d dc 06 8c bd 99 b5 b6 3c
       -0.17593458 0.09542229 -0.06837246 0.02230339
000180 ca 06 f9 3d ff 75 0f be a1 3d b4 3d 09 72 ca bd
       0.12159498 -0.14009856 0.08800817 -0.09885032
000190 64 41 3e 3e f5 96 78 3d 13 29 3e 3e 76 6d 6a 3d
       0.18579632 0.06069084 0.18570356 0.057233296
0001a0 94 7f ea 3d 8a d1 03 3d 3c d4 c5 3d 30 09 3b 3d
       0.11450115 0.032182254 0.09659621 0.04566306
0001b0 7a 7f 85 be 0c 11 d1 3d e9 97 48 be 2c e6 4e 3d
       -0.2607382 0.102083296 -0.19589199 0.050512478
0001c0 d6 0e f3 bc eb e3 90 bd ab 43 ed bd 52 9f 06 be
       -0.02967016 -0.07074722 -0.11585172 -0.13146713
0001d0 1a 0c 0f 3e 2c fb 04 bd ca 9a fc bc 82 61 06 be
       0.1396946 -0.0324661 -0.030835528 -0.13123134
0001e0 cb d0 03 3e 12 5f 40 be d3 b9 a1 bd 38 eb 24 bc
       0.12872617 -0.18786266 -0.07896771 -0.010065846
0001f0 73 03 1a be d3 43 d4 bb c9 f9 cf bd a6 a4 ac bd
       -0.15040378 -0.006477812 -0.101550646 -0.08429842
000200 f1 b9 77 bd 21 cf 66 bd 75 a9 d8 3b 18 e6 1c 3e
       -0.060480062 -0.056349877 0.0066119977 0.15322149
000210 5a 5e 32 3e 4f 6e 7c bc 3e 96 b0 3d c6 00 6e 3d
       0.17418805 -0.015407159 0.086224064 0.058106206
000220 44 93 ec bd ca cc 11 3d e1 2b 34 3d 96 3b 08 be
       -0.11551526 0.035595693 0.04398716 -0.1330398
000230 b3 8a 21 be 90 5b 0a be 50 86 08 3e a1 36 e6 bd
       -0.15775566 -0.13511491 0.13332486 -0.112408884
000240 85 f6 10 3e b5 2b c6 bd b0 1b 04 3e 9a 3f c2 3d
       0.1415654 -0.09676305 0.12901187 0.09484787
000250 1a ab 98 3c 99 55 07 3e 31 1b 41 be 7c 1d 08 3e
       0.018636275 0.13216247 -0.18858029 0.13292497
000260 1a bb 3b be 0b f8 a8 3d 31 36 00 3e a9 74 2f be
       -0.18333092 0.082504354 0.12520672 -0.17134346
000270 08 e8 43 be d7 cb 8b bd c3 3b d3 bd d4 5b db 3d
       -0.19131482 -0.06825989 -0.10314133 0.10710874
000280 f5 20 ef bd f1 42 e2 bd 72 40 98 3e e1 ba 29 3e
       -0.11676208 -0.11047924 0.29736668 0.16575195
000290 9e f5 4a 3e 1d 61 28 be 5a 82 7e 3c 29 a4 36 3e
       0.19820258 -0.16443296 0.015534008 0.1783606
0002a0 53 87 d2 bd 6c f9 09 3c 65 4c 0a bd 00 62 39 3c
       -0.10279717 0.008421283 -0.03376426 0.011314869
0002b0 3f de 11 3b 17 b8 1f bd da 3d fe 3c 25 2c da bd
       0.0022257713 -0.03899392 0.031035352 -0.10652951
0002c0 34 45 06 3e 99 1c 0e bd 87 6c 19 be ce 1f ba bc
       0.13112336 -0.03469524 -0.14982806 -0.022720244
0002d0 16 64 ee bb fd 9c 72 bd 37 76 a8 3d 9d 45 ed bd
       -0.007275115 -0.059231747 0.08225673 -0.11585543
0002e0 7f 1b d4 3d 8f 9f 59 bc 67 67 09 3e 31 eb 54 bd
       0.10356807 -0.013282671 0.13418351 -0.05198211
0002f0 fe 3a 0d 3e ab cf 82 3e 5f 3c c3 bd 40 11 80 be
       0.13792035 0.25549063 -0.09532999 -0.2501316
000300 b2 7a 09 be 0d 46 d6 bd 28 a8 d2 bc 37 f9 1c 3e
       -0.13425711 -0.1046258 -0.025714949 0.15329443
000310 40 ff 06 3e d0 f5 db bd dc 45 3f 3e e6 8c 3a 3d
       0.13183308 -0.107402444 0.18678993 0.045544527
000320 95 6e 39 be 84 9f 40 be a6 27 23 be 92 57 90 bc
       -0.1810859 -0.1881085 -0.15933093 -0.017619882
000330 8d 98 14 3d f7 45 78 bd 82 c0 3b be 19 27 d4 bc
       0.036278296 -0.0606136 -0.18335155 -0.02589755
000340 f7 f9 f7 3c 6e b7 b8 3c 0a 81 fc 3d 44 12 ca bc
       0.03027056 0.022548404 0.123293 -0.024666913
000350 5b 70 0d bd 4d a9 a1 bc dd cb ce bd 0c a8 a3 3d
       -0.03453098 -0.01973405 -0.100974776 0.07991037
000360 40 c9 4d be bc 26 93 3d ac 4c 0c bd 38 d0 a3 bd
       -0.20096302 0.07185122 -0.034252807 -0.07998699
000370 6b 5b 1f be af 18 87 be c4 73 17 3c 1d 3e 9d bd
       -0.15562217 -0.2638602 0.009243909 -0.07677863
000380 f5 7a f0 3d bb 49 ef bc cf d3 a0 bc 1a f5 0a be
       0.11742202 -0.029209962 -0.019632248 -0.13570061
000390 44 07 0f be 45 b1 04 be e8 b3 29 be 49 27 61 bd
       -0.13967615 -0.12958248 -0.16572535 -0.054969106
0003a0 cc 31 1d be ee 90 3c bd 38 b0 2e 3e 0f f0 45 3d
       -0.15351027 -0.046036653 0.1705941 0.04832464
0003b0 b0 40 9f bc ef b8 be 3c 36 55 05 3e 1a 0f a8 3d
       -0.019440025 0.023281543 0.13020787 0.082060054
0003c0 d7 3c 06 3e 66 78 62 bd 08 72 db 3d dc 04 e5 3d
       0.13109146 -0.055290602 0.10715109 0.111825675
0003d0 29 6f bb 3c c0 45 06 3d 5e a4 b9 bc 28 05 9a bd
       0.022880154 0.032781363 -0.022661384 -0.07520515
0003e0 3d 00 e4 3d b8 da 0f be ec 53 34 3e 56 57 31 be
       0.11132858 -0.14048278 0.17610139 -0.17318472
0003f0 5a 90 b8 3d d9 4a 92 3d fe a9 25 3e f9 98 16 bd
       0.09011908 0.07143182 0.16178128 -0.03676698

forward_model.0.bias f4 [128]
000000 37 3d 25 3e f1 57 10 bc cf 3b 29 3e d2 2b 43 3e
       0.16136633 -0.008810029 0.16526721 0.19059685
000010 8b 71 39 3e c4 90 82 bd 20 35 0f 3e 61 de 17 3e
       0.1810972 -0.06375268 0.1398511 0.14830925
000020 b2 fa f7 3d 79 f5 4b be 45 84 3b 3e 3f 8b 40 be
       0.12108363 -0.19917859 0.18312176 -0.18803118
000030 75 27 36 3e fa 69 02 be 61 c7 93 bd 1c 71 ce 3d
       0.17788489 -0.1273574 -0.07215763 0.10080168
000040 f2 be ec bd af 9f b2 bd 67 c9 24 3e 38 b1 57 3e
       -0.115598574 -0.087218635 0.16092454 0.21063697
000050 b4 4c 13 3e c2 b8 d0 bc 28 82 66 bd ab 79 05 bd
       0.14384729 -0.025478724 -0.05627647 -0.032586735
000060 8a c3 33 3e 3f b4 1d bd ce 0e 10 3d ee c1 cb bd
       0.17555061 -0.038501974 0.03517037 -0.099490985
000070 87 53 44 3e 5b 57 77 3d 00 5c ad 3d 3e 86 07 3e
       0.19172488 0.060386043 0.08464813 0.13234803
000080 df 75 1a 3e 07 d7 3b 3e d2 98 12 3e c0 e6 4e 3e
       0.15084027 0.18343745 0.14316109 0.20205212
000090 5c 9c c4 bd 8e ca 6f bd b9 54 1b be ff e4 9b 3d
       -0.09600136 -0.05854278 -0.15169038 0.07612037
0000a0 94 b9 90 bd 51 10 3b 3e 01 d0 c0 3d 50 81 ba ba
       -0.07066646 0.18267943 0.094146736 -0.0014229212
0000b0 15 db 01 3e b6 7d 69 3d c1 c5 71 bd db 28 23 3e
       0.1268123 0.057004653 -0.059026483 0.15933554
0000c0 c8 db c5 bd ef 9b 52 bd 09 cd 4d 3e fb 2f 76 bd
       -0.096610606 -0.05141824 0.20097746 -0.06010435
0000d0 82 b2 99 bc fe 2f 47 3e bd 67 46 3e d0 6a f9 bd
       -0.018761877 0.19451901 0.1937551 -0.12178576
0000e0 79 3f 52 3c 70 37 5b 3d cb f2 ff 3d 2f 74 a0 3d
       0.012832516 0.053519666 0.12497481 0.0783466
0000f0 2e 1d ca bd f1 b9 1f bd d3 6d 2c 3e 57 9a 0a 3e
       -0.09868847 -0.038995687 0.1683877 0.13535438
000100 37 b6 0e 3e 9e d6 26 bd 2f 5c 1c bd 6b 39 56 3d
       0.13936697 -0.04073202 -0.03817385 0.05230085
000110 56 0b 13 bd 71 9b b4 bb 30 8c 1e 3d d7 7d 65 3d
       -0.035899483 -0.005511694 0.038707912 0.056028213
000120 88 bd 4b 3d c1 3d a5 3c 86 f5 0a bd 1c c2 5f 3d
       0.049741298 0.020171048 -0.033925556 0.054628477
000130 74 0c 1b 3d 35 5f 27 bd d5 b0 1b 3e 2a b6 08 be
       0.037853673 -0.04086228 0.15204175 -0.1335074
000140 f5 d9 01 be 3d ab 4f 3e 91 53 48 3e f1 19 42 be
       -0.126808 0.20280166 0.19563128 -0.18955208
000150 49 4f df 3d 23 68 26 3e d7 e3 3a 39 6e 66 19 be
       0.10903794 0.16250663 0.00017823219 -0.1498048
000160 41 09 04 bd 31 c9 24 3e e0 36 fb bd 79 71 4b 3e
       -0.032235388 0.16092373 -0.12266326 0.19867505
000170 b7 10 dd bb 92 fd 42 3e c2 10 f6 bc e4 76 42 3e
       -0.0067463773 0.19042042 -0.030037288 0.18990666
000180 15 0a a3 bc 5c 98 24 3e cc 7c 27 3e 87 a8 36 3e
       -0.019902268 0.16073745 0.163562 0.17837726
000190 d3 21 a9 3c ff cd b8 bd 44 52 b7 3d f4 1f 9d bb
       0.020646011 -0.09023666 0.08951238 -0.004795069
0001a0 a1 e1 3e bc bb 4b 47 be 21 39 e5 bd de 19 95 3d
       -0.011650474 -0.19462483 -0.11192537 0.072803244
0001b0 92 bc 49 bd c6 a4 24 bd 52 39 07 be 4b fc 2c be
       -0.0492521 -0.040196203 -0.1320546 -0.16893117
0001c0 04 b7 54 be e1 7b fb 3d 1d 01 32 3e dc a0 42 3e
       -0.2077294 0.122794874 0.17383237 0.19006675
0001d0 f8 10 cb 3d 12 2b 40 bd cf 3a a4 3d e9 b9 17 3d
       0.09915346 -0.046916075 0.08019029 0.037042532
0001e0 e0 49 38 3e 0e 48 b9 bd 58 f2 f9 3d 93 5c 86 bd
       0.17996931 -0.090469465 0.122044265 -0.06560626
0001f0 0e de 0d 3e 9f 7a 10 3e 3f df 1d 3e 83 9f 31 3e
       0.13854238 0.14109276 0.15417193 0.17346005

forward_model.2.weight f4 [18, 128]
000000 fa 03 13 be 9a 33 5c 3d e8 0b 27 3d da bf 84 bc
       -0.14356986 0.05376015 0.04078284 -0.016204763
000010 10 ce d5 bd 6e fa 89 bc e6 54 de 3d c6 83 f5 3d
       -0.10439694 -0.016843047 0.10856037 0.119880244
000020 b5 6b c1 bd a7 41 61 bc e4 e7 ef bd c2 ed 9a 3c
       -0.094443716 -0.013748563 -0.117141515 0.0189122
000030 f7 71 41 bd a6 b0 87 bd a7 41 d5 3a 44 b0 86 3d
       -0.047227826 -0.0662549 0.0016270176 0.06576589
000040 25 f7 12 3c e9 b3 32 3b fc 96 b6 3c b8 4d dd bd
       0.008970057 0.002726788 0.022288792 -0.10805839
000050 41 ce b3 3d 63 2c 88 bd ed 78 cc bd 11 3f 93 3d
       0.08779574 -0.06649091 -0.09984002 0.07189763
000060 08 8d 6c bd bf 7e 03 bd 9f ad 6c 3c 44 a7 6d bd
       -0.057751685 -0.032103296 0.014445691 -0.058020845
000070 1b 6c 01 bc 1b 39 4f bd 18 97 2d bd d2 39 fb bc
       -0.0078993095 -0.05059157 -0.042380422 -0.03066722
000080 e0 ad 24 bb 60 c2 1a 3e f2 38 e7 bd c4 7d 18 3d
       -0.0025128052 0.1511321 -0.11290158 0.037229314
000090 16 dc 51 bd bb 4e 78 bb cc 94 35 3d 4f e8 e7 3d
       -0.05123528 -0.0037888724 0.044331357 0.11323606
0000a0 28 10 2f 3e 35 d9 f2 3c c1 ef 29 bd af 71 11 3c
       0.17096007 0.029644588 -0.041488413 0.008877202
0000b0 3f 2b 7b bd 92 fa c2 3c ec b2 30 bd 8f 51 8a 3d
       -0.06132054 0.023801122 -0.043139383 0.06753837
0000c0 e2 e8 d9 3d 6c 03 8e bd 98 95 b2 bd 6c 75 ed bc
       0.10640122 -0.069342464 -0.08719939 -0.028986655
0000d0 f8 50 3f bd f7 7b b6 bd cf 36 8f bd 39 b7 72 3d
       -0.046708077 -0.08910363 -0.06992876 0.059256766
0000e0 66 5f 83 3e e7 96 e1 bd d3 fc 0b 3e e7 94 b3 bd
       0.2565872 -0.110151105 0.13670664 -0.08768635
0000f0 96 c6 34 bc 95 83 3a 3c 52 45 25 3d e7 9d dd bd
       -0.011033675 0.011383911 0.040349312 -0.10821133
000100 b2 0b 1a be 9c 5b 80 bd a3 ae a0 3d 8f aa e8 3d
       -0.15043524 -0.06267473 0.07845809 0.113606565
000110 75 ee ed bc 95 f3 b7 bc c3 b0 f0 3d a1 8f 54 bc
       -0.02904437 -0.022455016 0.117524646 -0.012973697
000120 31 86 23 3d 38 fa bc bd ff ac 8b bd aa 20 2a 3e
       0.039922897 -0.09227413 -0.06820106 0.16614023
000130 bc 80 f9 bd 5f c1 b0 bc e0 63 38 3d e2 8c 12 bd
       -0.12182757 -0.021576582 0.045017123 -0.035778888
000140 fc d5 a1 bc 0e d8 d5 3d fa d7 14 3e b0 0f b9 3c
       -0.019755356 0.104416 0.14535514 0.022590488
000150 f5 0a b8 bd e4 38 b1 bd d7 0c bf bd dd 6a a6 bc
       -0.08986465 -0.08653429 -0.09328621 -0.020314628
000160 85 af 21 3c f1 79 7d bd 8e 95 19 3d e9 59 bc 3d
       0.009868507 -0.06188387 0.037496142 0.091968365
000170 3d 04 84 bd 8e 91 63 3c 02 5c b5 3d 07 27 0c 3d
       -0.06446121 0.013889683 0.0885544 0.034216907
000180 33 d9 da ba 51 c9 70 bd ea e8 8f 3c ff 62 f5 bd
       -0.001669681 -0.05878574 0.017567117 -0.11981773
000190 bf 22 cc 3c 47 7d bc 3c 23 21 1e 3c 64 d0 90 bd
       0.024918912 0.023008956 0.009651455 -0.07070997
0001a0 86 bf 38 bd 2d 70 44 3d cd 24 e9 3d 07 08 8d bc
       -0.045104526 0.04795854 0.11383972 -0.017215742
0001b0 6b 80 d0 3c e5 24 80 3d 90 16 b6 bd 94 fa 36 3d
       0.02545186 0.06257037 -0.08891022 0.044672564
0001c0 46 40 22 bd 4a bb 9b bd 4c 94 e5 3d 06 f6 1a be
       -0.039612077 -0.07604082 0.11209926 -0.15132913
0001d0 96 e6 a4 3d 26 27 a2 3d 3d 5f 9b bd e5 ee 89 b9
       0.08051793 0.07917623 -0.07586525 -0.00026308667
0001e0 9a 25 ae 3b 87 20 df bc 47 6a 8f 3c 58 22 2d bd
       0.005314541 -0.02723719 0.017506732 -0.04226908
0001f0 6d 46 3d 3d b6 7d 97 3c 1e 2d 26 3d 61 7b a6 3c
       0.04620974 0.01849256 0.04057037 0.020322504
000200 e2 02 77 bc 22 c6 8b bd 9e 09 0a 3d ff f8 33 3d
       -0.015076371 -0.068249 0.033700578 0.043938633
000210 d4 8b f9 3c 46 93 d9 bd 4f b8 5e 3d 72 1c 12 bd
       0.030462183 -0.10623793 0.05437499 -0.03567166
000220 92 78 4b bb 46 e6 a8 bc 43 63 5c bd 26 84 3c bc
       -0.0031047207 -0.020617615 -0.0538056 -0.011506116
000230 32 03 08 3e 19 ff 75 3d 09 03 40 bd dc d7 f9 bc
       0.13282469 0.060057733 -0.046877895 -0.030498438
000240 cf f7 8e bc db 01 12 3e 52 3a 00 be 8c cf 0c be
       -0.017452149 0.1425852 -0.12522247 -0.13751048
000250 2e bb b3 3c 86 82 70 be 26 fa 0a be 2c 54 72 3d
       0.02193984 -0.2348729 -0.13571987 0.059162304
000260 17 b1 f8 3d dd 00 e4 3c ae 74 dc bd 6b 84 bf bd
       0.12143152 0.027832443 -0.107644424 -0.093514286
000270 a9 79 b7 3d f3 58 9c bd 62 f0 e9 3b dd 6f 2b be
       0.08958752 -0.07634153 0.0071392516 -0.16741891
000280 18 6a c1 3b 39 f7 b9 bd d1 f0 88 bd cd a6 72 bd
       0.00590254 -0.09080357 -0.06686557 -0.059241105
000290 fa c8 7d 3d 29 37 7c 3d 71 37 16 3d 0e a2 5f 3c
       0.061959244 0.061576042 0.036673967 0.013649477
0002a0 70 4a ae 3d f2 12 94 bc af 92 01 be 84 af 10 bb
       0.085102916 -0.01807544 -0.12653612 -0.0022077272
0002b0 6d d6 e7 3d da 1f a9 3d 64 10 19 bd b6 6e 3b bd
       0.11320195 0.08258028 -0.037369147 -0.04575988
0002c0 42 86 81 bd 46 aa 29 bd 0e eb 34 3d 31 31 dc bd
       -0.06324436 -0.04142215 0.044169478 -0.1075157
0002d0 c3 d6 e1 3d 9c 96 f2 3d f1 ac 9c bd fc fa 12 3e
       0.11027291 0.11845133 -0.076501735 0.14353555
0002e0 37 c0 e8 3d c5 cf 0a 3c 1f cf 92 bd c8 ff 53 3e
       0.11364787 0.008472388 -0.071684115 0.20703042
0002f0 6b 3f e3 3d dc e9 07 be 36 7e cf 3c 50 2a e3 bc
       0.110960804 -0.13272804 0.025328737 -0.027730137
000300 e6 50 9e 3c 89 25 f5 3d cd 5f 0f bd e6 10 9e bd
       0.019325685 0.1197005 -0.035003472 -0.07718067
000310 ad 65 45 3c 6a 78 ee 3d f8 f6 ad 3d 63 c1 e5 3d
       0.012048167 0.11644061 0.08494371 0.11218526
000320 35 11 71 3d cf 46 20 bc 77 c6 37 bd 1f 40 57 3d
       0.0588543 -0.009782507 -0.044867005 0.052551385
000330 35 74 db 3d 86 c5 c1 bd f5 f4 01 3e a6 51 8d 3d
       0.10715524 -0.09461503 0.126911 0.06900339
000340 53 04 53 bd 12 f0 24 3d d9 a1 08 be f3 bb 10 bc
       -0.051517796 0.04026801 -0.1334299 -0.008833873
000350 32 e6 51 3d b0 00 70 bd 10 e9 9b 3c ab 4e 26 3c
       0.051244922 -0.058594406 0.019032031 0.010150592
000360 5d d9 f7 bd d7 49 e2 3c 73 86 e8 bb 71 e9 11 3d
       -0.12102006 0.0276231 -0.0070961057 0.035623018
000370 b3 d0 b6 bd 37 86 6c 3d 68 ea 81 3d 67 1e 6a 3b
       -0.08926525 0.057745185 0.063435376 0.0035723688
000380 9b 10 48 be b9 6d 10 be b2 55 fb bd 90 74 19 3b
       -0.19537584 -0.14104356 -0.122722045 0.0023415424
000390 14 83 14 bd df db c7 bd f8 ce 9c ba 32 d4 45 bd
       -0.03625782 -0.09758734 -0.0011963537 -0.04829807
0003a0 61 30 8a 3d 8e 75 c6 3c 08 40 b2 3c b3 1f 57 bd
       0.06747509 0.024225976 0.021759048 -0.052520465
0003b0 09 41 cb b9 e7 ec ef 3d 88 1f 60 bd 10 e1 ca bd
       -0.00038767632 0.117151074 -0.05471757 -0.099062085
0003c0 cd b9 86 3d a9 27 37 3d 2d 8a 08 bc 26 d0 ce 3c
       0.065784074 0.044715557 -0.008333725 0.025245737
0003d0 60 f0 e3 3d de 6d 9b bc 60 2e de 3b 41 06 a3 3d
       0.11129832 -0.018973287 0.0067804307 0.07960177
0003e0 79 86 99 bb 9a dd 92 bd 72 a3 12 bd 69 a9 e9 3d
       -0.00468522 -0.071711734 -0.035800405 0.114092655
0003f0 45 2c 07 3d ae a3 ca 3c 92 ce 24 bd 3c b5 bb bd
       0.033001203 0.024736252 -0.040236063 -0.09165427

forward_model.2.bias f4 [18]
000000 31 f7 59 3d e8 19 b6 3d 66 9e 71 3d f4 9f 25 bd
       0.053214256 0.0889166 0.05898895 -0.040435746
000010 a9 5e a4 bc e5 87 71 3d 17 e9 84 bd 4f 47 82 bd
       -0.020064669 0.05896749 -0.06489771 -0.06361257
000020 7d 53 7a bd 4b ff 79 bd 39 9d 97 3c 4d ff b1 bc
       -0.061114777 -0.061034482 0.018507587 -0.021728182
000030 17 57 cb 3b e9 cc 43 3d 68 d6 82 bd 55 d8 28 3d
       0.0062054503 0.04780284 -0.06388551 0.041221935
000040 75 e1 d0 bb 4d e4 23 bd
       -0.006374533 -0.040012646
