models/navigation_policy.pth (torch, 17644 bytes, 5 tensors)

shared.0.weight f4 [128, 18]
000000 30 1a ad bd 02 6a fc 3a 18 e6 5e 3e a8 4a b0 bc
       -0.084522605 0.0019257667 0.21767461 -0.021519974
000010 f3 ac 0e 3e 1f c3 82 be b3 d4 90 be 00 94 d6 be
       0.13933162 -0.2553949 -0.28287277 -0.4190979
000020 69 44 53 3e d3 8e d7 bd d8 11 16 bf 4a 7d c7 be
       0.20631565 -0.105252884 -0.5862098 -0.38962775
000030 a5 f3 ab be 0f 53 da be f2 fc c4 bc 1e 28 4c be
       -0.33584324 -0.42641494 -0.024046395 -0.19937178
000040 be 80 8d bd 29 74 2a be cc 61 54 3c 30 f5 04 bb
       -0.06909321 -0.16645874 0.01296277 -0.0020287745
000050 d5 86 34 bd e1 3d d1 3d 21 78 56 3f bc 60 35 3f
       -0.0440739 0.102168806 0.8377705 0.7085073
000060 88 d3 04 3e 99 08 30 be a8 7a 2b 3c bd 53 e7 3d
       0.12971318 -0.1719078 0.010466255 0.11295269
000070 a0 6a 48 bd 26 eb a3 be 33 75 bf be c4 f5 a6 be
       -0.04892981 -0.32015342 -0.37394103 -0.3260938
000080 51 77 93 3e a4 b3 96 be 8e d8 58 be 99 7b 2f 3e
       0.2880197 -0.2943393 -0.21176359 0.17136993
000090 5f 32 59 3c 11 72 27 bc 37 15 a2 3b 2a d4 41 3e
       0.013256638 -0.010220067 0.0049463767 0.1892859
0000a0 53 45 8c bc b3 d8 8a 3d c2 6e 41 bc d1 be 41 be
       -0.0171229 0.06779613 -0.011806192 -0.18920447
0000b0 6b 48 d5 be 3c 54 25 be f2 61 39 bd e6 35 85 3d
       -0.41656813 -0.16145414 -0.045259424 0.06504421
0000c0 38 fe 01 bf 42 76 93 3c dd 21 45 be 6d 0d 04 bc
       -0.5077853 0.018000726 -0.19251199 -0.008059842
0000d0 f4 22 21 bd a8 ef d6 be 92 e4 19 be f0 4f 8d bd
       -0.039339975 -0.41979718 -0.15028599 -0.069000125
0000e0 5f a6 46 be 46 8f 96 be c1 93 73 bf a3 3e 53 bf
       -0.19399403 -0.29406184 -0.9514733 -0.8251745
0000f0 49 52 7b be b7 cb 85 be 65 6c 49 be ea 89 ea be
       -0.24543108 -0.26131985 -0.19670255 -0.45808345
000100 86 0a 66 be 85 cc 8d be 27 ff 72 bc df f9 5c 3e
       -0.22464952 -0.276951 -0.014831341 0.21579693
000110 a3 64 25 be 2c 7c a6 be 95 6a 65 3d 6f 96 60 3d
       -0.16151671 -0.3251661 0.056009848 0.054830965
000120 a2 95 83 3d 6d 97 7e bd 21 e5 a7 3e 9b 74 cf 3d
       0.064250246 -0.06215613 0.32792 0.101296626
000130 a0 1e a1 3d f6 91 45 bb 6f fb 85 3e 5c 75 98 3c
       0.078671694 -0.0030146814 0.2616839 0.018610649
000140 bd 63 72 3e 17 db 83 3a cc be 7e be 61 ad bc 3c
       0.2367086 0.0010059801 -0.2487747 0.023031892
000150 d4 41 2d 3e 53 a8 af bb ce f1 a0 3c ac c7 d9 bd
       0.16919643 -0.005360642 0.019646551 -0.106337875
000160 95 d8 91 3c a7 b2 bd bd e7 8c 28 bd 2f 83 88 3c
       0.01780347 -0.09262591 -0.04115 0.016664116
000170 32 50 e1 3d 3b a9 80 bd f4 0d 01 be 28 50 3f bc
       0.11001624 -0.06282278 -0.12602979 -0.011676826
000180 97 b3 9b 3d 5d 7a 35 be 9a 64 06 bd ad cb d6 3d
       0.076026134 -0.17722459 -0.032810785 0.10488067
000190 19 33 5b be 46 c8 18 3e c8 ee 0c be 75 0c 25 bd
       -0.21406211 0.14920148 -0.13762963 -0.040295083
0001a0 cb 52 71 be 08 cd 86 bd bf 03 00 3e 34 d4 81 3c
       -0.2356674 -0.06582075 0.12501429 0.015848257
0001b0 b0 7f 8f 3d 65 b9 60 3d be 35 90 3e e9 16 c4 bd
       0.07006776 0.054864306 0.28166002 -0.09574682
0001c0 ee a5 e1 3e f8 e2 e0 bd de cd 69 be 1d 0d a5 be
       0.44071907 -0.10980791 -0.22832438 -0.32236567
0001d0 d3 db 04 3d 3f c2 19 be 4e 3d 28 bf 71 41 55 be
       0.032436203 -0.15015505 -0.65718544 -0.20825745
0001e0 68 77 83 3e 27 37 ae 3d 3b 3e 2c 3d dc 69 46 bd
       0.25677037 0.08506613 0.042051535 -0.0484408
0001f0 bc 94 bd be 58 ce 93 be b0 b0 87 3d b1 ae d8 3d
       -0.37027538 -0.28868365 0.06625497 0.10580195
000200 0a 10 f9 3d 04 e5 8f bc cb 24 9d be 66 78 b0 be
       0.12161262 -0.017565258 -0.30692133 -0.34466857
000210 cc 30 d2 bc 1e d8 be be 08 23 86 be d5 d7 97 be
       -0.025658034 -0.3727426 -0.26198602 -0.29656854
000220 c5 ab 9b be d3 1d db bd 80 91 3b be 73 95 12 3c
       -0.30404487 -0.10699048 -0.18317223 0.008946764
000230 67 2d 40 3d 4d b3 15 be 3a d0 13 3e 9c a5 18 3c
       0.0469183 -0.14619179 0.14434901 0.009316828
000240 b9 df a2 3d 54 91 4f 3d 02 06 8d bc d1 cd de 3c
       0.07952828 0.050675705 -0.017214779 0.02719775
000250 ba 90 b7 bd 6e 3a 35 bc 09 b6 e9 bd 19 d6 db 3c
       -0.08963151 -0.011061294 -0.114116736 0.026835488
000260 a6 b5 3d 3e a2 1b e1 3c d5 b0 9a be e1 d7 6f be
       0.18526325 0.027478997 -0.30213037 -0.23422195
000270 8e 6b ce 3d b5 4f a0 3d 29 b8 ff 37 dc 4a 0f 3e
       0.10079108 0.07827703 3.0484125e-05 0.139934
000280 7f 28 2f 3d ad 58 d6 bd f1 1c aa 3c 02 3e c2 bd
       0.04276323 -0.10466132 0.020765753 -0.09484483
000290 ed 8f 18 3d 8a 8a 62 be a3 da ae bc 77 a3 62 3d
       0.037246633 -0.22123161 -0.021344488 0.055331673
0002a0 4c 38 4d 3e 17 23 fc bd 58 3c 74 be 34 53 42 3e
       0.20041007 -0.1231138 -0.23851144 0.18977052
0002b0 6c 94 a4 be 02 8d 44 3e 45 01 39 3e b6 e6 72 3d
       -0.32144487 0.19194415 0.1806689 0.059302054
0002c0 e6 79 ba 3d dc b0 a1 bc a3 95 46 be 54 2a 65 3e
       0.091052815 -0.019737653 -0.1939302 0.22379428
0002d0 db 04 11 be 31 a1 b1 3d 8a c8 36 be d2 af 06 be
       -0.14162008 0.08673323 -0.17849937 -0.13153008
0002e0 6e 47 31 3e c6 c4 68 3e 59 ea ae 3e a3 dd 91 3e
       0.17312405 0.22731313 0.34163168 0.28489408
0002f0 f7 8d 01 3f 08 61 e9 3c 26 1e f4 3d 94 00 7a be
       0.50607246 0.02848865 0.11919813 -0.24414283
000300 78 ca 9c 3e ef ee 07 3e bd 6b 7b be bd 12 c3 bd
       0.3062322 0.1327474 -0.24552818 -0.095250584
000310 a3 a6 60 3c 6d 7b 94 3e f0 97 99 bc f6 ac 65 3d
       0.013711604 0.29000416 -0.018749207 0.05607315
000320 44 3e 8c 3e 47 5d 95 bd 34 f3 15 3f 37 c8 b2 be
       0.27391255 -0.07293182 0.58574224 -0.34918377
000330 b2 ef a4 be 63 33 7f bc 1d 41 e9 3e e3 cd 6f be
       -0.32214123 -0.015576216 0.4555749 -0.23418383
000340 6c 19 09 bf 44 cb b2 bd 7a d6 be 3e 80 40 a8 3e
       -0.53554416 -0.08730176 0.37273008 0.3286171
000350 8c cf 89 bc 67 47 6f 3e 1e 59 dd bd 67 a4 b4 be
       -0.016822599 0.23367082 -0.108080134 -0.3528168
000360 0b f0 34 bc 22 a7 d6 bb 7f ef 1d 3e 6d d5 4b bd
       -0.011043559 -0.0065506855 0.15423392 -0.049764086
000370 1b 0d f5 3e f2 2d 07 3d 26 83 11 3e 29 4f 21 3d
       0.4786156 0.0330028 0.14210185 0.039382134
000380 9a 24 7b 3d d7 04 42 bd b4 11 82 be 4f 7a c8 be
       0.061314203 -0.047367897 -0.2540413 -0.39155814
000390 79 a5 a5 bd 40 02 58 3d b3 56 50 3e 6e e4 2a be
       -0.08088202 0.05273652 0.20345573 -0.16688702
0003a0 8b 1a ef be 30 db b5 3b 89 bb e8 3c 15 54 b2 3d
       -0.46699938 0.005549811 0.028409736 0.087074436
0003b0 0e 0e 79 3e 21 fd a2 bc 82 5d 56 3f 37 a5 0d bd
       0.24321768 -0.019896092 0.8373643 -0.03458139
0003c0 39 61 b1 3b 97 6b c7 be cb 3c 4f bc 46 a1 b7 be
       0.005413201 -0.38949272 -0.0126487715 -0.3586523
0003d0 13 a0 18 be bc c6 bb 3d c5 3d 95 3d d5 12 df 3b
       -0.14904813 0.09168765 0.07287172 0.006807665
0003e0 00 24 c7 3e 2e af a6 be c7 23 04 bf cd 65 81 be
       0.38894653 -0.32555526 -0.5161709 -0.2527298
0003f0 7c b9 cd 3d 3b 2e c7 3c 69 f0 28 3e 0a d7 99 bb
       0.10045144 0.024314037 0.16497959 -0.004694824

shared.0.bias f4 [128]
000000 b8 f3 02 bd 9c b5 27 3e e5 75 06 be a1 cd 5f 3e
       -0.03197071 0.16377872 -0.1313091 0.21855785
000010 0a b9 68 bd 29 1d aa be 1c 6e ad 3b a4 ca 4e 3d
       -0.056817092 -0.33225372 0.005292667 0.050486222
000020 ec f0 33 be 27 73 5f be d9 9e 57 be 98 1b 2e 3d
       -0.17572373 -0.21821271 -0.2105669 0.042506784
000030 1c 3c 12 3d 51 07 22 3d 08 bd 51 3d 0a 14 da bd
       0.035701856 0.03955776 0.051205665 -0.106483534
000040 52 41 02 3e b3 65 84 be f3 ba 90 3d 1d 71 88 be
       0.1272023 -0.2585884 0.07066908 -0.266488
000050 06 10 53 3d 77 f6 c2 3d 0b 62 94 be 36 e5 5b bd
       0.051528953 0.09519666 -0.2898105 -0.05368539
000060 0c 06 c9 bd bc e2 fe 3c 20 3f 87 be 83 39 fb 3d
       -0.098156065 0.031113975 -0.26415348 0.12266829
000070 77 c5 ed bd 0e d6 8a 3d 8f 02 51 be 8a 9e 0d be
       -0.11609929 0.06779109 -0.20411132 -0.13830009
000080 d5 f9 2e be 14 99 a9 3c 8d 32 91 be 00 fe 81 3c
       -0.17087491 0.020702876 -0.2835888 0.015868187
000090 73 37 49 be 52 e0 b4 3d de bf 83 be b6 a0 30 be
       -0.19650058 0.08831848 -0.2573232 -0.17248806
0000a0 dc 93 1f be 14 a5 e1 bd ec 8e fc 3d ee 05 14 be
       -0.15583748 -0.11017814 0.12331948 -0.14455387
0000b0 af aa 75 3e bd a8 31 3e 4f 79 dd 3d 31 39 55 be
       0.23990892 0.17349525 0.108141534 -0.20822598
0000c0 e4 bd 87 be 40 b3 40 be 15 fa 36 be 68 02 17 bd
       -0.26512063 -0.18818378 -0.17868836 -0.03686753
0000d0 93 30 70 be ab 80 17 bd 9d 5d 21 3e 1c ed 44 be
       -0.2345603 -0.03698794 0.15758367 -0.19231075
0000e0 be 93 64 be 8d 39 1e 3d 24 5f 21 bd 42 bc 50 be
       -0.22321984 0.038629103 -0.039397374 -0.20384315
0000f0 30 b4 12 be 11 49 53 be ce bd 94 be 0d 75 a0 be
       -0.14326549 -0.20633341 -0.2905106 -0.31339303
000100 32 8b 7e 3d 26 cb ec 3c 47 47 7b be 6e bf 1f bc
       0.062144466 0.028905462 -0.24538909 -0.00975023
000110 c9 f8 1a be 4d 78 2b be 01 cf 81 be 43 64 06 bd
       -0.15133967 -0.1674511 -0.25353244 -0.03281046
000120 8c 86 c5 3d 78 a1 d0 3d a4 17 94 be 31 a7 ad 3d
       0.096448034 0.10187048 -0.28924286 0.08479155
000130 2a d7 32 be fc 73 d8 bd 32 0b e8 3c e8 ac 48 3d
       -0.17464891 -0.10568997 0.02832565 0.04899302
000140 14 18 d9 bd 3a a1 4e be fc 84 4d be 84 92 dc bd
       -0.10600296 -0.2017869 -0.20070261 -0.10770133
000150 9a a8 9c be 43 e9 8e 3c 34 8c 81 be 23 a2 56 be
       -0.30597383 0.017445212 -0.2530228 -0.20960288
000160 c6 32 3b bd b6 59 cd bd 79 d9 f0 3d d8 d4 7f 3d
       -0.04570272 -0.10026877 0.117602296 0.062458843
000170 d5 f6 29 be 2f 3b 7f 3d 50 ac 7a bd 94 dd 90 3c
       -0.16598065 0.0623123 -0.061199486 0.017683782
000180 87 5f 3b be f5 2c 5a be 23 99 b8 be 5a f7 83 be
       -0.1829816 -0.21306212 -0.36054334 -0.25774652
000190 24 9c 9f be 97 52 29 be 04 e8 8e bd 44 15 96 be
       -0.31173813 -0.16535412 -0.06977847 -0.293131
0001a0 3d 20 75 be 40 4c 1f bd 7b df 90 be 87 b2 df 3d
       -0.23938079 -0.038891077 -0.28295502 0.10922723
0001b0 c7 9d 0a be db f3 80 3c 55 a6 ae be 48 56 63 3d
       -0.1353675 0.01574128 -0.34111276 0.055502206
0001c0 7f cf b2 3d 47 e1 ae be aa 95 6c be b3 3e ca 3d
       0.08730983 -0.34156248 -0.23103967 0.0987524
0001d0 fa 79 2e be b8 2e 36 be 66 29 a0 be 89 fa 24 3e
       -0.17038718 -0.1779126 -0.31281585 0.16111197
0001e0 bb e3 4f bd 9b cd 70 3d 32 91 7b be 23 f3 02 be
       -0.05075429 0.05878983 -0.24567106 -0.12788062
0001f0 1e 18 cc 3d 77 0e 73 be 87 7d 5b be 40 41 34 be
       0.099655375 -0.23735987 -0.21434604 -0.17603016

actor.weight f4 [9, 128]
000000 48 74 b6 bd c8 d7 54 3d e2 39 4a 3a 09 a6 35 bd
       -0.08908898 0.051963598 0.00077143137 -0.044347797
000010 75 2a 06 be 67 fb 4d 3e 65 b0 c1 3c 97 02 8b bd
       -0.13102134 0.20115434 0.023643682 -0.06787603
000020 e8 90 b0 bb 43 46 00 3e 15 82 89 3e 65 cf 6c bd
       -0.005388368 0.12526803 0.26857057 -0.057814974
000030 7f 15 95 3d 58 a8 a8 3d 77 9d 22 3e 6d 59 5b 3e
       0.07279491 0.08235234 0.1588038 0.21420832
000040 9b 14 46 bc aa e1 75 3e ad fa 93 bd 3c 49 f0 3d
       -0.012089874 0.24011865 -0.07225547 0.11732718
000050 0e 7b 38 bd 71 f7 9d bd aa f3 ff 3d 56 91 84 3d
       -0.04503923 -0.07713211 0.12497647 0.06473033
000060 ba 45 58 3c b3 49 4d 3d 33 eb a6 3c 0d ce d1 bd
       0.013200218 0.050119113 0.020375824 -0.10244379
000070 9c c8 52 bd a0 69 7f 3d 49 7b 86 3e cf 74 63 be
       -0.051460847 0.06235659 0.26265934 -0.22212528
000080 52 05 a7 bc 29 00 7b 3d 34 75 ae 3d 8a 7b 45 3d
       -0.02038828 0.06127945 0.085184485 0.04821352
000090 c6 65 9e 3d cd 8a 6f 3b 05 6e 1e 3b 30 21 b2 3e
       0.077342555 0.0036551238 0.0024174463 0.34790945
0000a0 91 cb 29 3c 60 7d f2 3d c3 9b 99 3d 9d 0f fe 3d
       0.010363475 0.1184032 0.07500412 0.12405322
0000b0 d8 cd 0c 3e 1d 94 e3 bd 63 2e e6 bc 81 8c 39 bc
       0.13750398 -0.11112235 -0.02809829 -0.011325003
0000c0 05 d9 5e 3e f2 3e ac 3e d0 04 b4 3d 51 3d ed bd
       0.21762474 0.33641773 0.087899804 -0.11583961
0000d0 72 32 80 3d d5 98 85 3d 8a 12 32 3e db 72 cf 3d
       0.06259622 0.06523291 0.17389885 0.10129329
0000e0 12 d9 3d 3e d3 9b a2 3c 55 47 67 3e ea d4 56 3c
       0.18539837 0.019849693 0.22585805 0.013112286
0000f0 46 89 a8 3e 00 7a 0a 3f 02 6e 92 3d b7 41 a7 bb
       0.3291723 0.5409241 0.071498886 -0.0051042694
000100 53 46 06 3d 8a 83 4e 3d c3 3e a0 3d 95 fa 58 bd
       0.03278191 0.050418414 0.07824471 -0.05297335
000110 de a0 15 3d f4 3d a9 bd 25 32 20 3e 8d b0 77 bc
       0.036530368 -0.0826377 0.15644129 -0.015117777
000120 c0 e9 b7 3d 67 71 08 3d 10 06 d8 3d f9 31 37 3c
       0.08980131 0.033311274 0.10548031 0.011181348
000130 51 4a b6 bc ac b6 94 bd 5a 12 2c 3d 43 53 44 3e
       -0.022252234 -0.072614044 0.04200969 0.19172387
000140 38 eb f2 bd 4b 53 08 3c 09 31 3d 3c 53 e3 ee bd
       -0.11861271 0.00832064 0.011547335 -0.116644524
000150 0e 3f f3 3d 51 40 64 bc 69 3a d4 3e 9e 55 80 3e
       0.11877261 -0.01393135 0.41450813 0.2506532
000160 4a 0f 2c 3e db a1 37 be 02 f9 b3 3d 5e c3 07 3b
       0.16802707 -0.17932837 0.08787729 0.0020715813
000170 3a 37 0e 3c 6f b8 86 bd f3 42 b9 bd c5 6c e6 3d
       0.008680159 -0.06578147 -0.09045973 0.11251215
000180 f0 0b 81 3d a1 c2 02 3c 27 3c b2 3e b1 0c 76 3e
       0.06301105 0.007980973 0.34811518 0.24028279
000190 43 e5 bb 3d 5c 41 b4 bc 04 6d ff bc 19 0f 3b bd
       0.091745876 -0.022003822 -0.031179912 -0.045668695
0001a0 d8 49 4f bd 2d 02 74 3d 8b 20 46 3e 3c 88 98 bd
       -0.050607532 0.059572387 0.19348352 -0.0744786
0001b0 58 85 86 3e ec 34 23 be 42 e3 a0 3e 2a 7b 7c 3d
       0.26273608 -0.15938157 0.31423384 0.061640896
0001c0 7f 10 57 bd d1 2f b2 3d 62 eb 89 3e f4 b9 f8 bd
       -0.052505966 0.087005265 0.26937395 -0.12144843
0001d0 46 bb a0 3d 35 b7 ce 3d 01 84 f5 3c 5c aa b2 bc
       0.078482196 0.10093538 0.02997017 -0.02180975
0001e0 08 3a f3 bc 9f 62 2b 3d ca 80 95 3c 71 a6 a4 3e
       -0.029690757 0.0418421 0.018249888 0.32158235
0001f0 a0 9a 9d 3d b1 dc 02 3d 2c f7 0c 3e 70 22 cf 3d
       0.07695508 0.03194875 0.13766164 0.1011399
000200 59 90 35 be 8d 63 1a 3e 25 6b 97 3d 6a 7c a6 be
       -0.17730846 0.15077038 0.07393483 -0.32516795
000210 f4 a0 cc 3c e6 0a a4 bd 81 fa e9 bd 76 f6 b5 bd
       0.024979092 -0.08009891 -0.11424733 -0.08884899
000220 a2 d8 cc bd e5 c6 19 bd 9e 46 18 3d 76 9c 27 be
       -0.10002257 -0.037543196 0.03717672 -0.16368279
000230 17 f1 0f bc d1 aa d6 bd c1 cc c3 39 56 11 e9 3b
       -0.008785508 -0.104817994 0.00037345852 0.0071126623
000240 aa 1a 80 3e 44 c2 25 be 26 36 e3 be f9 d8 fd 3e
       0.25020343 -0.16187388 -0.4437725 0.495796
000250 27 54 f6 bd eb 29 5c be 55 d0 b4 bd 84 07 b2 bd
       -0.120277695 -0.21500365 -0.08828799 -0.0869284
000260 85 1f 54 3d dc d5 a5 bb c3 9a 8a bd 67 b8 3e be
       0.051787872 -0.0050608944 -0.067678 -0.18625031
000270 77 55 c3 bd 3f d1 f8 3d 81 82 ba bd 78 a5 39 3e
       -0.095377855 0.121492855 -0.09106923 0.18129528
000280 0b 4e ca 3e 5f 3c 56 3e 0b 17 53 3c ed 53 9f be
       0.39512667 0.20921467 0.012883912 -0.31118718
000290 8e 95 92 bd 3f 73 a7 3e 44 c8 c7 bc 94 b4 30 be
       -0.071574315 0.32705113 -0.024387486 -0.17256385
0002a0 32 c6 a0 bd 74 9f f1 bc a9 58 8c 3e 93 03 69 3b
       -0.07850303 -0.029494978 0.27411392 0.003555511
0002b0 40 d6 48 3e a6 19 8f be eb fe 29 be a4 cc 63 3c
       0.1961298 -0.27949256 -0.1660115 0.013903771
0002c0 ad 73 0e be cc a6 54 be e9 29 87 be 6e 83 75 3e
       -0.13911314 -0.20766753 -0.26399162 0.23975918
0002d0 3e 84 19 3e 1a 43 f7 bd aa bd 21 3e b9 48 4e 3a
       0.14991853 -0.120733455 0.15795007 0.0007869113
0002e0 4e 9e 71 bd 6e c6 42 3e ee 25 28 bd ec be 02 be
       -0.05898886 0.19021007 -0.041051798 -0.12768143
0002f0 cb 6b 95 bd 62 34 43 bd 28 cc 05 bd 8d 91 77 3a
       -0.072959505 -0.047657378 -0.0326654 0.0009443991
000300 9f 50 36 be 72 89 0d 3e 5c a1 cd 3b f9 60 bd bd
       -0.17804192 0.13821962 0.006275339 -0.09247012
000310 35 0a 74 be 2f 01 36 3e 7c e7 04 bd 3f ad 4d be
       -0.23832019 0.17773889 -0.032447323 -0.2008562
000320 bd 11 10 3e f5 40 9b 3e 4a 76 30 3d 59 16 7b 3e
       0.14069267 0.30322996 0.04308156 0.24520244
000330 aa b5 9a 3d ab 80 df 3d 9a 65 27 be 78 62 05 be
       0.07554181 0.10913213 -0.16347352 -0.13025844
000340 a7 b2 21 3d 4a 74 9e bd c2 77 12 3d 7e 33 40 bd
       0.039477017 -0.07737024 0.03575874 -0.046924107
000350 26 82 3d 3f 3c 80 95 be d0 4c 80 bd 6b 85 09 3e
       0.74026716 -0.29199398 -0.06264651 0.13429801
000360 dc 4e 78 3d 0d d6 77 3d 79 88 4d 3e 75 c1 29 be
       0.06062208 0.06050687 0.20071591 -0.16577704
000370 6e b3 d4 3b 25 08 8e be 6f 4a 02 be e8 e8 a1 3d
       0.0064911162 -0.2774059 -0.12723707 0.079057515
000380 2a 68 fd bd ed 34 38 3c 2e 86 86 be aa bb f0 bc
       -0.12373383 0.011243087 -0.26274246 -0.02938636
000390 47 5b 4f 3e d3 24 3e 3e 30 1f 76 be a6 0a b0 3d
       0.20249663 0.18568735 -0.24035335 0.08595781
0003a0 72 43 73 bc 8f 5c 93 be c5 04 c7 3d 30 e6 80 3d
       -0.014847623 -0.28781554 0.097177066 0.06293905
0003b0 75 e8 15 be 0a 69 7d be e3 1f 60 3f e6 1d d7 3c
       -0.14639457 -0.247471 0.87548655 0.026259374
0003c0 0d 5f da 3d 9d 11 ea ba 6c df a1 3d f7 61 18 bd
       0.10662661 -0.0017858032 0.079039425 -0.0372028
0003d0 a7 4e e1 bd 78 9b 6c bd e9 0c fa 3c e5 2e 9f be
       -0.1100133 -0.057765454 0.030523734 -0.31090465
0003e0 21 c4 57 3e 5d 33 9a 3d 8f a0 89 bb eb e8 bb 3d
       0.21070911 0.07529328 -0.0042000483 0.09175285
0003f0 90 e9 6d bc c9 ed 59 be a2 7b d1 3d 9a d5 2c bc
       -0.014521018 -0.21282114 0.10228659 -0.010548973

actor.bias f4 [9]
000000 34 c3 6d be 23 b9 ac 3d cf 2e ec bd 35 04 7c bd
       -0.23218995 0.084337495 -0.115323655 -0.06152745
000010 0d 11 d1 3d f2 df 7b 3d ca 44 ea 3b aa ac 7c 3e
       0.1020833 0.061492868 0.0071493136 0.24675241
000020 e2 99 2a 3d
       0.04165066

critic.weight f4 [1, 128]
000000 18 57 0c bc 84 69 75 bc af 97 8e 3c 9d d8 e8 bb
       -0.008565687 -0.01497877 0.017406313 -0.0071059004
000010 62 78 3e 3c 83 9c 96 bd d2 66 a8 3b e5 46 84 3d
       0.011625381 -0.07354071 0.0051392103 0.064588346
000020 cc 9f 90 3d 52 4c d7 bb 97 aa 3f 3d 80 48 d3 b9
       0.07061729 -0.0065703774 0.046793547 -0.00040299073
000030 84 01 fc 3b 32 a9 9e ba e3 60 93 3c 9c 7e c3 3d
       0.0076906104 -0.0012104867 0.017990535 0.09545633
000040 3a ce fd 3c 7e cd 23 bd 0f 17 d8 3b de 24 97 bc
       0.030982126 -0.039990894 0.0065945457 -0.018450197
000050 99 4d 07 3c 96 2c 55 3b 7d 3c 35 3e 03 66 fa 3d
       0.008258247 0.0032527796 0.17698856 0.122264884
000060 5d 7b fc 3c 4d 95 10 3d fa 17 42 3d 15 82 d0 3b
       0.030820543 0.035298634 0.047386147 0.0063631632
000070 19 47 10 3c 29 1f bc 3b b2 c4 0b bd ca 98 0a bc
       0.0088060135 0.0057410193 -0.03412313 -0.008459279
000080 91 de 94 3d 63 ed 0a bd 61 d7 3a bc d4 1c 17 bc
       0.07269014 -0.033917796 -0.011403889 -0.009223182
000090 ab 80 c6 bc 3d 7d fd 3c 91 c4 9e 3c de 91 c7 3c
       -0.024231276 0.030943507 0.01938084 0.024361547
0000a0 4a ed 21 3d 22 dd 4d 3d 02 bb c4 3c 28 8e 69 3a
       0.039532937 0.050259717 0.024014954 0.00089094276
0000b0 d0 e0 16 38 8f 94 8f bb 4f f0 af bc c6 85 34 3d
       3.597216e-05 -0.0043817232 -0.021476893 0.04407289
0000c0 ce 24 5b 3e 07 e7 f9 bc 4a 5a 8a 3d 34 2d d4 bb
       0.21400759 -0.03050567 0.067555025 -0.006475115
0000d0 ee 31 c7 b8 50 ac cb bc 77 34 66 bb a8 e8 af 3c
       -9.4983596e-05 -0.024862438 -0.0035126486 0.021473244
0000e0 b2 03 94 3d 6e 17 bb bc 79 be f9 3d 9b 49 4d 3e
       0.07227267 -0.02283832 0.12194533 0.2004761
0000f0 7e ed 56 3b 33 90 3c bd bb 23 97 3c e8 7a 7d bc
       0.0032795365 -0.046035957 0.018449655 -0.015471198
000100 4b ff 40 bc e7 a9 cc 3c 61 d4 e5 bc dd ba 03 bc
       -0.011779617 0.02498336 -0.028055372 -0.008040157
000110 cb ec a5 bd 59 b1 03 3e ba 0e 74 3d 75 15 c5 3b
       -0.08101805 0.12860622 0.059584357 0.006014521
000120 fb e0 89 3b e3 ab d0 3c 37 df 0d 3d 87 3c fb 3c
       0.004207728 0.025472587 0.034636702 0.03066851
000130 be b7 dc 3b bd 42 0c bb 4d 80 ae bd 57 e6 37 3c
       0.006735771 -0.0021402084 -0.08520565 0.011224351
000140 f7 4e 86 3c a5 1e 26 3d b2 50 f1 3c fc 7d 0a ba
       0.016395075 0.04055657 0.029457424 -0.00052830554
000150 50 c7 6d bb 86 73 19 3c a2 ab 73 3c e0 cd 2a 3c
       -0.003628213 0.009365922 0.014872463 0.010425061
000160 2e 82 04 3d 21 8a 30 bb 5d c8 e7 3c fb 16 85 3d
       0.03235071 -0.00269378 0.028293783 0.06498524
000170 98 36 48 bc e8 56 d6 3a 01 25 73 3d 9e 80 d8 bc
       -0.012220047 0.0016352804 0.05936146 -0.026428517
000180 32 db 3a 3c 49 38 34 3d 6c aa 37 ba 6b ab 47 3d
       0.011404799 0.04399899 -0.0007006291 0.04874746
000190 f0 8b 04 bd bc 6c 75 3c f9 17 6d bc 49 e3 36 bd
       -0.032360017 0.014979538 -0.014471048 -0.04465035
0001a0 75 e9 4e 3d 2c 16 04 3d 1f 9e 02 be e2 cb 05 bd
       0.05051561 0.032247707 -0.12755631 -0.03266514
0001b0 b4 93 ba 3d 26 50 87 3d 63 e2 45 3d 37 32 8e 3b
       0.091102034 0.06607084 0.048311602 0.004339482
0001c0 da 67 34 3b 1d cc 33 bd a1 10 a7 bc 1b 0b 18 3b
       0.002752772 -0.04389583 -0.020393671 0.0023199979
0001d0 cc 4b 42 3e 3c c6 c5 bb a0 93 32 bc 47 98 a8 bb
       0.18974227 -0.0060355943 -0.010899454 -0.005145106
0001e0 4b e5 54 3c f1 08 4f 3b 88 c9 4a 3c 32 4a a7 3d
       0.012994121 0.0031591023 0.01237715 0.081684485
0001f0 a9 3b 89 bb 87 f5 66 3c f4 b2 51 bd 94 3f 1b 3e
       -0.0041880202 0.014096624 -0.051196054 0.15160972
