models/navigation_policy.pth (torch, 6508 bytes, 5 tensors)

shared.0.weight f4 [32, 18]
0.0738078 0.118543886 -0.14510806 0.05586222 -0.35691306 0.026830252 -0.10488449 -0.15862602
0.0569569 -0.27903762 -0.1310136 -0.2715106 0.10114912 -0.041621763 0.011552096 0.13507886
0.11569661 -0.1767555 -0.32393798 0.06564967 -0.21356817 -0.074223936 0.42783594 -0.005952249
0.016483357 0.05586621 -0.027789855 -0.22829892 -0.11134603 -0.23701757 -0.05593403 -0.15525658
0.058583632 0.050279506 -0.10918625 -0.0030190335 -0.03819587 0.02014219 0.12828298 0.025488121
0.42086276 -0.7911089 0.053333923 -0.12032444 -0.30412793 0.033255763 -0.27826595 -0.06914303
0.18768966 0.038804155 -0.0024324497 0.05956645 0.16579933 0.31588548 0.05640935 -0.03215698
0.09846301 -0.19191262 0.44510978 -0.98042077 0.07265781 0.09841217 -0.2280699 0.12531023
0.05923698 0.09508409 -0.062809594 0.17670873 -0.05117823 -0.042650405 0.2286669 0.16688955
0.16182552 -0.2269214 0.06888192 -0.045709126 -0.0070862775 0.2526987 0.11514285 0.009803719
0.11411256 -0.042662047 0.03877695 0.09213295 -0.060046718 -0.018539855 -0.0702878 -0.14117093
-0.1641317 -0.09071216 -0.023272343 0.049327035 -0.01302231 -0.07865462 0.4382509 0.87706584
0.077470444 0.11446399 -0.050559115 -0.28096697 -0.22114542 0.09680473 -0.027675197 0.040734295
-0.1354561 -0.2880661 -0.06588223 -0.13624695 0.0019518944 0.0021943245 -0.04252951 0.13625556
0.6783293 0.8930554 0.13510373 0.19974914 0.019064719 0.31659758 0.17277376 -0.06057982
-0.030827364 0.11294401 -0.27223256 -0.20344509 0.013222407 0.10842375 0.0669849 -0.06156637
0.21111353 0.22049099 -0.22158559 -0.5821223 0.00867023 -0.25111657 -0.13322024 -0.090058036
-0.056322057 -0.060748044 -0.27778676 0.05280085 0.1735325 -0.050855022 -0.12345779 0.08683138
0.08567535 -0.122403875 0.1075102 -0.22792162 -0.16603582 0.44929084 -0.22740357 0.02484557
-0.037669417 0.16182493 0.10390765 0.022601694 0.061834175 -0.09406448 0.15075381 -0.11617433
-0.174148 -0.09762476 -0.047367588 0.037962325 0.01874605 0.039499037 1.0061662 0.11906279
-0.023155421 0.020545559 0.06969848 -0.062277623 0.017980155 -0.017303318 -0.29727367 -0.49856508
-0.1230616 0.038773686 0.13842763 -0.092494756 0.0852051 0.019528426 0.042146828 -0.052685563
0.1920166 -0.2714932 -0.039733976 -0.3335034 -0.37049472 0.061096985 -0.10711518 0.26697502
0.09645919 0.2735786 -0.22223027 -0.27814174 -0.011679884 0.14101559 -0.0697039 -0.031873908
0.011325121 0.17734078 -0.12971239 0.38123712 -0.20028186 0.26015586 0.30138075 0.039730612
0.35650218 0.17634177 0.09127544 -0.19880736 0.08992929 -0.344313 0.013429091 -0.200966
0.040597472 -0.019130362 0.2936157 0.041808117 0.87053627 -0.2612408 0.279286 0.007866612
0.07795102 0.03967872 0.0953824 -0.11291947 -0.16185325 0.02656327 -0.020048814 -0.011516806
-0.0013507975 0.09997432 0.06462368 -0.060568616 0.10167629 -0.1426321 0.09633852 -1.1137718
0.23561585 -0.23338673 -0.2128401 -0.26446286 -0.20647055 -0.14983866 0.02196651 0.10024058
0.20643787 -0.26639706 0.081323035 0.20684174 0.007956761 0.020542098 0.11382448 -0.04432235
00000000: 8b28 973d 23c7 f23d 3597 14be c8cf 643d
00000010: 4fbd b6be 1ecb db3c aecd d6bd dc6e 22be
00000020: a34b 693d 05de 8ebe 6e28 06be 7003 8bbe
00000030: 4527 cf3d 957b 2abd 0145 3d3c 1d52 0a3e
00000040: 58f2 ec3d 65ff 34be 33db a5be 5673 863d
00000050: 9db1 5abe b802 98bd 500d db3e 150b c3bb
00000060: 1b08 873c f8d3 643d 8da7 e3bc 31c7 69be
00000070: 6309 e4bd bcb4 72be 151b 65bd 95fb 1ebe
00000080: 64f5 6f3d e2f1 4d3d 0a9d dfbd fada 45bb
00000090: 4673 1cbd 3c01 a53c 9d5c 033e 77cc d03c
000000a0: 537b d73e 1d86 4abf ac74 5a3d a96c f6bd
000000b0: a8b6 9bbe 3237 083d e078 8ebe dc9a 8dbd
000000c0: b831 403e 1bf1 1e3d bc69 1fbb f3fb 733d
000000d0: 4dc7 293e bebb a13e 7e0d 673d 0ab7 03bd
000000e0: f9a6 c93d be84 44be 6ee5 e33e dbfc 7abf
000000f0: 9ecd 943d 528c c93d 288b 69be 5351 003e
00000100: 7aa2 723d 73bb c23d 51a2 80bd 22f3 343e
00000110: 44a0 51bd 31b2 2ebd a827 6a3e 18e5 2a3e
00000120: 97b5 253e 155e 68be f711 8d3d 7e39 3bbd
00000130: 0134 e8bb b961 813e 04d0 eb3d c79f 203c
00000140: d9b3 e93d 66be 2ebd 94d4 1e3d 33b0 bc3d
00000150: 8cf3 75bd e5e0 97bc 0df3 8fbd 1d8f 10be
00000160: 2412 28be 4cc7 b9bd a4a5 bebc 250b 4a3d
00000170: 875b 55bc ac15 a1bd 6c62 e03e 6387 603f
00000180: d3a8 9e3d 196c ea3d 1317 4fbd e7da 8fbe
00000190: f273 62be 8f41 c63d 18b7 e2bc 01d9 263d
000001a0: 01b5 0abe 667d 93be 43ed 86bd 5284 0bbe
000001b0: b5d6 ff3a a8ce 0f3b 6c33 2ebd 9486 0b3e
000001c0: fda6 2d3f 479f 643f a258 0a3e 0a8b 4c3e
000001d0: 9d2d 9c3c 1419 a23e 9beb 303e 8c22 78bd
000001e0: ab89 fcbc 304f e73d 1162 8bbe e953 50be
000001f0: cba2 583c 450d de3d 612f 893d 052d 7cbd
00000200: 252e 583e 64c8 613e 55e7 62be f805 15bf
00000210: 950d 0e3c 5a92 80be e36a 08be 5970 b8bd
00000220: f5b1 66bd f1d2 78bd 113a 8ebe b445 583d
00000230: 81b2 313e 5b4d 50bd 70d7 fcbd a7d4 b13d
00000240: 8f76 af3d e2ae fabd 4f2e dc3d 4964 69be
00000250: 4b05 2abe 7309 e63e 7bdc 68be f088 cb3c
00000260: 3f4b 1abd 6fb5 253e 89cd d43d 3027 b93c
00000270: d545 7d3d e1a4 c0bd 355f 1a3e cfec edbd
00000280: da53 32be 7def c7bd 8404 42bd 627e 1b3d
00000290: 5191 993c bec9 213d 0eca 803f 31d7 f33d
000002a0: 70b0 bdbc 294f a83c 14be 8e3d d216 7fbd
000002b0: 1e4b 933c b0bf 8dbc 4134 98be ec43 ffbe
000002c0: b807 fcbd 28d1 1e3d f9bf 0d3e e46d bdbd
000002d0: 0380 ae3d 14fa 9f3c 27a2 2c3d d1cc 57bd
000002e0: 00a0 443e 2801 8bbe 18c0 22bd f5c0 aabe
000002f0: 7cb1 bdbe d540 7a3d 345f dbbd f3b0 883e
00000300: 658c c53d 7f12 8c3e 5590 63be 9868 8ebe
00000310: fc5c 3fbc 6466 103e ebc0 8ebd 378e 02bd
00000320: 008d 393c d298 353e 53d3 04be 8331 c33e
00000330: b016 4dbe 2633 853e 944e 9a3e 91bc 223d
00000340: 7487 b63e f092 343e 9eee ba3d 2894 4bbe
00000350: d92c b83d cb49 b0be b105 5c3c 08ca 4dbe
00000360: 8949 263d 47b7 9cbc cc54 963e fd3e 2b3d
00000370: 77db 5e3f 5bc1 85be 93fe 8e3e f6e2 003c
00000380: c9a4 9f3d 2786 223d d957 c33d 5342 e7bd
00000390: dcbc 25be 379b d93c 693d a4bc fcb0 3cbc
000003a0: 3e0d b1ba 56bf cc3d 6c59 843d cc16 78bd
000003b0: a93b d03d 260e 12be 214d c53d 1390 8ebf
000003c0: 4845 713e eefc 6ebe c1f2 59be ad67 87be
000003d0: 046d 53be 4e6f 19be 1cf3 b33c ef4a cd3d
000003e0: 7364 533e 3265 88be b18c a63d 52ce 533e
000003f0: 135d 023c e747 a83c cf1c e93d 5a8b 35bd

shared.0.bias f4 [32]
0.05108939 -0.07474873 0.19480409 0.14267893 -0.09489251 0.1586243 0.14144997 0.12127666
-0.037069034 0.12322156 0.042681277 0.06970916 0.11395909 0.15906051 0.18319613 -0.106309325
-0.06993195 0.14525324 0.123403184 0.060539715 0.056466665 0.10056058 -0.21857817 -0.20735396
0.21695368 -0.005554604 -0.15004653 0.17035587 -0.18418367 0.086063884 0.11335926 0.0965181
00000000: 1c43 513d dd15 99bd b97a 473e 6d1a 123e
00000010: 0157 c2bd 696e 223e 43d8 103e e65f f83d
00000020: b3d5 17bd 965b fc3d 90d2 2e3d adc3 8e3d
00000030: 6263 e93d c2e0 223e c497 3b3e b4b8 d9bd
00000040: 7b38 8fbd 44bd 143e cfba fc3d 7ef8 773d
00000050: 9749 673d b5f2 cd3d f5d2 5fbe 9954 54be
00000060: 1b29 5e3e 6503 b6bb cca5 19be c571 2e3e
00000070: a59a 3cbe 4342 b03d e628 e83d 48ab c53d

actor.weight f4 [9, 32]
0.081574805 0.30816954 -0.027421525 -0.10245324 -0.16426693 0.04118937 0.105789565 0.12509078
0.23428898 -0.033135302 0.1319347 -0.15295038 0.21698643 0.06833914 0.07348503 0.15021104
0.050588723 0.045442387 0.13388269 0.16768782 -0.071843676 0.16131347 0.07784698 -0.034606777
-0.06270651 0.03798547 0.14636251 0.20433366 0.07969694 -0.08780819 0.033138093 -0.07542111
0.0254331 0.05727636 -0.53374845 -0.7544424 0.026181195 0.22462314 0.18878426 -0.37300792
0.11450021 0.12933546 -0.3189241 0.03622196 -0.12156809 -0.6428335 0.23822439 0.17451294
-0.24695536 -0.22771202 0.49675936 0.19411196 0.0005146932 0.4292944 -0.042308427 -0.06712642
0.33493122 0.35581717 -0.017086962 -0.20197392 0.22795793 -0.31160676 0.036443308 0.16546747
0.2541865 0.13656397 0.18754226 0.45908722 -0.09337948 -0.635329 -0.2416151 0.060276393
-0.13143192 -0.1247812 0.17097059 -0.13111153 0.059331708 0.38638934 -0.18853717 -0.112783074
0.26356623 0.17101675 -0.4430233 0.01771132 0.15621439 -0.30849296 -0.041747887 0.017948674
-0.0948644 0.13377275 -0.036979914 0.13934384 0.011103003 0.27835754 -0.39003718 -0.09052175
-0.06611151 0.22568294 0.20057815 0.173207 -0.074439354 0.09994271 0.13767199 0.18701628
-0.16671214 0.4657617 -0.009141295 -0.14595696 0.4772777 0.071392655 -0.4800663 -0.1028009
-0.098631896 -0.205893 0.2249253 -0.34956634 0.24173622 -0.117731124 0.0015495978 0.15710798
-0.335132 -0.07839416 0.10432517 -0.39291152 0.10377436 -0.36110276 0.014304441 0.124503516
-0.104743995 -0.07282808 -0.15382737 -0.24065144 -0.058162197 0.6091335 0.5858 -0.5797844
0.08963893 0.2208133 0.106910035 0.31597316 0.42137814 -0.21071948 -0.16342317 0.119595595
-0.31954005 -0.7698234 0.46504673 -0.26321426 0.09348682 0.23829864 -0.16309716 -0.0601062
-0.1175987 0.16107106 0.06277779 -0.36664364 -0.058202993 -0.5088913 0.20226441 0.22094065
-0.09339256 0.15714192 0.4534638 0.38203934 0.010179359 -0.2057676 -0.08951572 0.3889589
-0.28066948 0.32475433 0.06793911 -0.33238822 0.50214696 0.47353435 -0.78534955 -0.24633858
0.1537382 -0.030337535 0.17017473 -0.3083577 0.12300794 -0.27367404 0.16917224 -0.19639295
-0.85965306 0.070655 0.02447163 0.016692758 0.06273302 -0.23860343 -0.24152727 0.05728303
0.11751919 -0.11639457 -0.11463974 -0.431954 -0.15367828 -0.277401 -0.058685612 0.19889985
0.15231349 -0.25467774 -0.25579414 0.024485838 -0.65647423 -0.021576826 0.31452087 -0.096830845
0.13493222 0.38339648 -0.5370666 0.18286993 -0.24676944 0.053426683 -0.10097116 -0.05756799
0.45661494 -0.099949166 -0.17502262 0.29529315 0.26835987 0.19979596 -0.10819324 -0.24459332
0.30439427 0.0019829506 -0.924172 -0.8804382 0.1658644 0.33266246 0.22341898 -0.22996618
0.1526958 -0.37780923 -0.36864862 0.2702618 -0.82827854 -0.3440911 0.338897 0.013455667
0.10637295 0.18117608 -0.09981543 0.19213529 -0.4455961 0.3307119 -0.12459918 -0.11252648
0.6200447 -0.045497254 0.05116192 0.27671373 -0.12318886 0.32942858 0.25678462 -0.04994686
00000000: b110 a73d 66c8 9d3e 1ba3 e0bc 01d3 d1bd
00000010: 9735 28be 2fb6 283d 33a8 d83d cc17 003e
00000020: 73e9 6f3e e2b8 07bd e419 073e 069f 1cbe
00000030: b131 5e3e 64f5 8b3d 527f 963d ecd0 193e
00000040: 1f36 4f3d cc21 3a3d 8b18 093e 5bb6 2b3e
00000050: c722 93bd 5c2f 253e 3d6e 9f3d d6bf 0dbd
00000060: 456c 80bd a796 1b3d 0ee0 153e d83c 513e
00000070: 2638 a33d c8d4 b3bd cfbb 073d 6276 9abd
00000080: 1459 d03c 9e9a 6a3d bda3 08bf 2323 41bf
00000090: f279 d63c 9c03 663e a950 413e e5fa bebe
000000a0: 167f ea3d 8470 043e 054a a3be 7a5d 143d
000000b0: b1f8 f8bd bc90 24bf 18f1 733e 85b3 323e
000000c0: dee1 7cbe 572d 69be 3e57 fe3e 49c5 463e
000000d0: 7aec 063a 7acc db3e 9a4b 2dbd 9479 89bd
000000e0: 1b7c ab3e ab2d b63e f5f9 8bbc 40d2 4ebe
000000f0: ce6d 693e ec8a 9fbe 9445 153d 4e70 293e
00000100: bc24 823e 6dd7 0b3e 140b 403e 7b0d eb3e
00000110: be3d bfbd eca4 22bf f369 77be 61e4 763d
00000120: 1796 06be 498d ffbd ea12 2f3e 1a42 06be
00000130: ce05 733d d3d4 c53e e30f 41be d0fa e6bd
00000140: 27f2 863e 041f 2f3e f3d3 e2be 5517 913c
00000150: aaf6 1f3e caf2 9dbe d5ff 2abd 1909 933c
00000160: 4448 c2bd b9fb 083e 4078 17bd 27b0 0e3e
00000170: 5fe9 353c e184 8e3e f4b2 c7be 7863 b9bd
00000180: 7965 87bd 6e19 673e 5c64 4d3e 2d5d 313e
00000190: a973 98bd c3ae cc3d e3f9 0c3e 3281 3f3e
000001a0: 96b6 2abe 5178 ee3e 5fc5 15bc be75 15be
000001b0: be5d f43e 5036 923d 40cb f5be 4789 d2bd
000001c0: 85ff c9bd 9dd5 52be d152 663e 5cfa b2be
000001d0: b389 773e 041d f1bd e01b cb3a eae0 203e
000001e0: 6c96 abbe 1e8d a0bd 6fa8 d53d b32b c9be
000001f0: a787 d43d 76e2 b8be 2d5d 6a3c b3fb fe3d
00000200: 0584 d6bd e326 95bd ec84 1dbe 556d 76be
00000210: 7c3b 6ebd 2cf0 1b3f fdf6 153f c06c 14bf
00000220: 9e94 b73d e21c 623e a6f3 da3d 3cc7 a13e
00000230: e0be d73e d9c6 57be 6758 27be 89ee f43d
00000240: c19a a3be 2513 45bf 9b1a ee3e 05c4 86be
00000250: 0576 bf3d 8f04 743e f102 27be eb31 76bd
00000260: 96d7 f0bd d0ef 243e a491 803d b7b8 bbbe
00000270: 4366 6ebd b346 02bf 671e 4f3e 443e 623e
00000280: 9944 bfbd d0e9 203e 682c e83e a99a c33e
00000290: 53c7 263c beb4 52be 0554 b7bd 9f25 c73e
000002a0: e9b3 8fbe 3346 a63e a923 8b3d ca2e aabe
000002b0: b48c 003f 1873 f23e ab0c 49bf 2e40 7cbe
000002c0: 8c6d 1d3e 6c86 f8bc 4942 2e3e 0fe1 9dbe
000002d0: 96eb fb3d 011f 8cbe 7d3b 2d3e 3c1b 49be
000002e0: 3912 5cbf 92b3 903d ba78 c83c 40bf 883c
000002f0: 2b7a 803d 7554 74be ed52 77be 9ca1 6a3d
00000300: e7ad f03d 4760 eebd 3dc8 eabd 1329 ddbe
00000310: d75d 1dbe 8107 8ebe 5360 70bd 67ac 4b3e
00000320: 11f8 1b3e 1f65 82be 73f7 82be 8696 c83c
00000330: b20e 28bf e2c1 b0bc e108 a13e 404f c6bd
00000340: ac2b 0a3e 8b4c c43e 327d 09bf 4142 3b3e
00000350: 21b1 7cbe f0d5 5a3d f8c9 cebd 6acc 6bbd
00000360: 6fc9 e93e 26b2 ccbd 2139 33be aa30 973e
00000370: 7766 893e 5097 4c3e 6b94 ddbd ac76 7abe
00000380: 91d9 9b3e 64f4 013b 8996 6cbf 6664 61bf
00000390: 5bd8 293e bc52 aa3e f2c7 643e 417c 6bbe
000003a0: 4a5c 1c3e 3670 c1be 83bf bcbe c15f 8a3e
000003b0: 100a 54bf b52c b0be e883 ad3e 2875 5c3c
000003c0: 10da d93d 3986 393e 086c ccbd 1dbf 443e
000003d0: 2c25 e4be 1253 a93e db2d ffbd 4874 e6bd
000003e0: 40bb 1e3f 545b 3abd 298f 513d 6cad 8d3e
000003f0: 714a fcbd ddaa a83e 4679 833e 1495 4cbd

actor.bias f4 [9]
-0.19939852 0.011645695 0.023159508 0.020083023 0.1031393 0.111165054 0.15655129 0.09739916
0.23314732
00000000: 202f 4cbe 96cd 3e3c 02b9 bd3c 2785 a43c
00000010: b33a d33d 81aa e33d fb4e 203e 3679 c73d
00000020: 2cbe 6e3e

critic.weight f4 [1, 32]
0.06500666 0.27190527 0.060455274 -0.026484866 0.12135466 0.043092147 -0.022823887 0.064481676
0.091951326 0.0079930695 0.0132496115 -0.0406622 -0.028801572 -0.017735636 0.036277898 -0.012999567
0.10192546 0.016726727 0.07742973 0.02194625 0.08057973 0.06430015 -0.07769738 -0.07394634
-0.015107626 -0.018405367 0.12568654 0.09202123 0.0033282475 -0.007831514 -0.058415253 0.050381996
00000000: 3622 853d 2b37 8b3e f39f 773d caf6 d8bc
00000010: cb88 f83d 6481 303d 29f9 babc f80e 843d
00000020: fa50 bc3d 5df5 023c e614 593c 688d 26bd
00000030: 46f1 ebbc 534a 91bc 2298 143d 23fc 54bc
00000040: 4cbe d03d 7d06 893c 7a93 9e3d 9fc8 b33c
00000050: fc06 a53d ccaf 833d ce1f 9fbd 2e71 97bd
00000060: fa85 77bc dac6 96bc f9b3 003e a075 bc3d
00000070: ba1e 5a3b c04f 00bc d544 6fbd 5a5d 4e3d
