models/navigation_policy.pth (torch, 17644 bytes, 5 tensors)

shared.0.weight f4 [128, 18]
0	0x3e1029a9	0.14078392
1	0xbe875742	-0.2643376
2	0xbe141c83	-0.14464001
3	0xbe1f5469	-0.15559544
4	0xbe318620	-0.17336321
5	0x3e048bd5	0.12943967
6	0x3cc0faa4	0.023557015
7	0xbe7a7fef	-0.24462865
8	0x3d61cdd5	0.055127937
9	0x3d8535ab	0.06504377
10	0xbe274d25	-0.16338022
11	0xbe1ce92f	-0.15323327
12	0xbd8c8fd5	-0.06863371
13	0xbe30f11d	-0.17279477
14	0xbe23227e	-0.15931126
15	0xbe7d1422	-0.24714711
16	0xbe2ee5e8	-0.1707989
17	0x3de6d0d3	0.11270299
18	0xbe16bdb4	-0.14720803
19	0x3de0755f	0.10959887
20	0x3d0520ad	0.032501865
21	0x3dffdbda	0.12493105
22	0xbef67207	-0.4813387
23	0x3e80ebb3	0.25179824
24	0xbe58bd60	-0.21165991
25	0x3d7a798a	0.061151065
26	0xbe0a1720	-0.13485384
27	0x3e31c7a0	0.17361307
28	0x3e1eced1	0.15508582
29	0x3de25e34	0.11053124
30	0x3e9ac56b	0.30228743
31	0x3e3664fb	0.17811958
32	0xbcac0be1	-0.021001758
33	0x3ca3ebfa	0.020009983
34	0x3d14d147	0.036332395
35	0xbe6161a4	-0.22009903
36	0x3d3dec52	0.04636795
37	0x3d33849d	0.04382764
38	0x3d39bf00	0.045348167
39	0x3c5fd993	0.013662714
40	0x3e874862	0.2642241
41	0xbbe0f451	-0.0068650623
42	0x3d90ce4f	0.070706
43	0xbe16cbd4	-0.14726192
44	0x3da39b33	0.07988586
45	0xbd5c2d66	-0.053754233
46	0x3e496327	0.1966673
47	0xbdd027da	-0.10163851
48	0xbd5f0f5a	-0.054458
49	0xbbaa953e	-0.0052057793
50	0x3e59b881	0.21261789
51	0x3dda3a93	0.106557034
52	0x3daf5249	0.085606165
53	0x3deccb5b	0.115622245
54	0xbdc08986	-0.094012305
55	0xbd350e67	-0.04420319
56	0x3e9612ef	0.2931132
57	0x3e0b020a	0.13574997
58	0xbf15b85d	-0.5848444
59	0xbd2c3c43	-0.042049658
60	0xbe0dfc34	-0.13865739
61	0xbeada421	-0.33914283
62	0xbe83d205	-0.2574617
63	0xbe6152a5	-0.22004183
64	0x3dc00f27	0.0937789
65	0x3e0f06e1	0.13967468
66	0xbd8d48d6	-0.06898658
67	0x3d1cd8f2	0.038292833
68	0x3c39f6cc	0.011350345
69	0xbdd60493	-0.10450091
70	0xbdb42e15	-0.08797852
71	0xbe3ba02e	-0.18322822
72	0x3d815e59	0.063168235
73	0x3daa7498	0.0832302
74	0x3e0ca2b8	0.13733947
75	0x3e682d56	0.22673544
76	0xbc0f311e	-0.008739738
77	0xbddb067a	-0.10694595
78	0xbd79393d	-0.060845602
79	0x3e23b59d	0.15987249
80	0x3de8b1ba	0.11362024
81	0xbc6e77f2	-0.014554964
82	0x3e64814f	0.22314952
83	0x3e6bd072	0.23028734
84	0x3e445057	0.19171272
85	0xbe61395b	-0.21994536
86	0x3db3aa07	0.087726645
87	0xbde35251	-0.11099685
88	0x3c9f951e	0.019480284
89	0x3e4f6e56	0.20256934
90	0x3c4397cd	0.011938048
91	0x3e1cff10	0.15331674
92	0x3e8f5298	0.27992702
93	0xbdbcbf49	-0.09216172
94	0xbec1f402	-0.37881476
95	0x3eafd109	0.3433917
96	0xbd24f5bc	-0.040273413
97	0xbddf1289	-0.10892207
98	0xbe2942b0	-0.16529346
99	0xbd564462	-0.05231131
100	0xbd803c5a	-0.06261511
101	0xbde19878	-0.11015409
102	0x3e2d8c31	0.1694801
103	0xbe8601c4	-0.26173222
104	0x3cad57d3	0.021160042
105	0x3d15b9d5	0.036554176
106	0x3bd8f69c	0.006621195
107	0x3cb71c1b	0.022352269
108	0x3dea8f04	0.11453059
109	0x3e8108ee	0.25202125
110	0xbe534520	-0.20631838
111	0xbecc7d79	-0.39939478
112	0xbd41de91	-0.047331396
113	0x3ed5db0b	0.4176868
114	0xbe9df643	-0.30851945
115	0xbea9c2ca	-0.33156425
116	0xbe554e6f	-0.20830701
117	0x3d7f57bd	0.062339533
118	0xbeb701fc	-0.357437
119	0xbdb99ffe	-0.09063719
120	0xbca2fe33	-0.019896602
121	0xbe4a8343	-0.19776635
122	0x3c7b3a8a	0.015333781
123	0xbe8847eb	-0.2661737
124	0xbd992816	-0.07478349
125	0x3ceb5a41	0.02872956
126	0xbe37dbb6	-0.17954907
127	0xbdfb2f9b	-0.122649394
128	0x3e0f3eea	0.13988844
129	0xbe296937	-0.16544043
130	0x3e27bc0e	0.16380331
131	0x3d166b16	0.03672322
132	0x3d81ee31	0.063442595
133	0xbe3a6b7b	-0.18205063
134	0x3df5dbf8	0.12004846
135	0x3d02d62d	0.031942535
136	0x3e84ab4b	0.25911936
137	0xbdacef7b	-0.08444115
138	0xbe2eebf3	-0.17082195
139	0xbe25e35d	-0.16200013
140	0xbe3fa64c	-0.18715781
141	0x3d8b1cf8	0.06792635
142	0xbd89dd52	-0.067316666
143	0x3e6122db	0.21985953
144	0xbe0050e8	-0.12530863
145	0x3cfed0ec	0.031105481
146	0x3e9ad261	0.3023863
147	0xbe826d2e	-0.25473922
148	0xbf154dcd	-0.5832184
149	0x3c4c0c23	0.0124540655
150	0xbd750c0a	-0.059825934
151	0xbdc5c9db	-0.096576415
152	0x3c930f1c	0.01795154
153	0xbea07f76	-0.31347245
154	0x3df266ab	0.118359886
155	0xbe38f5d2	-0.18062523
156	0xbdc8c1cf	-0.09802591
157	0xbda8c9cc	-0.08241615
158	0x3c8ed79f	0.0174368
159	0xbbce79d6	-0.006301145
160	0xbe158a4d	-0.14603539
161	0xbec88d1d	-0.3917016
162	0xbe4e0cbe	-0.20122048
163	0x3e4121a8	0.18860495
164	0xbe4eb757	-0.20187126
165	0xbecbc13c	-0.39795864
166	0x3ebfc846	0.37457484
167	0x3e2e2bd0	0.170089
168	0xbdeccc38	-0.11562389
169	0x3cb57fbd	0.022155637
170	0xbda7e731	-0.08198393
171	0x3d7ebd30	0.062192142
172	0xbe5b8a4b	-0.21439473
173	0xbe8abda8	-0.2709782
174	0xbe5a44b0	-0.21315265
175	0x3cb3ee59	0.021964239
176	0xbeaba174	-0.33521616
177	0xbe60787b	-0.2192096
178	0xbd4c9c41	-0.049953703
179	0xbe72f0a0	-0.23724604
180	0x3e460f9e	0.19341895
181	0x3db4bcea	0.08825095
182	0xbd0061bb	-0.031343203
183	0xbec5906e	-0.38586754
184	0x3ecf936d	0.40542164
185	0x3ef50345	0.47854057
186	0xbce852be	-0.028359767
187	0x3e04e5bf	0.12978266
188	0xbe5cb069	-0.2155167
189	0xbe92db04	-0.2868272
190	0xbe266789	-0.16250433
191	0xbe9f2d6c	-0.31089342
192	0xbe7fb484	-0.24971205
193	0xbeb002e3	-0.34377202
194	0xbda66922	-0.08125521
195	0xbe48f40f	-0.19624351
196	0xbe9b59e6	-0.30342025
197	0xbd86e532	-0.06586684
198	0x3d76058d	0.060063887
199	0x3ccf9784	0.025340803
200	0x3dfe72e4	0.124242574
201	0x3ce55b3e	0.02799761
202	0xbe2cf643	-0.16890816
203	0x3ebf2f53	0.37340793
204	0x3d563398	0.052295297
205	0x3d71dbce	0.059047513
206	0xbe22f73d	-0.15914626
207	0x3e6bf7e2	0.23043779
208	0x3b121427	0.0022289844
209	0x3d9a0477	0.07520383
210	0x3e7a966b	0.24471442
211	0xbe04806a	-0.12939611
212	0xbc6c64b9	-0.014428311
213	0x3da95ddc	0.082698554
214	0x3d3d219c	0.04617463
215	0x3e7c2b86	0.24625978
216	0xbda5a8d0	-0.08088839
217	0x3e46052a	0.19337907
218	0xbdbcabe0	-0.0921247
219	0xbe2b1fa0	-0.16711283
220	0xbc6db5ca	-0.014508674
221	0xbdcd7830	-0.100326896
222	0xbde991bb	-0.11404749
223	0x3de49bb1	0.11162508
224	0x3eb54409	0.3540347
225	0x3e91ccc8	0.28476548
226	0xbe1c82de	-0.15284297
227	0xbe0d3d6a	-0.13792959
228	0x3e10b776	0.14132485
229	0x3e90555c	0.28190124
230	0x3e80b6c1	0.2513943
231	0xbe0180f8	-0.12646854
232	0xbe115e42	-0.14196113
233	0x3e5b726e	0.2143037
234	0x3e5b2def	0.21404241
235	0x3e1a0744	0.15041834
236	0xbc2c40d3	-0.010513502
237	0x3c248763	0.010042044
238	0x3ed6423d	0.4184741
239	0x3ece04b9	0.40237978
240	0xbe9cd329	-0.30629852
241	0x3d06107e	0.032730572
242	0x3d2de6bc	0.042456374
243	0xbe1c250f	-0.15248512
244	0xbe84ed3e	-0.2596225
245	0x3cdcbc84	0.02694536
246	0xbe8a480a	-0.27008086
247	0x3cf3b118	0.02974753
248	0xbead1c9c	-0.3381089
249	0xbdda0950	-0.106463075
250	0xbcb53936	-0.022122007
251	0x3d6de41e	0.058078878
252	0x3e571f6c	0.2100808
253	0x3e807f03	0.25096902
254	0xbe2a2e36	-0.1661919
255	0xbda30f66	-0.079619214

shared.0.bias f4 [128]
0	0x3ea23e32	0.31688076
1	0x3e93745c	0.28799713
2	0x3bdd84ed	0.0067602308
3	0x3cdc658a	0.026903886
4	0xbe6a3315	-0.22871049
5	0xbd18ee14	-0.037336424
6	0x3e54983c	0.20761198
7	0xbe81ebfa	-0.25375348
8	0x3dcb0d5b	0.09914657
9	0xbd2b804a	-0.041870393
10	0x3d9b8d46	0.07595305
11	0x3d86bf17	0.06579416
12	0xbcf1e5d6	-0.02952854
13	0x3e9c6d61	0.305522
14	0xbdf8f06c	-0.12155232
15	0x3d8ba425	0.068184175
16	0x3c97c473	0.018526291
17	0x3e55b1ed	0.20868655
18	0x3e34f996	0.17673334
19	0xbe889ac5	-0.2668058
20	0x3da3ce49	0.0799833
21	0x3e8127bf	0.25225636
22	0xb87b669c	-5.9938626e-05
23	0x3d8a1c1b	0.06743642
24	0x3d3b8fd4	0.045791462
25	0x3e8843d1	0.2661424
26	0xbe4f11bf	-0.20221613
27	0x3e38ea55	0.1805814
28	0x3eba6080	0.3640175
29	0x3e5d3563	0.21602397
30	0x3c52a3aa	0.012856403
31	0x3e4c2cf4	0.19939023
32	0x3e2bab6b	0.1676461
33	0x3e247a17	0.16062199
34	0x3e9295aa	0.2862981
35	0x3db29998	0.08720702
36	0x3e9439c1	0.28950313
37	0xbd8f2de2	-0.06991173
38	0x3e95dab9	0.29268435
39	0xbdb49f34	-0.08819428
40	0x3cd37dd1	0.02581683
41	0x3cca301e	0.024681147
42	0x3ea1eb2a	0.31624728
43	0xbe5a7b8c	-0.21336192
44	0xbdb2b570	-0.08726013
45	0x3e9a2533	0.30106506
46	0x3e1922a8	0.14954627
47	0x3e210c5b	0.1572737
48	0x3e5c67e5	0.21524008
49	0xbe8b0e92	-0.27159554
50	0x3beb0241	0.0071718995
51	0x3cfdc8a8	0.03097947
52	0x3be3d3c1	0.0069527333
53	0x3d1b929f	0.037981626
54	0x3e2dcb6d	0.16972132
55	0x3d4577db	0.048210006
56	0x3eca0571	0.39457276
57	0xbe25b0d5	-0.16180737
58	0x3ebbb030	0.36657858
59	0x3d820982	0.0634947
60	0xbe8e2512	-0.27762657
61	0x3df47b7e	0.11937617
62	0x3dd52965	0.10408286
63	0x3e9b7220	0.30360508
64	0x3dccdda8	0.10003215
65	0x3e5ece13	0.21758299
66	0x3e130ec3	0.143611
67	0x3d22f918	0.039788336
68	0xbceb8c1d	-0.028753335
69	0x3e9b73c3	0.30361757
70	0x3eb5879d	0.35455027
71	0xbc8524cf	-0.016252903
72	0x3e3bd587	0.18343173
73	0x3e77d976	0.24204049
74	0x3d643407	0.05571368
75	0x3bc82c74	0.006108815
76	0x3e5f5ef9	0.21813573
77	0x3d398c69	0.04529992
78	0x3cc3b868	0.023891643
79	0x3e04596f	0.12924741
80	0x3ed5ba1a	0.41743547
81	0xbd891107	-0.06692701
82	0x3e99e637	0.30058452
83	0xbbe7450c	-0.0070577916
84	0x3ea0f0c4	0.3143369
85	0x3d6e0721	0.058112267
86	0x3e21f264	0.15815121
87	0x3e098d9f	0.1343293
88	0xbe0db78f	-0.13839553
89	0x3e119ce3	0.14220004
90	0x3eaaeae1	0.33382323
91	0x3ec4bbcb	0.38424525
92	0x3e6826b4	0.22671014
93	0xbda9538d	-0.08267889
94	0xbe8a9f8c	-0.2707485
95	0x3e8ac3d2	0.27102524
96	0xbc255706	-0.010091549
97	0x3d759c26	0.059963368
98	0x3dcc7ef4	0.09985152
99	0x3e0063c0	0.12538052
100	0x3e2f3512	0.17110088
101	0xbca00609	-0.019534128
102	0xbe73e5c8	-0.23818123
103	0x3ead6cb2	0.3387199
104	0x3e966dcb	0.2938064
105	0x3e532b11	0.20621897
106	0x3e905dc6	0.28196543
107	0x3c8c4284	0.01712156
108	0x3e6ae6f7	0.22939669
109	0x3d569150	0.052384675
110	0x3ed1f3b6	0.4100625
111	0x3eb9ab46	0.36263484
112	0x3e623d1d	0.22093625
113	0x3e84c8ad	0.25934353
114	0xbcbd0070	-0.023071498
115	0x3da5caae	0.08095299
116	0x3dae720b	0.08517846
117	0x3dd0abc3	0.10189011
118	0x3e282916	0.16421923
119	0x3d30d352	0.04317028
120	0x3ea85338	0.3287599
121	0x3cf3f692	0.02978066
122	0x3dd0c5d7	0.10193985
123	0x3e0ca83a	0.13736048
124	0x3eb57279	0.35438898
125	0x3e2cc2c8	0.16871178
126	0x3e63bf65	0.2224098
127	0x3e3395ff	0.17537688

actor.weight f4 [9, 128]
0	0x3d205889	0.039146934
1	0xbbe90ac2	-0.007111878
2	0x3c43e2b8	0.011955909
3	0xbc86a75c	-0.016437225
4	0x3cf65ddb	0.03007405
5	0x3d4a23cc	0.049350545
6	0xbceba78b	-0.028766414
7	0xbd969280	-0.073521614
8	0xbd4a22f7	-0.04934975
9	0x3d949f46	0.072569415
10	0xbdb35e60	-0.08758235
11	0xbd035689	-0.03206495
12	0xbc67e503	-0.014153722
13	0x3cd0c653	0.025485193
14	0xbd4b58f9	-0.049645398
15	0x3cdca229	0.026932793
16	0xbdc03c49	-0.093864985
17	0xbc73fed6	-0.014892301
18	0xbd0cbebc	-0.034361586
19	0xbcab8756	-0.020938557
20	0xbd603d6e	-0.054746084
21	0xbdc72818	-0.09724444
22	0x3d35aa3d	0.044351805
23	0xbc9df2d6	-0.019280832
24	0xbd758d68	-0.05994931
25	0xbd442a2e	-0.04789179
26	0x3cda3ac8	0.026639357
27	0xbdc938b2	-0.09825267
28	0x3ca89143	0.020577079
29	0xbd9242a6	-0.071416184
30	0xbdaddab8	-0.08488983
31	0x3afbb399	0.0019203305
32	0xbe15a3e5	-0.14613302
33	0x3c464993	0.012102502
34	0xbdb9d394	-0.090735584
35	0xbdf4b138	-0.11947864
36	0xbdbe323d	-0.09286926
37	0x3c40e30c	0.011772882
38	0xbdc0f6ea	-0.09422095
39	0x3d3786c8	0.04480627
40	0xbdef6741	-0.11689616
41	0xbd8f1f12	-0.06988348
42	0xbd4e94b6	-0.05043479
43	0xbd264176	-0.040589772
44	0xbd79dedd	-0.061003555
45	0x3c0e1af1	0.0086734155
46	0xbcf488cb	-0.029850384
47	0xbb917bef	-0.004439823
48	0xbd98a986	-0.07454209
49	0x3dab3864	0.08360365
50	0xbdb0b5ab	-0.086284004
51	0xbe0d4791	-0.13796832
52	0xbdeb5946	-0.11491637
53	0xbda11537	-0.078653745
54	0xbdb97d9c	-0.09057161
55	0xbd85ddaf	-0.065364234
56	0xbe224e74	-0.1585024
57	0xbddf41c5	-0.109012164
58	0xbdff59cd	-0.124683
59	0x3c7f9731	0.015600012
60	0x3d90011d	0.07031462
61	0xbdcb4683	-0.099255584
62	0xbc2e2fd8	-0.010631524
63	0xbde5233f	-0.11188363
64	0xbda2b1e2	-0.07944085
65	0xbdd85440	-0.105629444
66	0xbde1085b	-0.10987922
67	0x3d56d1cb	0.052446168
68	0xbc2295a8	-0.009923376
69	0xbe1666be	-0.1468763
70	0xbdf1ee95	-0.11813084
71	0xbcb94818	-0.022617385
72	0xbd07c8cb	-0.033150475
73	0xbe1bddae	-0.15221283
74	0x3c1acaeb	0.0094477935
75	0xbde52da5	-0.11190347
76	0xbdd4caa6	-0.103902146
77	0x3aaf55ff	0.0013377069
78	0x3cf31e77	0.029677613
79	0xbd420604	-0.04736902
80	0xbbca1aab	-0.00616773
81	0xbd1f26ae	-0.038855247
82	0xbd8c27e4	-0.06843546
83	0xbc9f49ca	-0.019444365
84	0xbda474ab	-0.08030065
85	0xbd7ad116	-0.061234556
86	0xbdf07212	-0.11740507
87	0xbd706bd7	-0.058696594
88	0x3d604a2c	0.054758236
89	0xbc814d31	-0.015783878
90	0xbe0287a7	-0.1274706
91	0xbe19e833	-0.15029983
92	0xbcd6c64b	-0.0262176
93	0xbd47c5a4	-0.04877247
94	0xbd376267	-0.04477158
95	0xbd6db58e	-0.058034472
96	0xbd9089f8	-0.070575655
97	0xbdef4066	-0.11682205
98	0xbc584ee9	-0.013202407
99	0xbdabe165	-0.083926
100	0xbe0c5e53	-0.13707857
101	0xbd571bfb	-0.05251692
102	0xbccba559	-0.024859117
103	0xbc697603	-0.014249328
104	0xbd4f404c	-0.050598428
105	0xbc507ff5	-0.01272582
106	0xbd8c2351	-0.068426736
107	0xbb1b4070	-0.002368953
108	0xbd23733f	-0.03990483
109	0x3cd7a4da	0.026323725
110	0xbdb3452e	-0.08753429
111	0xbde9e21b	-0.11420079
112	0xbddbd4c7	-0.107339434
113	0xbcb4cad3	-0.02206937
114	0x3d5ba35c	0.05362259
115	0xbd250c05	-0.040294666
116	0xbcc2b9d8	-0.023770258
117	0xbd6f35da	-0.058400966
118	0xbdf1a92d	-0.11799846
119	0xbd5eb2b5	-0.054369647
120	0xbd965e7e	-0.07342242
121	0xbda1c2fc	-0.078985184
122	0xbe1743d5	-0.1477197
123	0x3d0e4728	0.03473583
124	0xbd713621	-0.058889512
125	0xbd063428	-0.032764584
126	0xbd99c019	-0.07507343
127	0x3c0b9cae	0.008521242
128	0xbca2030f	-0.01977685
129	0x3d80e157	0.0629298
130	0xbd481034	-0.048843578
131	0xbdfdbad4	-0.1238915
132	0xbd953abb	-0.072865926
133	0xbd82e208	-0.06390768
134	0xbbc12971	-0.005894833
135	0x3dfae77b	0.12251183
136	0x3bbb8ec0	0.0057238042
137	0xbdd5ffa4	-0.1044915
138	0x3e0999b3	0.13437538
139	0x3d2123c6	0.039340757
140	0xbde1218f	-0.10992729
141	0x3c07343e	0.008252202
142	0xbe059c2f	-0.1304786
143	0xbca6061a	-0.020266581
144	0x3d903daa	0.070430115
145	0x3db3e58d	0.08784018
146	0xbe47ef12	-0.19524792
147	0xbda035fc	-0.07822797
148	0xbdd2f9d6	-0.10301559
149	0xbe154d0c	-0.14580172
150	0x3e04e16c	0.12976617
151	0x3d8da611	0.0691644
152	0x3da68bb4	0.08132115
153	0x3cea8710	0.028628856
154	0x3db48424	0.08814266
155	0x3e1b01cc	0.15137404
156	0xbbccd965	-0.0062515014
157	0xbd5e6ad9	-0.054301117
158	0x3df002b1	0.11719263
159	0x3dda3264	0.106541425
160	0xbd8ace83	-0.0677767
161	0xbd2e2002	-0.042510994
162	0x3dfeafc4	0.124358684
163	0xbe50af00	-0.20379257
164	0xbdfc05e9	-0.12305815
165	0xbd9e8299	-0.07739753
166	0xbe0bbd75	-0.13646491
167	0x3ce77089	0.028251903
168	0xbdadbbdf	-0.08483099
169	0xbdb10499	-0.08643455
170	0xbd82f42b	-0.063942276
171	0xbd80ff57	-0.06298702
172	0x3d39de77	0.045378175
173	0x3c50af83	0.012737158
174	0xbe55cd9d	-0.20879216
175	0x3e265e2d	0.16246863
176	0xbce16166	-0.027512264
177	0xbdae7b39	-0.085195966
178	0xbe336811	-0.17520167
179	0xbe29f8f8	-0.1659888
180	0x3d126f51	0.03575069
181	0xbe186801	-0.14883424
182	0xbe2354cf	-0.1595032
183	0x3c823534	0.01589451
184	0xbd12ee64	-0.03587188
185	0x3cbdca68	0.023167804
186	0x3d7646c9	0.0601261
187	0x3df7ec82	0.12105657
188	0x3dc08c35	0.09401742
189	0xbe60cf39	-0.21954049
190	0xbd9b56d3	-0.0758492
191	0x3d23328c	0.039843127
192	0xbdcf98dd	-0.10136578
193	0xbc301c79	-0.010748976
194	0x3e3f9696	0.18709788
195	0x3dba05d4	0.09083143
196	0xba5ce3a0	-0.0008426253
197	0xbd6c2d66	-0.057660483
198	0xbbe8b9f8	-0.0071022473
199	0xbdae039a	-0.08496781
200	0x3da58597	0.08082121
201	0xbe1d5d7d	-0.15367694
202	0x3dde291a	0.10847683
203	0x3d6839ea	0.056695856
204	0xbda11a56	-0.07866351
205	0xbd460ac1	-0.0483501
206	0xbc74d264	-0.014942739
207	0xbdde027a	-0.10840316
208	0xbdd6b1c1	-0.104831226
209	0xbbbe9e4f	-0.0058172117
210	0x3df8fec6	0.12157969
211	0xbe308978	-0.1723994
212	0xbe70066f	-0.23439954
213	0xbd6dbb7c	-0.058040127
214	0x3d942260	0.07233119
215	0xbe003420	-0.12519884
216	0x3cd19b5c	0.025586776
217	0xbd8b3b94	-0.06798473
218	0xbda3b98b	-0.07994374
219	0xbd7859ae	-0.0606324
220	0x3df4a7a6	0.11946039
221	0x3dbf1b9e	0.093314394
222	0x3cbccb74	0.023046233
223	0xbe134327	-0.14381085
224	0xbd8d5efa	-0.06902881
225	0xbca5b5aa	-0.020228226
226	0xbe5e880e	-0.21731588
227	0xbe3d5126	-0.18487987
228	0x3d53fe5e	0.051756255
229	0x3dd02155	0.101626076
230	0x3d3547cd	0.044257928
231	0x3d10a54e	0.035313897
232	0xbdcbee4f	-0.09957563
233	0x3dd3e4d8	0.10346383
234	0xbd62e2c7	-0.055392053
235	0x3caa3fd5	0.02078239
236	0xbda503fb	-0.080574
237	0xbbc0525a	-0.005869192
238	0xbe099ce0	-0.1343875
239	0xbde57fee	-0.11206041
240	0x3d75984f	0.059959706
241	0xbe3ca9a0	-0.18424082
242	0xbe4be86d	-0.19912882
243	0xbd491c20	-0.049099088
244	0x3d64dea8	0.055876404
245	0x3d0ccdee	0.034376077
246	0xbd584329	-0.052798424
247	0xbdefbd96	-0.117060825
248	0xbd98a359	-0.07453031
249	0xbdd4a819	-0.103836246
250	0xbdc8b111	-0.09799398
251	0x3dd3bae2	0.103383794
252	0xbda81769	-0.0820759
253	0x3dbb6ea2	0.09151961
254	0xbcf0efdc	-0.029411249
255	0xbdedaa2f	-0.116047256

actor.bias f4 [9]
0	0x3c853387	0.016259922
1	0xbc3ea937	-0.011637024
2	0xbc8b8f69	-0.017036157
3	0xbce929ab	-0.028462252
4	0x3b20b0c1	0.0024519416
5	0xbd120cf1	-0.035656873
6	0x3cda356a	0.026636798
7	0xbd12f2c1	-0.03587604
8	0x3d35d414	0.044391707

critic.weight f4 [1, 128]
0	0x3df43c39	0.11925549
1	0x3dc0e179	0.094180055
2	0x3d886ffd	0.06661985
3	0x3eae5240	0.34047127
4	0xbc3d01d1	-0.011536078
5	0x3e91dec0	0.28490257
6	0x3e3b0e36	0.1826714
7	0xbd211dd4	-0.039335087
8	0x3e776428	0.241593
9	0x3e93d4a9	0.28873184
10	0x3e8d6a4e	0.27620167
11	0x3daa149e	0.08304714
12	0xbe0012c4	-0.12507159
13	0x3e1ea4b3	0.15492515
14	0xbe122828	-0.14273131
15	0x3e8df02b	0.27722296
16	0x3eb95083	0.36194238
17	0x3e3c2f5e	0.18377444
18	0x3e2b64a9	0.16737618
19	0xbd4082cf	-0.04699975
20	0x3e421963	0.18954997
21	0x3e79f9ae	0.24411651
22	0xbe51b064	-0.20477444
23	0x3edb6c00	0.42855835
24	0x3dfa1067	0.1221016
25	0x3daa43ec	0.08313736
26	0xbc6a0992	-0.014284508
27	0x3e86407a	0.26221067
28	0x3e7f7bef	0.2494962
29	0x3e64145c	0.22273391
30	0x3e367962	0.17819741
31	0x3e1197cc	0.14218062
32	0x3e5fe95a	0.2186636
33	0x3e8b8f7b	0.27257904
34	0x3ea67139	0.32508257
35	0x3d8f446a	0.06995471
36	0x3e097db5	0.1342686
37	0x3e14a372	0.14515474
38	0x3e67fe2d	0.22655554
39	0xbe27721e	-0.16352126
40	0x3e7a31b0	0.24433017
41	0x3ebb03bf	0.36526296
42	0x3e8952df	0.26821038
43	0xbd5dcee6	-0.05415239
44	0xbd9fd7af	-0.0780481
45	0x3e872bbd	0.26400557
46	0x3e98cc35	0.29843298
47	0x3e990363	0.29885396
48	0x3e7c1199	0.24616088
49	0xbd2ea712	-0.0426398
50	0x3eb2d0c6	0.34924906
51	0x3e904f75	0.2818562
52	0x3ea9cbdf	0.33163354
53	0x3ebf5e10	0.37376451
54	0x3e80cd16	0.25156468
55	0x3e872948	0.26398683
56	0x3e60dac8	0.21958458
57	0xbd6f3ded	-0.058408666
58	0x3e918dc4	0.2842847
59	0x3d9869f0	0.07442081
60	0xbd310e25	-0.04322638
61	0x3e90e5f3	0.28300437
62	0x3e3d819c	0.18506473
63	0x3e17312f	0.14764856
64	0x3e9800f3	0.29688224
65	0x3e764a6b	0.24051826
66	0x3de8f848	0.11375481
67	0xbc2ac62a	-0.010423223
68	0x3e313386	0.17304811
69	0x3e5e397c	0.21701616
70	0x3e4ceb21	0.2001157
71	0xbc50a753	-0.012735206
72	0x3e82b5ba	0.2552927
73	0x3e68fcea	0.22752729
74	0x3eb655f2	0.35612446
75	0x3e8da068	0.27661443
76	0x3e4e870b	0.20168702
77	0x3e9009cc	0.28132474
78	0x3ea61b37	0.32442638
79	0x3eb18830	0.34674215
80	0x3e5fe197	0.218634
81	0x3da43f74	0.08019915
82	0x3e4794ef	0.19490407
83	0xbe009490	-0.12556672
84	0x3e730a59	0.23734416
85	0x3e832b81	0.25619128
86	0x3d1fefea	0.03904716
87	0x3ea0dd7e	0.31418985
88	0xbde2599c	-0.11052248
89	0x3e9881dc	0.29786575
90	0x3e8bfba5	0.27340427
91	0x3e59647e	0.21229741
92	0x3e904f97	0.28185722
93	0xbd91f5a5	-0.07126931
94	0xbcab2e9b	-0.020896247
95	0x3e635b18	0.22202718
96	0xbe5b60c1	-0.21423627
97	0x3eb41c9f	0.35178086
98	0x3e8aba66	0.27095336
99	0x3e40f345	0.188428
100	0x3e6e6352	0.23280075
101	0x3ea6c514	0.32572234
102	0x3cf24529	0.029573994
103	0x3e586a4e	0.21134302
104	0x3e41c50f	0.18922828
105	0x3d8506f3	0.06495466
106	0x3e974f40	0.2955265
107	0x3e9d2259	0.30690268
108	0x3e81bb72	0.25338322
109	0xbcda04f5	-0.026613692
110	0x3e50fd1f	0.20409058
111	0x3e4fc170	0.20288634
112	0x3e2ac67c	0.16677278
113	0x3e736145	0.23767574
114	0xbe110ab3	-0.14164238
115	0x3e97b55f	0.29630563
116	0x3e606d53	0.21916704
117	0xbbb04c81	-0.0053802137
118	0x3de8c455	0.11365572
119	0x3e9b7c81	0.30368426
120	0x3db72888	0.089432776
121	0x3e4ee298	0.20203626
122	0x3e885598	0.26627803
123	0x3e54c224	0.20777184
124	0x3e113300	0.14179611
125	0x3e100d61	0.14067604
126	0x3e8553f1	0.26040605
127	0x3e5e8c5e	0.21733233
