models/navigation_icm.pth (torch, 50644 bytes, 8 tensors)

inverse_model.0.weight f4 [128, 36]
0	0xbc0147f0	-0.007890686
1	0x3caee480	0.021349192
2	0xbdd77abf	-0.10521459
3	0x3d4848ec	0.04889767
4	0xbe5b1a94	-0.21396858
5	0xbd3665bf	-0.044530626
6	0x3e262a71	0.16227128
7	0xbd899a3e	-0.067188725
8	0x3df93f68	0.12170297
9	0x3dcadc46	0.09905295
10	0x3c81a635	0.015826324
11	0xbe07d546	-0.13264951
12	0x3ddfd351	0.10928977
13	0x3daa77bc	0.08323619
14	0xbd94eba1	-0.07271505
15	0x3e2408ae	0.16018936
16	0x3da4166d	0.0801209
17	0xbdf056bb	-0.117352925
18	0xbdc801c3	-0.09765961
19	0xbd7611a2	-0.06007541
20	0x3e8b1645	0.27165428
21	0x3e80bf8b	0.25146136
22	0xbe58b78b	-0.21163766
23	0xbe3e52bb	-0.18586247
24	0x3e10c66c	0.14138192
25	0x3e2f66cf	0.17129062
26	0xbd1bdb80	-0.03805113
27	0x3e2d8a0b	0.1694719
28	0x3dc8705e	0.09787057
29	0xbd2a6800	-0.04160309
30	0x3d8c5152	0.06851448
31	0xbd82ccbd	-0.06386707
32	0x3d1b578b	0.037925284
33	0x3dccc95b	0.09999343
34	0x3d39288b	0.04520468
35	0xbdbae1dc	-0.091251105
36	0xbdcbfd56	-0.09960429
37	0x3d38eef0	0.045149744
38	0xbd543bab	-0.051814716
39	0x3cbcc3d2	0.023042593
40	0x3dff3362	0.12460972
41	0xbd2b751c	-0.04185973
42	0x3e0935d1	0.13399436
43	0x3cba43bd	0.022737378
44	0x3dca279f	0.098708384
45	0x3d885807	0.06657415
46	0xbba3e653	-0.005001822
47	0x3e267ed8	0.16259325
48	0xbda02e15	-0.078212894
49	0xbd1c0d83	-0.038098823
50	0x3db4ea03	0.08833697
51	0xbd3add96	-0.045621477
52	0x3cc11132	0.02356777
53	0x3d9de1a7	0.077090554
54	0x3dfd0ca0	0.12355924
55	0x3d003a9b	0.03130589
56	0x3e2ded99	0.16985168
57	0x3b3bc0ab	0.0028648775
58	0x3dccf687	0.10007959
59	0x3dfc407f	0.12316989
60	0x3db78a9c	0.089619845
61	0xbe002460	-0.12513876
62	0xbe213f23	-0.15746741
63	0x3cdb4be7	0.026769591
64	0x3cad7609	0.021174448
65	0xbda59da8	-0.08086711
66	0x3e0df494	0.1386283
67	0xbd8c897b	-0.0686216
68	0x3df765cb	0.12079962
69	0x3d78bac3	0.060724985
70	0x3df51ff5	0.11968986
71	0x3d19f51b	0.037587266
72	0x3e0590ce	0.1304352
73	0x3d845cbc	0.06463
74	0xbdcac4ff	-0.09900855
75	0xbdca59db	-0.0988042
76	0xbe373cd8	-0.17894304
77	0xbd182bf0	-0.037151277
78	0x3dd74039	0.105102964
79	0xbca2fb9e	-0.019895371
80	0xbe1201f0	-0.14258552
81	0x3d218a5a	0.039438583
82	0xbd82f16b	-0.06393703
83	0x3de97660	0.11399531
84	0xbb032cbc	-0.0020015677
85	0xbcfd7972	-0.030941699
86	0xbded7bfb	-0.11595913
87	0x3c40169d	0.011724141
88	0xbc6af8aa	-0.014341513
89	0x3dff9a40	0.12480593
90	0xbdc0dcb2	-0.09417094
91	0xbb7e6dcf	-0.0038822775
92	0x3e2379a7	0.15964375
93	0xbe52802a	-0.20556703
94	0xbe0938c5	-0.13400562
95	0x3e75f3a6	0.24018726
96	0x3daae328	0.08344108
97	0xbe1d437c	-0.15357774
98	0x3d8068f5	0.06270019
99	0xbdc5afae	-0.09652649
100	0x3dc873a6	0.09787683
101	0xbc08c369	-0.008347371
102	0xbdffe60d	-0.124950506
103	0x3df60fd7	0.1201474
104	0xbd5109ad	-0.05103462
105	0xbd820209	-0.063480444
106	0x3debe3d7	0.115180664
107	0xbc4fb4ba	-0.012677366
108	0xbde707f9	-0.112808175
109	0xbd1c7a7f	-0.03820276
110	0x3c71426e	0.014725311
111	0x3e0087fa	0.12551871
112	0xbdcbcbf9	-0.09951014
113	0xbd5a3534	-0.053273395
114	0xba86b9b3	-0.0010278731
115	0xbe12126d	-0.14264841
116	0x3cefc01e	0.029266413
117	0x3e28e7c7	0.16494666
118	0x3e0bdac2	0.13657668
119	0x3d51aa9f	0.051188108
120	0x3dc26a3b	0.09492918
121	0xbdbeb86e	-0.09312521
122	0x3df9bedd	0.121946074
123	0xbdc020e0	-0.093812704
124	0x3af8e8f8	0.0018990329
125	0x3b647a19	0.0034862815
126	0xbe527589	-0.20552649
127	0xbd7e211d	-0.062043298
128	0xbe8352ff	-0.25649258
129	0xbe48738f	-0.19575332
130	0x3db986c7	0.0905891
131	0x3dca280f	0.09870922
132	0xbd999f16	-0.07501046
133	0xbd3988d2	-0.045296498
134	0x3e1e0ce5	0.15434606
135	0xbc456a24	-0.012049232
136	0xbdc3cee5	-0.095609464
137	0x3e10fa10	0.14157891
138	0xbd2cf4fb	-0.04222582
139	0x3d413e9c	0.04717885
140	0x3de115cf	0.10990488
141	0xbd8c4c0b	-0.068504415
142	0xbe12fe7f	-0.14354895
143	0x3e38ec0e	0.18058798
144	0x3dfcb216	0.12338655
145	0xbe1bfb5c	-0.15232605
146	0x3d145008	0.036209136
147	0xbdeb20c5	-0.1148086
148	0x3de085da	0.1096303
149	0xbe6a448e	-0.22877714
150	0x3e0c84bb	0.13722508
151	0x3d17fa8c	0.037104174
152	0x3c010bb9	0.00787633
153	0x3db49f9d	0.08819506
154	0xba22e559	-0.0006213985
155	0xbdd0ab2c	-0.101888984
156	0xbd5096bb	-0.050924998
157	0x3c8ff4d1	0.017572792
158	0x3d5cdb42	0.053920038
159	0xba043a47	-0.00050440844
160	0x3d477935	0.048699576
161	0x3e1c0298	0.15235364
162	0xbe1b7ee8	-0.1518513
163	0x3dd82cf8	0.10555452
164	0xbe86f5a0	-0.26359272
165	0x3d6cf02f	0.057846244
166	0x3e49fd9a	0.19725648
167	0xbe0ee817	-0.13955723
168	0xbe160128	-0.14648879
169	0xbe150b6b	-0.14555137
170	0xba1f0f5f	-0.0006067659
171	0x3ddd20cf	0.10797273
172	0xbd84bca3	-0.06481292
173	0x3e33a1b5	0.17542155
174	0xbe0475b3	-0.12935524
175	0x3b219f4b	0.0024661596
176	0xbe08255e	-0.13295504
177	0x3df14cb0	0.11782205
178	0xba4e63b3	-0.00078731327
179	0x3db6a5b1	0.08918322
180	0xbc164041	-0.009170593
181	0x3cb8b8e1	0.022549095
182	0x3c932d43	0.017965918
183	0x3dc6bdd2	0.09704174
184	0x3e83ff57	0.25780746
185	0xbcc12dbd	-0.02358138
186	0x3d649e5d	0.05581509
187	0xbd71e33a	-0.05905459
188	0xbd5239cd	-0.051324654
189	0x3dc7d867	0.09758072
190	0xbd62473c	-0.055243716
191	0xbb198f29	-0.0023431277
192	0xbca5db05	-0.020246038
193	0xbcc5308e	-0.024071004
194	0x3c2e0645	0.010621612
195	0xbdf74408	-0.12073523
196	0x3da7f7d1	0.08201564
197	0x3dd59ba2	0.10430075
198	0x3b0125af	0.00197063
199	0x3d8d7a9a	0.0690815
200	0xbeb9a68e	-0.36259884
201	0x3d9df764	0.07713202
202	0x3ddffd26	0.10936956
203	0xbda15474	-0.07877436
204	0x3d356ede	0.044295184
205	0x3da371b2	0.0798067
206	0xbd58dde6	-0.052945994
207	0x3dd98f41	0.10623027
208	0x3ce17a89	0.02752425
209	0x3d8ec128	0.069704354
210	0x3e2de244	0.16980845
211	0x3e2d90b6	0.16949734
212	0xbe03ed54	-0.12883502
213	0xbc9cb43a	-0.019128907
214	0xbdd1784f	-0.10228025
215	0xbdce9d8d	-0.10088644
216	0xbdbc9bcb	-0.09209403
217	0x3d7b097a	0.061288334
218	0x3ce9df44	0.028548844
219	0xbd907add	-0.07054684
220	0xbe094842	-0.1340647
221	0x3e5fa80d	0.2184145
222	0xbde55ac9	-0.111989565
223	0xbb84b31a	-0.004049671
224	0xbdce0c84	-0.10060981
225	0xbd3a97d4	-0.04555495
226	0xbe033205	-0.1281205
227	0xbdf87777	-0.12132161
228	0x3dfdc440	0.12390947
229	0x3e326623	0.17421775
230	0xbddab563	-0.10679128
231	0x3d51be2e	0.05120676
232	0xbc521011	-0.012821213
233	0xbd07cedd	-0.033156265
234	0xbe0781ce	-0.1323311
235	0x3e15cd14	0.14629012
236	0x3e0dd0c2	0.13849166
237	0xbe60a4f3	-0.21937923
238	0x3cff15d3	0.031138336
239	0x3dfa1213	0.12210479
240	0x3d0644b3	0.03278036
241	0xbe1a1751	-0.15047957
242	0x3da3b9fb	0.07994457
243	0x3e2cf8bd	0.16891761
244	0x3c48f442	0.012265267
245	0x3dbe5dd5	0.09295241
246	0xbcff6497	-0.031175895
247	0x3d95eb6e	0.07320295
248	0x3de36030	0.11102331
249	0x3c285712	0.010274665
250	0x3df14a13	0.11781707
251	0xbd203c9e	-0.03912031
252	0x3dea6b26	0.11446218
253	0xbd6690b2	-0.056290336
254	0x3c8a7417	0.01690106
255	0xbca0c6be	-0.019626018

inverse_model.0.bias f4 [128]
0	0x3ddce4ec	0.10785851
1	0xbdc6d8f4	-0.09709349
2	0x3e387c31	0.18016125
3	0xbacfa09d	-0.0015840713
4	0x3e393650	0.18087125
5	0x3e4ac4ef	0.19801687
6	0xbd0a70d5	-0.03379901
7	0x3e6d0782	0.23147395
8	0xbd4211ed	-0.047380377
9	0x3e261b13	0.16221265
10	0x3e56b2b2	0.20966604
11	0x3e269b03	0.1627007
12	0x3c8806e9	0.016604858
13	0x3e14085c	0.14456314
14	0x3e620296	0.22071299
15	0x3c315be7	0.010825134
16	0x3e11435e	0.14185855
17	0x3d7bd94d	0.06148653
18	0x3cfc9a7e	0.030835386
19	0xbaba4fec	-0.0014214492
20	0x3e1c1f97	0.15246426
21	0x3e287603	0.16451268
22	0x3e3559fa	0.17710105
23	0x3c830381	0.015992882
24	0x3d869a41	0.0657239
25	0x3e04b3f6	0.12959275
26	0xbd900738	-0.07032627
27	0x3c687697	0.01418843
28	0x3e607bd6	0.2192224
29	0xbd9dd93e	-0.07707451
30	0x3e03db08	0.12876523
31	0x3dea061e	0.11426948
32	0x3e4e01f9	0.2011794
33	0xbe0ac170	-0.13550353
34	0xbdc9c223	-0.09851482
35	0x3d18f3c4	0.037341848
36	0x3dfe731c	0.12424299
37	0x3dc7d29a	0.09756966
38	0x3e267f4b	0.16259496
39	0x3beccc6a	0.0072265165
40	0x3de6ed44	0.112757236
41	0x3df0045b	0.11719581
42	0x3e67258e	0.2257292
43	0xbdb46d26	-0.08809881
44	0x3e15b852	0.14621094
45	0x3d511b3b	0.05105136
46	0x3e056dae	0.1303012
47	0xbd94bc61	-0.07262493
48	0xbd8d35c5	-0.06895021
49	0x3e29229b	0.16517107
50	0x3df689b0	0.120379806
51	0x3cd9a6ea	0.026568849
52	0x3e184a0e	0.14872
53	0x3e190eff	0.14947127
54	0x3e47502d	0.19464178
55	0x3dbb226a	0.09137423
56	0x3dfb4c5c	0.12270424
57	0xbdebcad6	-0.11513297
58	0x3df825ce	0.12116586
59	0x3dbc13b3	0.09183445
60	0x3e010616	0.12599978
61	0x3e5f18a4	0.21786743
62	0x3d3ff171	0.046861116
63	0x3ca58338	0.020204172
64	0x3d9c7437	0.07639354
65	0x3ccc814e	0.024964001
66	0x3d12535c	0.03572403
67	0x3cd4467c	0.025912516
68	0x3e1b7539	0.15181436
69	0x3e53d821	0.20687915
70	0x3e4e9763	0.20174937
71	0xbc236637	-0.0099731
72	0xbe207f17	-0.15673481
73	0x3dfe7231	0.12424124
74	0x3e5a69d6	0.21329436
75	0x3d58918e	0.052873187
76	0x3e3c39ba	0.18381396
77	0x3db83122	0.08993746
78	0x3e09612c	0.13415974
79	0x3e4bc6d6	0.19900069
80	0xbd3ba764	-0.045813933
81	0xbd59704d	-0.053085614
82	0x3e217472	0.15767077
83	0x3d8d2755	0.068922676
84	0xbe01a85a	-0.12661877
85	0x3e400060	0.18750143
86	0x3e428c52	0.1899884
87	0x3e2b3bf9	0.16722097
88	0x3d6e92c2	0.058245428
89	0x3d8bdc49	0.068291254
90	0xbd37e1ee	-0.044893198
91	0x3e1d993e	0.15390489
92	0x3e3a92aa	0.1822001
93	0x3d22d789	0.03975633
94	0x3dae90e2	0.08523728
95	0x3e3ea54e	0.18617746
96	0x3e324f5f	0.1741309
97	0xbe0a85b3	-0.13527565
98	0x3c62e4c2	0.013848485
99	0x3e69fe82	0.22850993
100	0x3dcc8528	0.09986335
101	0xbc7aef46	-0.015315836
102	0x3e04f696	0.1298469
103	0x3db9c5e3	0.09070947
104	0xbd8f69a9	-0.07002575
105	0x3e6a113b	0.22858135
106	0x3e48fc26	0.19627437
107	0x3dfcef0c	0.12350282
108	0x3cb57e8f	0.022155074
109	0xbe2224eb	-0.15834396
110	0x3d843a1d	0.06456397
111	0x3e7008df	0.23440884
112	0x3dbe2282	0.092839256
113	0xbbfff578	-0.0078112446
114	0x3dfdfb91	0.12401498
115	0xbddd26ac	-0.10798392
116	0xbc00e44a	-0.007866928
117	0x3e01f21d	0.12690015
118	0x3e088e34	0.13335496
119	0x3e2942f0	0.16529441
120	0x3dddf25a	0.108372405
121	0x3e378f2b	0.17925708
122	0x3ca837a0	0.020534337
123	0xbbf6a2ae	-0.007526717
124	0x3e41f75a	0.18942013
125	0x3df69273	0.12039652
126	0x3e2bd544	0.16780573
127	0xbd06befa	-0.032896973

inverse_model.2.weight f4 [9, 128]
0	0xbd0fed6a	-0.035138525
1	0xbd891deb	-0.066951595
2	0xbde13eca	-0.10998304
3	0xbd95ca20	-0.07313943
4	0xbba793b6	-0.005114044
5	0xbd9119b9	-0.07084984
6	0xbcc694b6	-0.024240833
7	0xbe2815b6	-0.16414532
8	0x3c52c6ac	0.01286475
9	0xbd02ab9c	-0.03190194
10	0xbe1e0ddc	-0.15434974
11	0xbd63e148	-0.055634767
12	0x3c90fc61	0.017698469
13	0xbda94967	-0.082659535
14	0xbd1bb050	-0.03800994
15	0xbdfff2f3	-0.12497511
16	0xbd418fe2	-0.047256358
17	0xbd766df9	-0.06016347
18	0x3d2cbec1	0.042174105
19	0xbc4aca3f	-0.012377321
20	0xbc201816	-0.009771368
21	0xbde333f9	-0.11093897
22	0xbcb2c13f	-0.021820663
23	0xbdd03c74	-0.101677805
24	0xbcb9a341	-0.022660853
25	0xbc400f32	-0.011722373
26	0xbdf97e1a	-0.12182255
27	0xbcdf09ed	-0.027226413
28	0xbdc8312f	-0.09775006
29	0xbd4ded62	-0.050275214
30	0x3c4eebb1	0.012629435
31	0xbd237480	-0.039906025
32	0xbdc07309	-0.09396941
33	0x3d06ca0b	0.032907527
34	0x3ba4ea45	0.00503281
35	0xbded657b	-0.115916215
36	0xbdcf6e66	-0.10128479
37	0xbbe9369a	-0.0071171047
38	0xbdeabe8f	-0.114621274
39	0xbd23a165	-0.03994884
40	0x3c059b15	0.00815465
41	0xbdfc07dc	-0.123061866
42	0xbe02ed68	-0.12785876
43	0x3c79075a	0.015199507
44	0xbd00e8e9	-0.03147212
45	0xbd672b7e	-0.05643796
46	0xbd231fe9	-0.039825354
47	0x3d1ad058	0.03779635
48	0x3d37c3bc	0.0448644
49	0xbcc2c028	-0.023773268
50	0xbe11a1d8	-0.14221895
51	0xbd06c571	-0.03290314
52	0xbdef6e44	-0.116909534
53	0xbd663f0d	-0.056212474
54	0xbd7cd3c5	-0.061725397
55	0xbe22e753	-0.15908556
56	0xbd496388	-0.049167186
57	0xbc94e617	-0.018176122
58	0xbbc904a5	-0.006134587
59	0xbe30ce16	-0.17266116
60	0xbd93fa09	-0.07225425
61	0xbce2a744	-0.02766765
62	0x3c47dabc	0.012198146
63	0x3cf88765	0.030337999
64	0xbd4c0bbb	-0.049815875
65	0xbdac0deb	-0.08401092
66	0x3c38d35b	0.01128086
67	0xbe0155b6	-0.12630352
68	0xbde4177a	-0.1113729
69	0xbe019cab	-0.1265742
70	0xbe17708e	-0.1478903
71	0xbd3a57f5	-0.04549404
72	0x3ccfa960	0.025349319
73	0xbc2d5eab	-0.010581653
74	0xbde84ec1	-0.11343146
75	0xbe06cbf0	-0.13163733
76	0xbe154af6	-0.14579377
77	0xbdd12363	-0.102118276
78	0xbd9e8816	-0.077408
79	0xbdf15fc1	-0.11785842
80	0x3d2ad682	0.041708477
81	0x3ca1f90b	0.019772073
82	0xbc171be8	-0.009222962
83	0xbc42df70	-0.011894092
84	0x3d5ce64a	0.05393056
85	0xbc26c6bc	-0.010179218
86	0x3c8d5375	0.01725171
87	0xbe0f9a35	-0.14023669
88	0x3d11a5cd	0.03555851
89	0xbc8703a4	-0.016481228
90	0xbcf2eae9	-0.02965303
91	0xbdd10226	-0.10205488
92	0xbdc3b049	-0.09555108
93	0xbc34de4d	-0.011039329
94	0x3b59bd25	0.0033224311
95	0xbbda5fee	-0.0066642677
96	0xbdee78f8	-0.11644167
97	0xbc024ee3	-0.007953378
98	0xbe09d7de	-0.13461253
99	0xbc2d2419	-0.010567688
100	0xbd053629	-0.032522354
101	0x3d17e92d	0.037087608
102	0xbd7c3a35	-0.061578948
103	0xbddf4835	-0.10902444
104	0xbd8d3ad2	-0.06895985
105	0xbdba680c	-0.091018766
106	0xbd493c9e	-0.049130075
107	0xbcac3e4e	-0.021025803
108	0xbdbf9fef	-0.09356677
109	0x3b4a29c9	0.003084766
110	0xbced647f	-0.028978584
111	0xbe102f03	-0.14080434
112	0xbdaca93e	-0.08430718
113	0xbbe67b6d	-0.0070337565
114	0xbe1094e9	-0.14119305
115	0x3c7add9e	0.015311627
116	0x3ca7d172	0.020485613
117	0xbce544cc	-0.027986906
118	0x3b73dc8b	0.0037210311
119	0xbd37580c	-0.044761702
120	0xbc2ea7df	-0.010660141
121	0xbd84e5b9	-0.064891286
122	0xbd5f4941	-0.05451322
123	0xbc365981	-0.011129738
124	0xbd9bfc25	-0.07616452
125	0x3cb8a287	0.022538437
126	0xbd40da38	-0.04708311
127	0xbd262743	-0.040564787
128	0xbe1c2129	-0.15247025
129	0xbc180887	-0.009279377
130	0x3d3f921e	0.046770208
131	0xbd9d1d1d	-0.076715685
132	0xbe19bd17	-0.15013538
133	0xbdda3542	-0.10654689
134	0x3bf47fb5	0.007461513
135	0xbd5a15b2	-0.053243347
136	0x3d828513	0.06373038
137	0x3dcdc950	0.10048163
138	0xbdfea391	-0.124335416
139	0x3b62b9c7	0.0034595595
140	0x3dc4bf16	0.09606759
141	0xbd2b154d	-0.04176836
142	0xbd9e110c	-0.07718095
143	0xbca6aea4	-0.020346947
144	0xbd677bdd	-0.05651461
145	0xbcaba87d	-0.020954365
146	0x3d4ef400	0.050525665
147	0xbd63cb7e	-0.055613987
148	0x3ddfeb5a	0.109335616
149	0x3c9a65df	0.018847404
150	0xbe38f56c	-0.18062371
151	0xbd8c5ad7	-0.06853264
152	0x3ba1b8a4	0.004935341
153	0xbcb1277d	-0.021625275
154	0xbd4a658f	-0.04941326
155	0xbd104286	-0.03521969
156	0xbe07b84a	-0.13253894
157	0xbe142457	-0.14466988
158	0xbd52d166	-0.05146923
159	0xbdfeb8b0	-0.1243757
160	0x3cf2c649	0.029635565
161	0x3d3e222b	0.046419304
162	0x3d810732	0.063002005
163	0xbd103d6e	-0.035214834
164	0xbdf4e22f	-0.119572036
165	0xbd31668c	-0.043310687
166	0xbde41581	-0.11136914
167	0x3cce1882	0.02515817
168	0xbba10cf6	-0.004914875
169	0xbe0ee349	-0.1395389
170	0xbd8e320a	-0.06943138
171	0x3d4c0c0b	0.049816173
172	0x3d5bf3ec	0.05369942
173	0xbd6fc487	-0.058537032
174	0xbe421f92	-0.18957356
175	0x3bf99766	0.007616925
176	0xbd8a5aee	-0.06755625
177	0x3e076459	0.13221873
178	0xbd4e339f	-0.0503422
179	0xbc69824f	-0.014252259
180	0xbe166a23	-0.14688925
181	0xbe0a4666	-0.13503417
182	0xbd62358f	-0.05522686
183	0xbe03a1a2	-0.12854627
184	0xbe5606ca	-0.20901027
185	0xbcec4ca1	-0.028845133
186	0xbcbc79be	-0.02300727
187	0x3d018837	0.031624045
188	0xbe2155d6	-0.157554
189	0xbd995cab	-0.07488378
190	0xbe4e9245	-0.20172985
191	0xbc293bc8	-0.010329194
192	0x3cbe64be	0.023241397
193	0xbd571921	-0.0525142
194	0xbdaac626	-0.08338575
195	0xbd80aece	-0.06283341
196	0xbdc7ca49	-0.0975538
197	0xbe0714a1	-0.13191463
198	0xbd59f926	-0.053216122
199	0x3db51a06	0.08842854
200	0x3cdac223	0.0267039
201	0x3bfafc63	0.0076594814
202	0xbe004a88	-0.12528431
203	0xbd810af4	-0.06300917
204	0x3dc9e706	0.09858517
205	0xbce7fe96	-0.028319638
206	0xbd005d0d	-0.03133874
207	0xbdf3fe65	-0.11913756
208	0xbc6cbf5b	-0.01444992
209	0x3d8bb971	0.068224795
210	0xbace5c4c	-0.0015744059
211	0xbdd7bbde	-0.1053388
212	0xbd84f6cd	-0.06492386
213	0xbe43af48	-0.19109833
214	0xbdea207e	-0.11431979
215	0xbbcfd267	-0.0063422206
216	0xbda76cfe	-0.081750855
217	0xbcd721fe	-0.026261326
218	0xbd4282e7	-0.04748812
219	0xbd76dfd1	-0.06027204
220	0xbcfbf7c7	-0.030757798
221	0x3ca60049	0.020263808
222	0x3d1bbcbf	0.0380218
223	0xbe15cf77	-0.14629923
224	0xbda2aa74	-0.079426676
225	0xbd3c2b59	-0.045939777
226	0xbd9ed161	-0.077547796
227	0xbc051813	-0.0081234155
228	0xbe22c69e	-0.15896079
229	0xbd94f647	-0.07273536
230	0xbd454a56	-0.048166595
231	0xbcf4fe58	-0.029906437
232	0x3c6539e8	0.013990857
233	0xbc810fc3	-0.015754586
234	0x3dbe3305	0.09287075
235	0xbcd07732	-0.025447462
236	0x3cb4c8e3	0.022068447
237	0x3c463913	0.0120985685
238	0xbd9b817c	-0.075930566
239	0x3cc7512f	0.024330704
240	0x3caae5a0	0.020861447
241	0xbd564e24	-0.052320614
242	0x3d157551	0.036488835
243	0xbbc0842a	-0.00587513
244	0xbde77cae	-0.11303078
245	0xbda31b84	-0.079642326
246	0x3dd28fa4	0.102813035
247	0xbd6544a3	-0.05597366
248	0x3cdcf089	0.026970165
249	0xbd7fa550	-0.062413514
250	0xbc939d1d	-0.018019253
251	0xbd895225	-0.06705121
252	0x3d1d3726	0.03838267
253	0xbdcc1792	-0.09965433
254	0xbe3eb929	-0.1862532
255	0xbe1aa254	-0.15100986

inverse_model.2.bias f4 [9]
0	0xbdb5e185	-0.08880905
1	0xbd6730c4	-0.05644299
2	0xbd94a973	-0.072588824
3	0xbda05f98	-0.07830733
4	0x3b8f8742	0.0043801377
5	0x3d26cd28	0.040722996
6	0xbd239c65	-0.03994407
7	0x3cf5487f	0.029941795
8	0xbd31227a	-0.04324577

forward_model.0.weight f4 [128, 27]
0	0x3e05038e	0.12989637
1	0x3e2d4e68	0.16924441
2	0xbdd85f3b	-0.10565039
3	0xbd223c55	-0.03960832
4	0xbd86778f	-0.06565773
5	0xbdada27c	-0.08478257
6	0x3e4692a1	0.19391872
7	0x3df11cac	0.11773047
8	0xbd9e30a6	-0.07724123
9	0xbe31b296	-0.17353281
10	0x3d3cc1f9	0.046083424
11	0x3c860b78	0.01636289
12	0xbdc13855	-0.094345726
13	0xbdf6e6fd	-0.12055776
14	0x3dc2698d	0.094927885
15	0xbe13d99d	-0.14438482
16	0x3c07e0a8	0.008293308
17	0x3c05cbdb	0.008166279
18	0x3cf5efac	0.030021511
19	0xbe00a4f4	-0.12562925
20	0x3e33a6f1	0.17544152
21	0x3e0436ef	0.1291158
22	0xbd0cbc2d	-0.034359146
23	0xbcdab945	-0.026699672
24	0x3db4d498	0.088296115
25	0x3d73bf19	0.059508417
26	0xbe03be48	-0.12865555
27	0x3e590c98	0.2119621
28	0xbe00e3f2	-0.12586954
29	0x3dc40860	0.0957191
30	0x3d96cf6f	0.073637836
31	0xbdd18cf6	-0.10231964
32	0xbd30edd8	-0.043195575
33	0xbe2d87c8	-0.16946328
34	0xbd0b246b	-0.033970278
35	0x3a901844	0.001099356
36	0x3e47c04e	0.19506952
37	0x3e2f8af4	0.1714285
38	0x3d1d4ee5	0.038405318
39	0x3e1fe008	0.15612805
40	0xbbe54d9f	-0.0069977785
41	0xbcc31718	-0.023814723
42	0x3df81f21	0.12115312
43	0xbda5d72f	-0.08097684
44	0x3e048479	0.1294116
45	0x3e4e6945	0.20157345
46	0x3e1101ac	0.14160794
47	0x3d7ff81c	0.062492475
48	0x3d99201d	0.07476828
49	0xbda63cef	-0.08117091
50	0xbd8b3126	-0.06796484
51	0xbe0fedcd	-0.14055558
52	0x3e732379	0.23744
53	0xbd630b9d	-0.055430997
54	0xbe2f217c	-0.17102617
55	0xbde5c6d0	-0.11219561
56	0x3d0b458e	0.03400188
57	0x3e16bb86	0.14719972
58	0xbc981823	-0.018566197
59	0x3c081997	0.008306882
60	0x3da4eaf8	0.08052629
61	0xbdf9b2d7	-0.12192314
62	0xbdff3c7e	-0.1246271
63	0xbdd5feeb	-0.10449012
64	0xbbafc08a	-0.0053635286
65	0x3d1c223f	0.038118597
66	0xbd2492f8	-0.040179223
67	0x3e1ec02f	0.15503
68	0x3d9418ea	0.072313145
69	0xbde24438	-0.11048168
70	0xbc293908	-0.010328539
71	0x3dd80e8a	0.10549648
72	0xbdf34b54	-0.11879602
73	0x3d5c0dff	0.053724285
74	0x3cfe4949	0.031040804
75	0x3e04ba6d	0.12961741
76	0x3d002e00	0.03129387
77	0x3dd516ad	0.10404716
78	0x3d92f7a5	0.07176141
79	0x3e1fa821	0.1559148
80	0xbd96db93	-0.07366099
81	0xbe489445	-0.1958781
82	0x3e7041f5	0.2346266
83	0x3d0a123d	0.0337088
84	0xbdeb6956	-0.114947006
85	0x3e16db87	0.1473218
86	0xbe37b4b9	-0.17940034
87	0x3d98f949	0.07469422
88	0xbda84fcb	-0.08218344
89	0xbd68005f	-0.05664098
90	0x3e3936f3	0.18087368
91	0xbdb444a4	-0.08802155
92	0xbe1f4dd5	-0.15557034
93	0x3e28b393	0.16474752
94	0xbd21f451	-0.03953964
95	0xbe41d329	-0.18928207
96	0x3e077b33	0.1323059
97	0xbccb31e1	-0.024804058
98	0xbdcaa032	-0.09893836
99	0xbe09fbe0	-0.13474989
100	0xbe090d07	-0.13383876
101	0xbdc6d010	-0.097076535
102	0x3dc4e0bb	0.096131764
103	0xbbae386e	-0.0053167855
104	0xbcf80638	-0.030276403
105	0x3e4a7a29	0.19773163
106	0xbcc01171	-0.023445817
107	0xbdebc505	-0.11512188
108	0xbe6d9d1d	-0.23204465
109	0x3d99f2ef	0.07517039
110	0x3e4197ec	0.1890561
111	0xbe6a4844	-0.2287913
112	0xbe244118	-0.16040456
113	0xbe0afe75	-0.1357363
114	0x3d6592c9	0.05604819
115	0xbd70ca94	-0.058786944
116	0x3db13ab0	0.08653772
117	0x3d9614a2	0.07328154
118	0xbe0b3a96	-0.13596568
119	0xbe14bd1a	-0.14525262
120	0xbd213d03	-0.039364826
121	0x3e0c510d	0.13702793
122	0x3d541937	0.05178186
123	0xbe34a363	-0.17640452
124	0x3dac8605	0.08424
125	0xbdabe924	-0.083940774
126	0xbd29407c	-0.041321263
127	0x3c33a04a	0.010963509
128	0xbd9ef11d	-0.077608325
129	0x3dc7747c	0.097390145
130	0xbd0bab87	-0.034099128
131	0xbe0f7cd8	-0.14012468
132	0x3d753a41	0.05987001
133	0x3e3319ce	0.17490312
134	0xbc7b14cd	-0.0153247835
135	0x3d717c32	0.058956333
136	0x3d3b0dcf	0.045667466
137	0xbd226c67	-0.03965416
138	0x3e1b9efd	0.15197368
139	0x3d443b2c	0.047907993
140	0xbdbb1281	-0.09134389
141	0xbe2a00f7	-0.1660193
142	0xbde9b6dc	-0.11411831
143	0xbe258d42	-0.16167167
144	0x3e05b842	0.1305857
145	0xbdd12b1c	-0.102133006
146	0x3e3bf4d8	0.18355119
147	0xbe24104c	-0.16021842
148	0x3d4db9a8	0.050225884
149	0xbd4b46c6	-0.04962804
150	0x3e3392f2	0.17536524
151	0x3e157683	0.1459599
152	0xbdd787ec	-0.10523972
153	0x3dcab33c	0.098974675
154	0x3c17b5bb	0.0092596365
155	0x3d040ee0	0.03224075
156	0xbd855f15	-0.06512276
157	0xbd3db9c4	-0.046319738
158	0xbdc1df2c	-0.09466395
159	0xbe1d56ef	-0.15365194
160	0x3ca6ae34	0.020346738
161	0xbd6c46e9	-0.057684813
162	0xbe4482c8	-0.19190514
163	0xbbe6113b	-0.007021097
164	0xbd5ea232	-0.0543539
165	0x3db2ca6d	0.08730016
166	0xbd077c73	-0.03307767
167	0x3e2df133	0.16986541
168	0x3ad0939e	0.0015913134
169	0xbe27d5a9	-0.16390099
170	0xbcc375cf	-0.023859886
171	0x3ca9d95a	0.020733524
172	0x3df1d29d	0.118077494
173	0x3cbedadc	0.02329772
174	0xbda6c52e	-0.08143078
175	0xbd5d34b7	-0.05400535
176	0xbe06acad	-0.13151808
177	0xbdd57def	-0.104244106
178	0xbbf28ef1	-0.007402294
179	0x3e08759a	0.13326111
180	0x3c68e833	0.014215517
181	0x3d925c30	0.071464896
182	0xbd6553b5	-0.055988032
183	0xbcb8847f	-0.022524117
184	0xbd98db23	-0.07463672
185	0xbd3e36a3	-0.046438824
186	0xba88a0b7	-0.0010423873
187	0xbd9a155a	-0.07523604
188	0xbcb66065	-0.022262761
189	0x3cd012ad	0.02539953
190	0x3e86ad59	0.2630413
191	0x3d8f6647	0.0700193
192	0x3ccb0a82	0.024785284
193	0xbd8cc5ca	-0.06873663
194	0x3d588e71	0.052870218
195	0xbcd85d6b	-0.026411733
196	0x3df3dbff	0.11907195
197	0x3df82959	0.121172614
198	0x3da00c0f	0.078148
199	0x3e5628a0	0.20913935
200	0x3df6dc71	0.120537646
201	0x3dc12e83	0.094326995
202	0xbe05923b	-0.13044064
203	0xbdd3f81d	-0.10350058
204	0xbbf2d8d6	-0.0074111028
205	0x3e4aa643	0.19789986
206	0x3e47d8bd	0.19516273
207	0xbdb54fb2	-0.08853091
208	0x3e08db94	0.13365012
209	0xbc9de06b	-0.01927205
210	0x3e08d76a	0.13363424
211	0xbdb08689	-0.086194105
212	0x3e07b2ef	0.13251851
213	0x3dd13d64	0.102167875
214	0x3dd1d16b	0.102450214
215	0x3ae19810	0.0017211456
216	0xbe17bd74	-0.14818364
217	0xbe3af738	-0.18258369
218	0x3e26586c	0.16244668
219	0x3bda055d	0.0066534714
220	0xbe38f565	-0.1806236
221	0x3e7a19e4	0.24423939
222	0x3c8739a5	0.01650698
223	0x3e15f064	0.14642483
224	0xbe1163d9	-0.14198245
225	0xbdae987c	-0.08525178
226	0x3e041ad8	0.12900865
227	0x3e265051	0.16241576
228	0x3dd2ac36	0.10286753
229	0xbdc0183e	-0.09379624
230	0xbdc47e71	-0.09594429
231	0xbd810d82	-0.063014045
232	0xbe0cf3b8	-0.13764846
233	0xbdc7c12f	-0.09753644
234	0x3d50ce39	0.05097792
235	0x3dcd15f3	0.10013952
236	0x3d40b449	0.047046933
237	0x3cb63853	0.022243654
238	0x3dca3e3c	0.098751515
239	0xbd3bf8b8	-0.045891494
240	0xbd3b979a	-0.045798875
241	0x3e031256	0.12799963
242	0xbccba12f	-0.024857132
243	0x3da54a1d	0.080707766
244	0xbd14bea1	-0.03631461
245	0x3e159776	0.14608559
246	0xbe5152d5	-0.20441754
247	0xbdb438ef	-0.08799922
248	0x3d8113c3	0.063025974
249	0x3e2ceac7	0.16886435
250	0xbe21a80c	-0.15786761
251	0xbd85b817	-0.06529253
252	0xbdf38404	-0.11890414
253	0xbddd64e3	-0.10810258
254	0xbe2325b2	-0.15932348
255	0x3c35b9f3	0.011091697

forward_model.0.bias f4 [128]
0	0x3d7a6950	0.06113559
1	0x3d344490	0.0440107
2	0x39b23113	0.0003398737
3	0xbd554d8c	-0.052075908
4	0x3e1fa79d	0.15591283
5	0xbe4a48c1	-0.19754316
6	0x3e0515ea	0.12996641
7	0x3e043532	0.12910917
8	0xbb4e4fd4	-0.0031480687
9	0xbde6fa1a	-0.11278172
10	0x3d2b2f85	0.041793365
11	0xbe04fddf	-0.12987469
12	0x3ce1b289	0.027550953
13	0xbe03f60c	-0.12886828
14	0xbca1e553	-0.01976267
15	0x3e230c89	0.1592275
16	0x3bd2dfde	0.0064353785
17	0xbca94b57	-0.020665808
18	0x3dfba841	0.12287951
19	0x3e2b35e5	0.16719778
20	0xbe288db1	-0.16460301
21	0x3d4143f0	0.04718393
22	0xbc18d3e8	-0.009327866
23	0xbdb6fab0	-0.089345336
24	0xbdf534dd	-0.119729735
25	0x3e4d88ab	0.20071666
26	0x3e27d96f	0.16391538
27	0x3e435a93	0.1907752
28	0x3e3e572c	0.18587941
29	0xbe1990b2	-0.14996603
30	0x3e1446e9	0.14480175
31	0xbca52513	-0.02015928
32	0xbddca63c	-0.10773894
33	0x3e0fe8ef	0.14053701
34	0xbe4079f4	-0.18796521
35	0x3db06cb6	0.08614485
36	0x3b65daad	0.0035072968
37	0x3cb809d4	0.022465624
38	0x3e0c58e1	0.1370578
39	0x3e29666e	0.1654298
40	0xbc8dcda0	-0.017309964
41	0xbddcca9b	-0.107808314
42	0xbcfac0ca	-0.030609507
43	0x3d126756	0.03574308
44	0x3d927313	0.07150855
45	0xbde528b3	-0.111894034
46	0xbd3f09ff	-0.046640392
47	0xbda53e6b	-0.08068546
48	0xbe14e48c	-0.14540309
49	0x3d75c8e6	0.060006045
50	0xbe068256	-0.13135657
51	0xbe211e1b	-0.1573414
52	0xbe12b089	-0.14325155
53	0xbcf5f0a9	-0.030021982
54	0x3bd1a583	0.0063979044
55	0x3d8a3a12	0.06749357
56	0xbd8cb01c	-0.06869528
57	0xbdd29640	-0.10282564
58	0x3e2a1098	0.16607893
59	0xbcd3bf43	-0.025848037
60	0x3e2ec7b2	0.17068365
61	0x3d98e0ea	0.07464774
62	0xbdd07cac	-0.10180029
63	0xbe33854e	-0.1753132
64	0xbc8553d3	-0.016275322
65	0x3e0f041a	0.13966408
66	0x3e29be04	0.16576391
67	0x3c34fc0d	0.011046422
68	0x3d96aa3b	0.07356688
69	0xbd9cd4ed	-0.076578
70	0xbbb5f81c	-0.0055532586
71	0x3e25adb2	0.16179541
72	0xbde3e584	-0.11127761
73	0x3e291b0c	0.16514224
74	0xbd4c039a	-0.049808122
75	0x3d1c1a68	0.03811112
76	0xbcc5b388	-0.024133459
77	0x3dcbe9ee	0.09956728
78	0x3e2945fc	0.16530603
79	0xbdae5a1d	-0.085132815
80	0xbae87336	-0.0017734531
81	0x3e1b7f55	0.15185292
82	0xbc68d65c	-0.0142112635
83	0x3de4b781	0.11167813
84	0x3c729cfb	0.014807935
85	0x3dd69057	0.104767494
86	0x3e21324a	0.1574184
87	0x3c83e0a9	0.016098337
88	0x3dad2737	0.08454745
89	0x3d9908fc	0.07472417
90	0xbdee9e28	-0.1165126
91	0x3d715e41	0.05892778
92	0xbd5802b7	-0.052736964
93	0x3da159b9	0.07878441
94	0x3e1f8cde	0.1558108
95	0xbda21092	-0.07913317
96	0x3dc59166	0.09646873
97	0xbe0e2e7a	-0.13884917
98	0xbd931e5c	-0.07183525
99	0x3dbf24fe	0.093332276
100	0x3ceb7b0e	0.0287452
101	0xbdde0a3f	-0.10841798
102	0x3cf19453	0.029489672
103	0x3dfb7917	0.122789554
104	0x3cfd30ac	0.030906998
105	0x3d834800	0.06410217
106	0xbca0e4e2	-0.01964039
107	0xbd8d5b53	-0.06902184
108	0xbd3422d7	-0.04397854
109	0x3e5295ee	0.20565006
110	0x3e227e60	0.1586852
111	0x3db06490	0.08612931
112	0x3e401ab5	0.18760188
113	0x3d83b4c8	0.06430966
114	0x3da44185	0.08020309
115	0x3e54bd8d	0.20775433
116	0xbb73ceed	-0.0037202195
117	0x3de2b381	0.11069394
118	0xbd98a8b9	-0.07454056
119	0xbc917dfe	-0.017760273
120	0x3da4275a	0.08015318
121	0x3c43a705	0.011941676
122	0xbd50185b	-0.050804477
123	0xbe3029c1	-0.17203428
124	0xbdd6b873	-0.104844
125	0x3e20e94e	0.15713999
126	0xb9ba7781	-0.00035565722
127	0x3e25af23	0.1618009

forward_model.2.weight f4 [18, 128]
0	0xbb77250e	-0.0037711295
1	0x3dd661fd	0.104679085
2	0xbddd4079	-0.10803313
3	0xbd84675a	-0.06465025
4	0xbdc8fd96	-0.09813993
5	0xbd7d9da7	-0.061917927
6	0xbe0036aa	-0.12520853
7	0x3d042d65	0.032269854
8	0xbd8535ca	-0.065044
9	0x3d30aa8a	0.04313139
10	0x3c715532	0.014729785
11	0x3d21bdcd	0.03948765
12	0x3d85623f	0.065128796
13	0xbdd25bf6	-0.102714464
14	0x3ceb847c	0.028749697
15	0x3e114bd2	0.1418908
16	0x3d27e178	0.040986508
17	0xbdca6486	-0.098824546
18	0x3e03d1a6	0.12872943
19	0x3ca746b5	0.020419458
20	0xbd4dd823	-0.050254952
21	0xbc8cdde2	-0.017195646
22	0x3d6bd97a	0.05758045
23	0xbe10a90e	-0.14126989
24	0x3d22bed6	0.039732777
25	0x3d230d64	0.039807692
26	0xbdf3fc41	-0.11913348
27	0x3d963f48	0.07336289
28	0xbc48a103	-0.012245419
29	0x3cd9084f	0.02649322
30	0x3d84f33b	0.06491705
31	0x3cbcc98a	0.02304532
32	0x3e071b4a	0.13194004
33	0x3deea5b2	0.116526976
34	0x3dd3caf2	0.10341443
35	0x3bb9eb80	0.0056738257
36	0xbe37cbc3	-0.17948823
37	0x3e3315e1	0.17488815
38	0xbd61a499	-0.055088613
39	0xbdc8a22a	-0.09796555
40	0x3be92b39	0.0071157482
41	0x3d910a82	0.07082082
42	0x3da4f754	0.080549866
43	0x3da3597f	0.079760544
44	0xbda544ff	-0.080698006
45	0x3dbea1de	0.093082175
46	0xbc82a708	-0.015948787
47	0xbd889bba	-0.066703275
48	0xbd1fd8b0	-0.03902501
49	0x3c192974	0.009348262
50	0xbd86c459	-0.06580419
51	0xbdba1efc	-0.09087941
52	0x3c904433	0.017610645
53	0x3d8fd53c	0.07023093
54	0x3d7f3e21	0.06231511
55	0x3d875c19	0.06609363
56	0xbd85f3dd	-0.06540654
57	0xbdcc731f	-0.09982895
58	0x3d764651	0.060125653
59	0x3dad243d	0.084541775
60	0x3d9ef077	0.07760709
61	0xbd83992c	-0.064256996
62	0xbdf6de83	-0.120541595
63	0xbb1c6c74	-0.0023868354
64	0xbdbeafdd	-0.09310887
65	0x3d230473	0.039799165
66	0xbdfac35a	-0.122442916
67	0x3c02378c	0.007947814
68	0x3e1e2225	0.15442713
69	0x3c10692c	0.008814137
70	0x3e03f8a2	0.12887815
71	0xbcd5d2d7	-0.026101513
72	0x3ddcde9f	0.10784649
73	0xbd1555f8	-0.03645894
74	0x3da3b4f4	0.079934984
75	0xbbb4031c	-0.0054935347
76	0xbddfc8df	-0.10926985
77	0xbe0750bc	-0.13214391
78	0xbdfe653c	-0.12421653
79	0x3d9f89fd	0.07789991
80	0xbb706685	-0.00366822
81	0xbcf5f296	-0.0300229
82	0xbd982372	-0.07428636
83	0xbdf77632	-0.12083091
84	0x3cdcae7c	0.02693867
85	0x3c9f795a	0.019467045
86	0x3c343a3f	0.011000215
87	0x3c4363e8	0.011925675
88	0x3bd8546a	0.00660186
89	0x3ca952f5	0.02066944
90	0x3c971059	0.018440412
91	0x3ddadc2f	0.10686528
92	0x3e008a0b	0.12552659
93	0x3c171a2c	0.009222548
94	0x3e0ce92a	0.1376082
95	0xba180cfb	-0.0005800274
96	0x3d6ef6da	0.058340885
97	0x3d5f2344	0.05447699
98	0x3cb3e1d4	0.02195827
99	0x3d57f1b0	0.052720726
100	0xbcf61d2b	-0.030043205
101	0x3d07600c	0.03305058
102	0xbc0e41fd	-0.008682725
103	0xbdc9f569	-0.098612614
104	0xbd0ee7ad	-0.034888912
105	0xbd654cc4	-0.055981413
106	0x3d347152	0.044053383
107	0x3dde65ca	0.108592585
108	0x3d8ba138	0.068178594
109	0xbd89f119	-0.06735439
110	0xbda34bd0	-0.079734445
111	0xbda9b2e2	-0.08286072
112	0xbd519a7a	-0.05117271
113	0xbd646366	-0.055758856
114	0xbd3720f7	-0.044709172
115	0x3dcd1d7e	0.10015391
116	0x3daea20f	0.08527004
117	0xbd91c3ae	-0.07117401
118	0x3d54cfb0	0.05195588
119	0xbd64b147	-0.055833127
120	0xbd859584	-0.065226585
121	0x3c1d93cf	0.00961776
122	0xbd6b8560	-0.057500243
123	0xbd0c5981	-0.034265045
124	0x3bfa452d	0.007637641
125	0xbd7266c2	-0.05918003
126	0x3dcef553	0.10105386
127	0xbb939478	-0.004503783
128	0x3dd35200	0.10318375
129	0xbd978118	-0.073976696
130	0xbce28897	-0.027653022
131	0x3e0ce098	0.1375755
132	0x3d26d543	0.040730726
133	0x3aae8315	0.0013314212
134	0x3d1dde34	0.038541988
135	0x3deafc96	0.11473958
136	0xbe15c7bf	-0.14626978
137	0x3d013f98	0.03155479
138	0x3dba534d	0.090979196
139	0x3d46aa7d	0.048502434
140	0xbd44a6d7	-0.048010673
141	0x3bc271fc	0.005933998
142	0x3c8fb2f4	0.017541386
143	0xbb326c9e	-0.0027225385
144	0xbdfbdcff	-0.12298011
145	0xbde06703	-0.10957148
146	0xbdbc7f7a	-0.09204002
147	0xbda587fa	-0.08082576
148	0xbd628b2c	-0.055308506
149	0xbde98ca6	-0.1140378
150	0x3e03598a	0.12827125
151	0x3d9ce66d	0.07661138
152	0xbcde3176	-0.027123194
153	0xbd410711	-0.04712588
154	0x3d488ef2	0.04896445
155	0xbdee4f3e	-0.11636208
156	0x3e0dc5a9	0.13844933
157	0xbd7ce5e9	-0.061742697
158	0xbd10030d	-0.03515916
159	0x3e1066c4	0.14101702
160	0x3cbf3ef0	0.02334544
161	0x3d0b4d54	0.034009293
162	0x3d058efb	0.03260706
163	0xbd48c518	-0.04901609
164	0xbb3a65f6	-0.002844212
165	0xbe0bc783	-0.13650326
166	0x3d640083	0.05566455
167	0x3d0507ab	0.032478016
168	0xbb8ce93d	-0.004300265
169	0x3daba794	0.08381572
170	0xbc01fb68	-0.007933475
171	0xbd89ac0e	-0.0672227
172	0x3d15bb1c	0.036555395
173	0xbc6a88e4	-0.014314864
174	0x3d55031d	0.052004922
175	0xbd12b987	-0.035821464
176	0x3de307b5	0.110854544
177	0xbbf60b19	-0.007508647
178	0xbd0333ee	-0.032031946
179	0x3da64a15	0.08119599
180	0x3d87f75a	0.066389754
181	0xbdfb1d7c	-0.12261483
182	0x3e0ec5a0	0.13942575
183	0xbde69d08	-0.1126042
184	0xbd34caca	-0.044138707
185	0x3e127b8a	0.14304939
186	0xbd2d8178	-0.0423598
187	0xbd513c45	-0.051082868
188	0x3aa522f0	0.0012598913
189	0x3ce40b35	0.027837375
190	0xbd842f9f	-0.064543955
191	0x3da54851	0.08070434
192	0xbe125b15	-0.14292558
193	0xbdca8d6d	-0.09890256
194	0xbdb9bf62	-0.090697065
195	0x3d85f0ac	0.06540045
196	0xbda87df6	-0.0822715
197	0xbd86c16d	-0.06579862
198	0x3d7b66d4	0.06137736
199	0xbde78ffb	-0.11306759
200	0x3c6cc492	0.014451163
201	0x3e0a367c	0.13497347
202	0x3d930d6b	0.07180294
203	0xbc62a5eb	-0.013833503
204	0x3e0a3a91	0.13498904
205	0x3af5ec7b	0.0018762493
206	0xbd14737d	-0.03624295
207	0xbc12ad4f	-0.008952453
208	0xbd5369e3	-0.051614653
209	0xbc798b2d	-0.015230936
210	0xbd735c0b	-0.05941395
211	0x3df5212f	0.1196922
212	0x3c545018	0.012958549
213	0xbcee3c68	-0.029081538
214	0x3db2446d	0.087044574
215	0xbdf8730d	-0.12131319
216	0xbd8b5bd3	-0.068046235
217	0x3dd1507d	0.1022043
218	0x3db5a112	0.08868612
219	0xbc97b5de	-0.018519338
220	0x3dc14f16	0.094389126
221	0xbb85159b	-0.0040614135
222	0x3dd720df	0.105043165
223	0xbdc12136	-0.094301626
224	0x3d86562d	0.065594055
225	0xbcb2b29b	-0.021813681
226	0x3df2d502	0.11857034
227	0xbd8f82f6	-0.07007401
228	0xbdb36db0	-0.087611556
229	0x3d9fbc9d	0.07799647
230	0xbdb44cc5	-0.08803705
231	0x3d39387c	0.045219883
232	0x3e1372a1	0.14399196
233	0xbd216b1c	-0.039408788
234	0x3d4a90be	0.049454443
235	0x3dd4d21a	0.10391636
236	0x3dea6057	0.114441566
237	0xbe21f127	-0.15814649
238	0x3d49bc6f	0.04925197
239	0xbd0f2bad	-0.03495376
240	0xbdc78652	-0.097424164
241	0x3db76c1f	0.08956169
242	0x3dd0952e	0.10184704
243	0xbd374702	-0.044745453
244	0x3e0208a4	0.12698609
245	0x3dd4fc83	0.10399725
246	0x3e03722a	0.12836519
247	0x3e1430c3	0.14471726
248	0xbd1de671	-0.038549844
249	0xbd4c1e53	-0.049833607
250	0x3ce5cc32	0.02805147
251	0xbd8a91b9	-0.06766076
252	0x3c349f62	0.011024328
253	0xbd44fea8	-0.04809442
254	0x3c6e0ddb	0.014529671
255	0xbd04839b	-0.03235207

forward_model.2.bias f4 [18]
0	0xbd0c150a	-0.034199752
1	0x3d258cd4	0.040417507
2	0x3d433a6a	0.04766313
3	0x3d3ae147	0.045624997
4	0xbd8945fd	-0.06702802
5	0xbd66e63a	-0.056371905
6	0x3d1d9177	0.038468804
7	0xbd483ee7	-0.048888113
8	0x3d0d9eeb	0.034575384
9	0xbd5791fe	-0.052629463
10	0xbd52f683	-0.051504623
11	0x3d50b9b0	0.050958335
12	0xbcec407e	-0.028839346
13	0x3d58b9a9	0.052911434
14	0x3d0eb327	0.03483882
15	0xbcd52dc5	-0.026022801
16	0xbcb46596	-0.022021096
17	0xbbe24a80	-0.0069058537
