models/navigation_icm.pth (torch, 50644 bytes, 8 tensors)

inverse_model.0.weight f4 [128, 36]
0.14341903 -0.038326927 -1.0043309 1.1486884 0.012477907 0.09583445 -0.093200326 -0.053219605
-0.048973035 0.07335382 0.024433125 -0.14605622 0.00685784 -0.027583813 -0.057418935 0.08775737
0.0033238812 0.124344096 -0.13955756 0.040823873 1.3276441 -1.5855597 -0.016855037 -0.110816605
-0.016246565 0.14632763 -0.09592084 0.10990673 0.048406508 0.020688757 -0.07053882 0.03861025
0.075856894 0.18635735 0.122341745 -0.010665162 0.03967037 0.07235559 -0.6843379 1.2033442
-0.08531469 -0.031520043 0.12664239 -0.12903582 0.0020776864 -0.08265157 -0.21986988 0.0057357075
0.04903102 0.04952648 0.17211175 -0.029065656 0.09108264 0.15908517 -0.03995792 -0.06801453
0.8926776 -1.6760511 0.09081071 0.0006070169 0.05758554 0.10837745 0.10328983 -0.099966295
-0.02164988 0.08001949 0.032958522 0.091154814 -0.020055618 0.02437601 0.09674089 0.15228179
-0.15541603 -0.049904123 -1.1848083 -0.8517481 -0.09035259 -0.0077248337 0.005519146 0.16248746
-0.044688087 0.03224142 0.11304999 -0.100321434 -0.039798576 -0.20978726 -0.10179254 -0.16577017
0.074018516 -0.016098548 0.15179257 0.026853487 1.474106 1.3658988 0.043729194 0.02783742
0.2499167 0.05115584 0.15812594 0.16948842 0.027504018 -0.044950306 -0.23121142 -0.14003131
-0.21341628 0.10902826 0.09771947 -0.080297954 0.03935002 -0.019036058 -1.1631389 -0.23780566
0.052180596 0.10932208 0.09579514 -0.31166795 -0.08602142 0.03193266 0.062432908 -0.12777871
-0.08040998 -0.21230425 -0.037182286 0.008251375 -0.062943965 0.005052804 -0.034695752 0.02374506
1.710469 0.30218968 -0.030645033 -0.10136279 -0.22486311 -0.21715748 -0.11597597 0.10697646
-0.011976859 -0.08513068 -0.114564344 0.005534118 0.059244566 0.008026118 -0.044849202 0.15550885
-0.12183939 -0.025702238 -0.9528775 1.0742668 0.042420108 -0.010405295 0.031348847 -0.052455287
-0.12152054 -0.07531917 -0.06476723 -0.18439263 -0.0743696 -0.0122776395 0.021280726 0.09800958
0.09179545 0.11527599 0.11771405 0.032927815 1.4395996 -1.4670156 -0.028763525 0.019879367
0.2327264 0.10170152 0.006761089 0.05199024 0.020292426 -0.01816429 -0.051968038 -0.116795264
-0.074368216 -0.021060934 0.22604367 0.28410152 -0.09208775 0.0110167535 -1.0657527 -0.46416673
0.025060961 -0.07670891 0.22717284 -0.010972738 -0.00734682 -0.1366906 -0.062298764 -0.07232128
-0.05574995 0.038648658 -0.27549124 -0.13909133 -0.04949484 0.038604107 0.064365186 -0.05808565
1.4889474 0.66189796 -0.032210775 0.09385484 0.28399566 -0.022847723 0.013083597 -0.20440622
-0.05134597 -0.011852954 -0.049350414 -0.28457004 0.0087148 -0.019210871 0.07741281 0.044518013
0.067872606 0.024460066 1.0686282 0.81692034 0.010676464 0.059524007 -0.051735178 -0.10571094
-0.083608806 -0.03650543 -0.08731588 -0.073565274 0.12223921 0.20489301 0.009168426 -0.008317403
0.0015802558 -0.20783216 -0.05737073 -0.0069969837 -1.417451 -1.2112645 0.023480857 -0.077991925
-0.004958332 -0.054205038 -0.24526004 -0.045596365 -0.0783697 0.10932906 0.18070725 -0.044503763
0.095757216 0.045113627 0.021801298 -0.107841454 -0.055357482 -0.089038014 1.0410634 1.0031846
00000000: 70dc 123e b2fc 1cbd ea8d 80bf 3908 933f
00000010: 2370 4c3c da44 c43d d0df bebd cdfc 59bd
00000020: f397 48bd 873a 963d fa27 c83c c38f 15be
00000030: bbb7 e03b 73f7 e1bc 1e30 6bbd 23ba b33d
00000040: 79d5 593b 1ea8 fe3d 2de8 0ebe ef36 273d
00000050: 3ef0 a93f 9ff3 cabf 9313 8abc d1f3 e2bd
00000060: 8417 85bc e9d6 153e 2572 c4bd c816 e13d
00000070: e745 463d 787b a93c a876 90bd c825 1e3d
00000080: dc5a 9b3d 76d4 3e3e 4f8e fa3d eebc 2ebc
00000090: 667d 223d 2b2f 943d c530 2fbf 2f07 9a3f
000000a0: 78b9 aebd 291b 01bd 8bae 013e f721 04be
000000b0: cb29 083b 3a45 a9bd 9225 61be 9af2 bb3b
000000c0: c0d4 483d 47dc 4a3d 103e 303e 191b eebc
000000d0: 8989 ba3d 39e7 223e eaaa 23bd 344b 8bbd
000000e0: 8586 643f d888 d6bf f7fa b93d 3720 1f3a
000000f0: d1de 6b3d fff4 dd3d 9e89 d33d 21bb ccbd
00000100: 175b b1bc 42e1 a33d 84ff 063d 60af ba3d
00000110: ae4b a4bc 33b0 c73c 1620 c63d c2ef 1b3e
00000120: 6125 1fbe 4468 4cbd cca7 97bf 2a0c 5abf
00000130: c70a b9bd 9a20 fdbb f4d9 b43b 1d63 263e
00000140: db0a 37bd 940f 043d c186 e73d 5375 cdbd
00000150: d503 23bd 79d2 56be 9b78 d0bd a8bf 29be
00000160: 0597 973d 1ae1 83bc 836f 1b3e d8fb db3c
00000170: 81af bc3f c6d5 ae3f 621d 333d 4d0b e43c
00000180: 2aea 7f3e c988 513d c4eb 213e 5f8e 2d3e
00000190: 1b50 e13c d01d 38bd b0c2 6cbe 5e64 0fbe
000001a0: cc89 5abe 354a df3d 2521 c83d 4173 a4bd
000001b0: 7d2d 213d 82f1 9bbc bce1 94bf 5483 73be
000001c0: 52bb 553d 41e4 df3d 3e30 c43d f192 9fbe
000001d0: 002c b0bd d2cb 023d a6b9 7f3d 6cd8 02be
000001e0: fdad a4bd 4966 59be 744c 18bd c630 073c
000001f0: c4e8 80bd fe91 a53b 221d 0ebd 0085 c23c
00000200: a6f0 da3f 9bb8 9a3e 4b0b fbbc 4b97 cfbd
00000210: 8442 66be 885e 5ebe cf84 edbd 7916 db3d
00000220: 963a 44bc fe58 aebd b6a0 eabd 8c57 b53b
00000230: 6eaa 723d fb7f 033c ccb3 37bd b63d 1f3e
00000240: ee86 f9bd 808d d2bc c8ef 73bf 9381 893f
00000250: b5c0 2d3d f87a 2abc a667 003d 5bdb 56bd
00000260: c3df f8bd f040 9abd aea4 84bd 6cd1 3cbe
00000270: 174f 98bd 2728 49bc eb54 ae3c 3fb9 c83d
00000280: 41ff bb3d d115 ec3d 1014 f13d 51df 063d
00000290: cd44 b83f 2bc7 bbbf 7ca1 ebbc 0eda a23c
000002a0: d44f 6e3e e348 d03d 208c dd3b b8f3 543d
000002b0: 4d3c a63c 47cd 94bc 70dc 54bd 5b32 efbd
000002c0: 5d4e 98bd fb87 acbc fe77 673e c175 913e
000002d0: 8198 bcbd 9d7f 343c 966a 88bf 43a7 edbe
000002e0: a54c cd3c 9019 9dbd ff9f 683e 00c7 33bc
000002f0: 98bd f0bb 9ff8 0bbe fd2c 7fbd 2e1d 94bd
00000300: 0f5a 64bd 0e4e 1e3d 300d 8dbe f56d 0ebe
00000310: 1abb 4abd 571f 1e3d e5d1 833d 38eb 6dbd
00000320: d495 be3f 2572 293f 72ef 03bd f736 c03d
00000330: e167 913e 262b bbbc 955c 563c dd4f 51be
00000340: 2750 52bd e432 42bc a923 4abd 2ab3 91be
00000350: 85c8 0e3c 1e60 9dbc 9b8a 9e3d 8558 363d
00000360: cb00 8b3d 7a60 c83c cfc8 883f b121 513f
00000370: 56ec 2e3c 72cf 733d 44e8 53bd fa7e d8bd
00000380: 183b abbd b886 15bd abd2 b2bd 64a9 96bd
00000390: 8d58 fa3d 79cf 513e 2a37 163c b745 08bc
000003a0: 9620 cf3a f4d1 54be 92fd 6abd f446 e5bb
000003b0: 096f b5bf b70a 9bbf ed5a c03c 3bba 9fbd
000003c0: 8179 a2bb 1a06 5ebd 7325 7bbe 41c3 3abd
000003d0: 4b80 a0bd eae7 df3d 520b 393e 9449 36bd
000003e0: 5c1c c43d 11c9 383d a398 b23c fbdb dcbd
000003f0: 87be 62bd 9059 b6bd 9141 853f 5a68 803f

inverse_model.0.bias f4 [128]
0.30010614 0.2625844 0.3399724 0.23259498 0.3251903 0.27483168 0.32015002 0.27822453
0.30183628 0.30800653 0.2769449 0.3298152 0.22776623 0.2969442 0.3189931 0.2945117
0.32660332 0.23702279 0.30501965 0.2946973 0.2797427 0.19922811 -0.13053331 0.35590276
0.28602913 0.2978368 0.21365462 0.113892846 0.27343678 0.25416526 0.34260198 0.30414703
0.32849276 0.32334757 0.30273172 0.3043842 0.25878188 0.27132997 0.30847836 0.2619278
0.211564 0.27828866 0.2758279 0.33114913 0.2902764 0.29227072 0.27061483 0.31625316
0.32593986 0.32961184 0.24432208 0.35727677 0.25664455 0.3269019 -0.20153485 0.3265564
0.21209596 0.27937976 0.29390556 0.30288228 0.280789 0.23749922 0.29768118 0.28437716
0.25774828 0.31046894 0.28457972 0.31278807 0.2779183 0.27374443 0.2783615 0.28361565
0.29599196 0.27634957 0.27911413 0.3134086 0.29605216 0.26831064 0.3512068 0.2564716
0.29398784 0.27087614 0.3560542 0.28968307 0.29613486 0.29079106 0.21465485 0.30281922
0.27965093 0.27658635 0.32876462 0.32156676 0.27705076 0.3022403 0.31079674 0.34043527
0.2971682 0.28975844 0.31706843 0.2503822 0.2636336 0.31756547 0.31380975 0.28318954
0.26441443 0.30962223 0.26807153 0.3269885 0.3300853 0.30124965 0.26469284 0.26943836
0.26458883 0.2885329 0.2811724 0.32726568 0.28153226 0.3024235 0.24715817 0.39234763
0.2486038 0.34069648 0.3282971 0.2815695 0.32252833 0.32380423 0.36483148 0.30018246
00000000: 83a7 993e 7671 863e dd10 ae3e 612d 6e3e
00000010: 587f a63e bdb6 8c3e b4ea a33e 7273 8e3e
00000020: 498a 9a3e 08b3 9d3e b9cb 8d3e 8add a83e
00000030: 8d3b 693e 1209 983e 1053 a33e 3dca 963e
00000040: 8d38 a73e 1ab6 723e 892b 9c3e 91e2 963e
00000050: 6f3a 8f3e 7402 4c3e 86aa 05be e338 b63e
00000060: 6972 923e 117e 983e 47c8 5a3e a740 e93d
00000070: e8ff 8b3e f321 823e 8769 af3e 29b9 9b3e
00000080: 3430 a83e d08d a53e a7ff 9a3e 3fd8 9b3e
00000090: 0f7f 843e c3eb 8a3e e0f0 9d3e 671b 863e
000000a0: 3ca4 583e da7b 8e3e 5139 8d3e 618c a93e
000000b0: 1c9f 943e 82a4 953e 078e 8a3e efeb a13e
000000c0: 97e1 a63e e2c2 a83e 912f 7a3e fbec b63e
000000d0: ea66 833e b05f a73e 275f 4ebe 6732 a73e
000000e0: af2f 593e dd0a 8f3e ca7a 963e 6313 9b3e
000000f0: 93c3 8f3e ff32 733e ab69 983e e299 913e
00000100: 95f7 833e c9f5 9e3e 6fb4 913e c225 a03e
00000110: 4f4b 8e3e 3b28 8c3e 6685 8e3e 1236 913e
00000120: 428c 973e b17d 8d3e 0ce8 8e3e 1877 a03e
00000130: 2694 973e 0360 893e 61d1 b33e 3f50 833e
00000140: 9385 963e 47b0 8a3e bc4c b63e 5751 943e
00000150: fd9e 973e 91e2 943e 7bce 5b3e 1f0b 9b3e
00000160: 682e 8f3e ba9c 8d3e d653 a83e 66a4 a43e
00000170: 99d9 8d3e 3ebf 9a3e c020 9f3e 884d ae3e
00000180: 6e26 983e 385b 943e cb56 a23e 1932 803e
00000190: fcfa 863e f197 a23e acab a03e 38fe 903e
000001a0: 5461 873e ce86 9e3e ac40 893e 096b a73e
000001b0: f100 a93e 653d 9a3e d285 873e d3f3 893e
000001c0: 3078 873e 96ba 933e d4f5 8f3e 5e8f a73e
000001d0: ff24 903e 41d7 9a3e 0817 7d3e cae1 c83e
000001e0: ff91 7e3e c56f ae3e 8f16 a83e e129 903e
000001f0: 6f22 a53e abc9 a53e 31cb ba3e 84b1 993e

inverse_model.2.weight f4 [9, 128]
0.07724794 -0.043659337 0.06547171 0.06066187 0.07960711 -0.02338608 -0.013562224 0.0927413
0.07576213 0.023552222 0.0070281494 0.042261027 -0.006420855 0.050610557 0.031637687 0.020174606
-0.027222967 0.12339651 0.12622504 0.049180206 0.015125262 -0.0014179116 -0.025361722 0.13308835
-0.03606931 0.03590424 0.089171715 -0.039769072 -0.03196087 0.08096318 0.05836738 0.056940123
0.030859826 0.101184994 -0.03472977 0.11057512 0.042256404 0.118705 0.017250396 0.09215855
-0.0330443 -0.02002166 0.04577484 0.021575172 0.008844981 0.018887145 0.090609044 -0.0035201851
0.101146944 0.12943013 0.1367354 0.13187124 0.102115 0.100544006 -0.0677854 0.05062788
-0.022158884 0.13923937 0.030432578 0.12614089 -0.012831656 0.08422058 0.08517294 0.08701022
0.039038777 0.008266712 0.049984563 0.006493502 0.020850226 0.12423776 0.054707017 0.11862378
-0.035445917 -0.03456528 0.13025309 0.1182772 0.0015323377 0.105375744 0.07436698 0.0060489564
0.07498339 0.07647629 0.05174795 0.05279022 0.065010995 0.025571803 0.07947864 0.009357049
0.052490503 0.09648811 0.08198006 0.14133441 -0.0047969874 0.022571312 0.111805804 -0.026229609
0.13449945 -0.0071369456 0.09071865 -0.009630232 0.0072417143 0.024037648 0.13038579 0.0018122068
0.010952542 0.049911316 0.03387622 -0.017642036 0.08749884 0.046055056 0.040298708 0.00034795213
-0.052811973 -0.029565716 0.00519089 0.11425133 0.13023797 0.1280957 0.12322332 0.12818317
0.10660763 0.11270459 0.019944472 0.1253734 0.0018000074 0.14127345 0.09316546 0.031061621
0.55742365 0.34753925 -0.50502944 -0.040239226 0.4828385 -0.17043258 0.39441195 0.5674917
-0.897722 -0.62904763 -0.5530886 -0.6854296 -0.06786944 0.46930826 -0.38768968 -0.33554357
-0.55983603 -0.05590803 0.47763115 0.26821387 -0.16201907 -0.04113915 -0.039106492 -0.37503567
-0.7617463 0.44464058 0.40379944 -0.42105627 -0.4985539 -0.031777926 0.38466048 -0.58863765
-0.6260063 -0.4314243 -0.31589764 -0.46617424 0.70208853 0.2651824 0.32055938 -0.33926973
0.5481183 0.63934344 -0.3140172 0.4357351 0.4484737 0.48920405 0.6435361 -0.69234574
-0.65348095 -0.04447086 0.19871686 0.38324007 0.20970039 -0.48944607 0.06739369 -0.62674713
0.5763916 -0.7099226 -0.7641573 0.2871438 -0.7902866 -0.20017481 -0.7478521 0.52752614
0.51739675 0.45138463 0.18066598 -0.6039344 0.4789691 0.07529437 0.37635222 0.39957646
0.34134308 0.39568996 0.5856326 0.5532938 0.48422417 -0.80099607 -0.33914196 0.14833923
-0.630331 0.18977289 0.38814902 0.63083 0.38876545 -0.50481707 0.45038432 -0.31963658
-0.083644085 -0.81972235 -0.46235445 0.49996012 -0.61957914 0.5237127 0.5640982 -0.5043994
-0.6571565 0.5920269 -0.6867115 -0.23579898 0.4312203 -0.47964075 -0.5562082 0.59777576
-0.14029557 -0.18719144 -0.45221782 0.41003284 -0.5864415 0.5476644 0.74964535 0.34457195
-0.3496734 -0.4861293 -0.34065107 -0.50970155 0.42976138 -0.63557595 0.6797276 -0.5397087
0.7406948 -0.5754819 0.51500696 -0.36731926 -0.57702357 0.49507567 -0.4868513 -0.53300506
00000000: 2b34 9e3d 22d4 32bd 0816 863d 9578 783d
00000010: 0d09 a33d 2a94 bfbc 1734 5ebc 27ef bd3d
00000020: 2d29 9b3d 97f0 c03c 644c e63b e619 2d3d
00000030: 0966 d2bb 044d 4f3d 8596 013d 3745 a53c
00000040: b302 dfbc 4fb7 fc3d 2341 013e 2f71 493d
00000050: f2cf 773c 38d9 b9ba 63c3 cfbc 5048 083e
00000060: 6abd 13bd 5310 133d a99f b63d e5e4 22bd
00000070: 67e9 02bd 06d0 a53d a212 6f3d 0c3a 693d
00000080: bfcd fc3c 143a cf3d ce40 0ebd 3575 e23d
00000090: 0d15 2d3d 9b1b f33d b450 8d3c 9fbd bc3d
000000a0: 7659 07bd 7704 a4bc 667e 3b3d 6abe b03c
000000b0: 8aea 103c 37b9 9a3c 3c91 b93d e8b2 66bb
000000c0: 2126 cf3d 5589 043e 5d04 0c3e 4109 073e
000000d0: ab21 d13d 04ea cd3d 12d3 8abd 2e5f 4f3d
000000e0: 8c86 b5bc c494 0e3e be4d f93c 142b 013e
000000f0: de3b 52bc d77b ac3d 266f ae3d 6a32 b23d
00000100: 20e7 1f3d 1a71 073c 9dbc 4c3d 71c7 d43b
00000110: 18ce aa3c 5e70 fe3d 7714 603d 06f1 f23d
00000120: bd2f 11bd 5394 0dbd 1161 053e 513b f23d
00000130: b9d8 c83a 3dcf d73d b74d 983d 5336 c63b
00000140: e490 993d 9a9f 9c3d a9f5 533d 8f3a 583d
00000150: 7c24 853d f57b d13c b2c5 a23d 4f4e 193c
00000160: 4800 573d 8f9b c53d 29e5 a73d f8b9 103e
00000170: 0c30 9dbb 79e7 b83c 71fa e43d 7adf d6bc
00000180: 39ba 093e 0add e9bb b3ca b93d 1fc8 1dbc
00000190: e74b ed3b 9aea c43c da83 053e 9287 ed3a
000001a0: 4a72 333c cf6f 4c3d cbc1 0a3d 0886 90bc
000001b0: 9832 b33d 3aa4 3c3d 4210 253d 586d b639
000001c0: 5e51 58bd cd33 f2bc 5718 aa3b 9afc e93d
000001d0: 1a5d 053e 852b 033e 825c fc3d 7342 033e
000001e0: 1a55 da3d aad1 e63d 9762 a33c e261 003e
000001f0: 3aee eb3a fda9 103e 88cd be3d f174 fe3c
00000200: 51b3 0e3f aaf0 b13e 9c49 01bf e3d1 24bd
00000210: 9c36 f73e e185 2ebe 5df0 c93e 2347 113f
00000220: 1cd1 65bf 4409 21bf 3797 0dbf 5078 2fbf
00000230: 22ff 8abd 2c49 f03e 437f c6be 5ecc abbe
00000240: 6a51 0fbf d2ff 64bd 128c f43e 5453 893e
00000250: 54e8 25be 8681 28bd 212e 20bd ad04 c0be
00000260: ce01 43bf eea7 e33e cdbe ce3e b094 d7be
00000270: 7542 ffbe 9229 02bd 38f2 c43e f5b0 16bf
00000280: f341 20bf a5e3 dcbe 56bd a1be 64ae eebe
00000290: 13bc 333f fdc5 873e 5c20 a43e c3b4 adbe
000002a0: 7b51 0c3f 03ac 233f ddc6 a0be ac18 df3e
000002b0: 589e e53e f478 fa3e c8be 243f 923d 31bf
000002c0: 874a 27bf 1427 36bd 6f7c 4b3e 0b38 c43e
000002d0: b3bb 563e ad98 fabe b405 8a3d 8072 20bf
000002e0: 668e 133f 7dbd 35bf d09f 43bf 8304 933e
000002f0: 3950 4abf a0fa 4cbe 3c73 3fbf f40b 073f
00000300: 1d74 043f e31b e73e 8100 393e 729b 1abf
00000310: 703b f53e ef33 9a3d 3db1 c03e 4995 cc3e
00000320: 85c4 ae3e e097 ca3e 05ec 153f aaa4 0d3f
00000330: 3bec f73e 140e 4dbf 04a4 adbe 3de6 173e
00000340: 5f5d 21bf d353 423e 78bb c63e 137e 213f
00000350: 440c c73e b13b 01bf c698 e63e 68a7 a3be
00000360: 974d abbd 53d9 51bf b9b9 ecbe c6fa ff3e
00000370: bd9c 1ebf 0912 063f bd68 103f 5220 01bf
00000380: 693b 28bf 138f 173f 53cc 2fbf 4a75 71be
00000390: e8c8 dc3e 7993 f5be a963 0ebf d507 193f
000003a0: a4a9 0fbe 1daf 3fbe 1889 e7be d3ef d13e
000003b0: 0821 16bf bc33 0c3f c2e8 3f3f bc6b b03e
000003c0: 6408 b3be f1e5 f8be d169 aebe cd7b 02bf
000003d0: af09 dc3e 1bb5 22bf a102 2e3f 592a 0abf
000003e0: 2d9e 3d3f c852 13bf 7fd7 033f 4511 bcbe
000003f0: d1b7 13bf 8f7a fd3e 9344 f9be 0573 08bf

inverse_model.2.bias f4 [9]
0.0095430445 0.08392794 0.023137145 -0.018294966 -0.056987464 0.006652371 0.040871352 -0.10553628
-0.0963277
00000000: 6e5a 1c3c 69e2 ab3d 1c8a bd3c 53df 95bc
00000010: b06b 69bd 22fc d93b b868 273d 6823 d8bd
00000020: 7547 c5bd

forward_model.0.weight f4 [128, 27]
-0.16728052 0.024574563 -0.13860181 0.08171986 0.07440688 0.08131037 -0.14693011 -0.20927303
-0.20645703 0.11562144 0.096327186 -0.08159662 -0.05756104 -0.33159652 -0.10305128 0.25885075
0.23536457 -0.19092695 0.022932492 -0.015290432 0.1630708 -0.0074760215 0.07917712 0.20368974
0.07880035 0.026124984 0.053638034 -0.111939095 0.17738368 -0.16580133 -0.009294996 -0.05356598
0.13352329 0.12234938 0.22537278 -0.10426957 0.23600018 0.16773528 -0.20053798 0.044700123
-0.1416245 -0.022077704 0.07258619 -0.20992173 0.25983748 0.17203489 -0.012192913 0.21278928
0.025216717 0.09929969 -0.044911556 0.1787368 -0.024961159 0.01724561 -0.20985599 -0.2515891
-0.09134964 0.17040733 0.14256662 -0.056600053 -0.06308562 0.009841063 -0.099600635 -0.08756813
-0.08729752 -0.12864543 -0.18117827 0.12989868 -0.0763546 0.26494548 0.27329665 -0.29146972
0.121337846 0.027325807 0.18111145 0.2244933 0.08439213 0.15163015 -0.09371267 -0.11644347
0.25134355 0.036018547 -0.047031432 0.103707336 0.10687671 0.109830625 -0.12814653 0.010642201
-0.01811209 -0.12998581 -0.08486782 0.2852219 0.3015657 0.27528688 -0.0008655376 0.30354303
0.059119392 -0.094352454 0.25673527 0.08013457 -0.034820426 -0.0868994 -0.047784597 -0.0018130216
0.17268865 0.029456101 -0.15601516 0.12183878 -0.04031348 0.07061513 0.10962007 -0.11966235
0.25767827 -0.03352812 0.22366984 0.056017477 0.17256425 0.30523366 -0.16242371 -0.15995671
-0.19370122 -0.2682484 -0.15169382 0.1738156 -0.1669748 -0.019704986 0.07007976 0.03141592
-0.00463349 -0.021656387 0.097261325 -0.025889967 0.17326784 -0.077652425 0.14969017 0.106150135
0.25321114 -0.16444045 -0.2729345 -0.16154855 0.093974754 0.3682624 0.04808517 -0.15183808
-0.20581625 -0.083255194 0.17349778 0.05358255 -0.060859043 0.1644913 0.1357006 -0.12001016
0.38509685 0.031415403 0.011676419 -0.031205863 -0.002338196 0.072453365 0.11713918 0.1443221
0.14716342 0.14925417 -0.0058410494 0.12990329 -0.22632222 0.061525147 -0.1146001 0.11852627
-0.21861878 -0.09931135 -0.015794206 0.15607612 -0.1716652 0.10108659 -0.059881892 -0.1425709
0.05814121 -0.09434913 -0.14299083 0.0795094 0.104340896 -0.13822372 -0.1958244 -0.011925146
-0.1334521 0.0028041913 0.07424856 -0.18640004 -0.13078809 0.10101316 -0.07690852 -0.029873215
-0.16056867 -0.2055142 0.10101573 -0.1609948 0.009858714 -0.085505344 0.019780304 0.12086258
0.21081905 0.0210577 -0.2310906 -0.20854603 -0.03492647 0.29274833 0.025223896 0.07744655
-0.02512717 -0.051810473 -0.06321551 0.021495653 -0.011496634 0.08452002 -0.13571787 -0.007885103
-0.027052049 -0.14090994 -0.17656012 -0.0071121687 -0.0903299 0.11790728 0.21398516 0.1978598
0.13510637 -0.23648873 -0.44613874 0.11350071 0.04706733 -0.26845548 0.017177112 0.16316326
-0.25901073 0.2792387 0.04322105 0.064311534 0.045408346 0.019574992 0.051274486 0.11071594
-0.01495738 -0.058523297 0.08212567 -0.14598143 -0.10717895 0.18291919 0.22249256 -0.261393
0.13605988 0.2914066 -0.25482422 -0.043595217 0.24543673 0.1314958 -0.022144968 0.055410285
00000000: 964b 2bbe 9850 c93c a2ed 0dbe be5c a73d
00000010: a262 983d 0d86 a63d d974 16be ab4b 56be
00000020: 7969 53be efca ec3d 3047 c53d 211c a7bd
00000030: 20c5 6bbd 05c7 a9be 8d0c d3bd 1688 843e
00000040: 6903 713e 5b82 43be ecdc bb3c b884 7abc
00000050: 08fc 263e 6af9 f4bb 9d27 a23d 0b94 503e
00000060: 1462 a13d 1004 d63c 8eb3 5b3d 5340 e5bd
00000070: 11a4 353e d3c7 29be 0a4a 18bc 0068 5bbd
00000080: 54ba 083e 5092 fa3d 1fc8 663e 498b d5bd
00000090: 08aa 713e ccc2 2b3e d459 4dbe 7a17 373d
000000a0: 0306 11be 4ddc b4bc 12a8 943d b9f5 56be
000000b0: 6b09 853e ea29 303e c9c4 47bc 6fe5 593e
000000c0: 4a93 ce3c a35d cb3d 2ef5 37bd c806 373e
000000d0: 587b ccbc aa46 8d3c 7de4 56be 49d0 80be
000000e0: 8515 bbbd 427f 2e3e fcfc 113e 75d5 67bd
000000f0: 0933 81bd 693c 213c 6bfb cbbd eb56 b3bd
00000100: 0bc9 b2bd a1bb 03be cc86 39be 2904 053e
00000110: cd5f 9cbd efa6 873e 8aed 8b3e 853b 95be
00000120: fa7f f83d 5fda df3c 4875 393e 92e1 653e
00000130: c8d5 ac3d ef44 1b3e 6eec bfbd ea79 eebd
00000140: 1ab0 803e 2f88 133d 08a4 40bd 8364 d43d
00000150: 2de2 da3d e1ee e03d d838 03be a05c 2e3c
00000160: ce5f 94bc 001b 05be 2ecf adbd 9b08 923e
00000170: d266 9a3e 67f2 8c3e 3fe5 62ba fe69 9b3e
00000180: 2d27 723d dc3b c1bd ce72 833e 981d a43d
00000190: dd9f 0ebd 50f8 b1bd c8b9 43bd e9a2 edba
000001a0: 4bd5 303e ec4d f13c 70c2 1fbe 9c86 f93d
000001b0: bf1f 25bd aa9e 903d 7d80 e03d 8911 f5bd
000001c0: 68ee 833e c854 09bd b509 653e 9572 653d
000001d0: afb4 303e 9647 9c3e 6752 26be b1cb 23be
000001e0: 9d59 46be db57 89be a055 1bbe b7fc 313e
000001f0: 71fb 2abe 5a6c a1bc fa85 8f3d fbad 003d
00000200: 88d4 97bb bc68 b1bc f230 c73d 3217 d4bc
00000210: 206d 313e 3c08 9fbd 6148 193e 3e65 d93d
00000220: e4a4 813e 1463 28be 12be 8bbe fc6c 25be
00000230: d675 c03d e48c bc3e f5f4 443d 717b 1bbe
00000240: 7fc1 52be b381 aabd 67a9 313e 6079 5b3d
00000250: 5547 79bd 6870 283e 19f5 0a3e e3c7 f5bd
00000260: 6a2b c53e 70ad 003d 734e 3f3c 70a3 ffbc
00000270: 6b3c 19bb 6e62 943d abe6 ef3d 2cc9 133e
00000280: 02b2 163e 16d6 183e 4666 bfbb 5e05 053e
00000290: 03c1 67be cb01 7c3d 75b3 eabd e7bd f23d
000002a0: 9add 5fbe c063 cbbd da62 81bc 6bd2 1f3e
000002b0: 01c9 2fbe 7c06 cf3d b746 75bd 1bfe 11be
000002c0: 7a25 6e3d 1e3a c1bd 306c 12be d3d5 a23d
000002d0: aeb0 d53d 858a 0dbe 3186 48be b061 43bc
000002e0: aba7 08be 86c6 373b a10f 983d a7df 3ebe
000002f0: 50ed 05be fddf ce3d 3782 9dbd acb8 f4bc
00000300: 1d6c 24be 5072 52be 56e1 ce3d d2db 24be
00000310: 7286 213c 6d1d afbd 4e0a a23c cd86 f73d
00000320: f3e0 573e 3381 ac3c 04a3 6cbe 178d 55be
00000330: 0f0f 0fbd 1ce3 953e 58a2 ce3c 4c9c 9e3d
00000340: 7fd7 cdbc 3837 54bd 2277 81bd a717 b03c
00000350: 615c 3cbc d518 ad3d a0f9 0abe 8530 01bc
00000360: 429c ddbc b24a 10be 2dcc 34be 320d e9bb
00000370: e2fe b8bd 5f79 f13d ed1e 5b3e c29b 4a3e
00000380: 5359 0a3e 1a2a 72be 4c6c e4be 0f73 e83d
00000390: acc9 403d ff72 89be 04b7 8c3c 4514 273e
000003a0: 0e9d 84be 60f8 8e3e 8e08 313d c4b5 833d
000003b0: 1afe 393d bc5b a03c 3205 523d 0abf e23d
000003c0: cc0f 75bc 20b6 6fbd 8131 a83d 287c 15be
000003d0: a380 dbbd 2b4f 3b3e 17d5 633e 4ed5 85be
000003e0: 4853 0b3e 3f33 953e 5278 82be e690 32bd
000003f0: c453 7b3e d6a6 063e 5d69 b5bc e5f5 623d

forward_model.0.bias f4 [128]
0.10308759 -0.0829486 0.0002550293 0.17579783 0.15410857 -0.07022314 -0.18506926 0.15673931
0.119396925 -0.114176415 -0.023183102 0.14491627 0.01462994 0.04179636 -0.027961403 0.16404729
0.052869227 -0.03544719 0.17574905 -0.11895384 0.13723771 0.09097605 -0.13282715 0.16476855
-0.11815522 0.17750366 0.19045183 0.1738697 0.19270325 -0.015816532 0.0074329833 0.08734244
0.005241271 -0.054648515 -0.0026770737 0.16341662 0.12504046 0.016724369 -0.06640251 -0.0014781448
-0.049570084 -0.076081194 0.100880295 0.10850232 -0.071160264 0.09707336 -0.12802829 0.10483966
0.17637937 0.1481678 0.18632203 -0.02896127 -0.12442612 -0.031889275 0.06371928 -0.12569422
0.09347457 0.040566787 0.22928478 0.21470156 0.026626429 0.15046662 0.032903142 0.04940962
-0.008867166 -0.105992585 0.026972316 -0.044012103 -0.07890025 0.023165045 -0.10565136 0.040163595
0.11660599 0.18003005 0.09863763 0.22261503 0.15956832 0.07165184 0.03285382 -0.029935962
0.23998867 0.06129658 0.16538486 0.105858564 -0.040357724 0.14899848 0.18449219 0.17947984
-0.10623251 0.22489344 0.05283462 0.08641906 0.08484735 -0.03555077 0.20681196 0.0012161913
0.051589057 0.040910773 0.15876836 0.19955988 0.03709651 0.094146065 0.14603017 0.1515508
0.022907745 0.0004112802 -0.049082812 0.17808142 0.11160653 0.001172956 -0.06402881 0.19989504
0.00556782 -0.10871568 -0.011550145 -0.053046644 -0.09071944 -0.16772653 0.12625563 -0.12909737
0.03189326 0.16089028 0.08858122 0.20201096 0.13415025 -0.117728375 0.24651404 0.17192514
00000000: 961f d33d f5e0 a9bd 74b5 8539 5904 343e
00000010: a3ce 1d3e 26d1 8fbd cc82 3dbe 4580 203e
00000020: 6086 f43d 53d5 e9bd 7dea bdbc ee64 143e
00000030: 6ab2 6f3c a932 2b3d 500f e5bc 03fc 273e
00000040: 678d 583d 1331 11bd 8ff7 333e 129e f3bd
00000050: 0b88 0c3e a751 ba3d d703 08be 16b9 283e
00000060: 5dfb f1bd 85c3 353e ce05 433e e60a 323e
00000070: 0054 453e ac91 81bc 6290 f33b 98e0 b23d
00000080: f8be ab3b 1fd7 5fbd d871 2fbb b056 273e
00000090: 9b0a 003e 8b01 893c 0afe 87bd 4fbe c1ba
000000a0: 000a 4bbd 75d0 9bbd 549a ce3d 7736 de3d
000000b0: 79bc 91bd 66ce c63d d919 03be 2db6 d63d
000000c0: cb9c 343e 4db9 173e 34cb 3e3e 2f40 edbc
000000d0: 1fd3 febd 549e 02bd 417f 823d fcb5 00be
000000e0: 986f bf3d 5c29 263d a1c9 6a3e bada 5b3e
000000f0: ab1f da3c ec13 1a3e 72c5 063d be61 4a3d
00000100: 9747 11bc a412 d9bd 0cf5 dc3c 0946 34bd
00000110: 7496 a1bd 9fc4 bd3c bd5f d8bd 9582 243d
00000120: 1fcf ee3d cc59 383e 8702 ca3d 32f5 633e
00000130: e165 233e 33be 923d ba91 063d 433c f5bc
00000140: 97bf 753e 1f12 7b3d a65a 293e 60cc d83d
00000150: 244e 25bd 0f93 183e 85eb 3c3e 90c9 373e
00000160: 6e90 d9bd 774a 663e 1d69 583d 7afc b03d
00000170: 73c4 ad3d af9d 11bd 84c6 533e 9c68 9f3a
00000180: 0c4f 533d 0e92 273d 2c94 223e 6d59 4c3e
00000190: 83f2 173d a7cf c03d ef88 153e 2230 1b3e
000001a0: 06a9 bb3c 18a1 d739 0f0b 49bd fa5a 363e
000001b0: f791 e43d dfbd 993a 8921 83bd 49b1 4c3e
000001c0: 4272 b63b 54a6 debd d23c 3dbc 7047 59bd
000001d0: 1dcb b9bd 81c0 2bbe 2849 013e 1a32 04be
000001e0: 82a2 023d 6cc0 243e 126a b53d f6db 4e3e
000001f0: af5e 093e 931b f1bd 2d6e 7c3e 250d 303e

forward_model.2.weight f4 [18, 128]
-0.07979058 -0.102063246 -0.13615374 0.027504427 0.043546166 0.041043516 -0.03646508 0.0045331973
-0.010093517 -0.008024646 0.04867937 0.0038310178 0.03600039 0.073167354 -0.06390924 -0.020424414
-0.0002232928 0.07558394 -0.06884763 -0.050024524 -0.09023873 -0.06409448 0.0021734233 -0.028771756
-0.1525344 0.11971394 -0.06597244 -0.09626884 0.06945825 -0.16375892 0.07502657 -0.03871859
0.07459709 -0.036072224 0.09453485 0.08774367 0.032604944 -0.014739796 -0.15475035 -0.008656178
-0.0051900977 0.03565661 -0.09862407 0.019858293 0.0626563 0.12165252 -0.05675072 0.077380516
-0.024225267 0.016918337 0.001092126 0.13509235 -0.10096198 -0.092953786 -0.103855945 0.054252133
0.07032736 0.007135252 0.09866801 0.11042164 -0.035789087 0.11288768 -0.1110219 -0.12768212
0.044812754 0.007571948 -0.087344475 0.10644495 -0.055464737 -0.09110428 -0.1178769 0.12408098
-0.091953404 0.07856214 -0.09978733 -0.06329066 0.054709774 -0.032917988 -0.002399295 -0.11576232
-0.10577698 0.20153286 0.050027035 -0.000910564 0.01220485 -0.08479854 0.067060165 -0.0774964
0.0031527365 -0.0043019378 -0.104999095 -0.045007598 -0.11857852 0.15286247 0.090971045 -0.13942452
0.08603246 -0.05132263 -0.09407969 0.11814372 -0.005334163 -0.07156297 0.035778165 0.09292854
-0.06556244 0.13448218 0.060361993 0.05770816 -0.10617481 0.13657445 0.034312777 0.110963896
0.17545372 0.039352283 -0.13723804 -0.04603117 0.119334325 -0.005726943 -0.117452346 0.011189939
-0.0026117691 -0.13527243 0.095213614 -0.08316882 0.007976656 0.034493133 -0.060109895 -0.051382653
0.015677838 0.047650624 -0.14419301 -0.07164061 -0.018815864 0.16390932 -0.0051043304 0.0033384045
-0.037824668 -0.036886424 0.064610146 0.031071516 -0.13647725 0.021714527 0.011249179 -0.013821231
-0.22546595 -0.050201543 0.062988214 -0.05591974 -0.13013828 -0.01988667 0.015701896 0.026493529
-0.106488645 -0.10544124 0.087610185 0.01674751 -0.04015281 -0.07510821 -0.06417078 0.02476163
-0.08685485 0.0017714761 -0.0968023 -0.10776051 -0.020812169 0.017495092 -0.012985491 0.09327348
-0.04910087 -0.107335925 0.05736813 0.12525073 0.15289669 0.057230856 0.06519063 -0.023218477
0.15127996 -0.022583788 -0.030006196 0.11202218 -0.032837253 0.16024269 0.010712888 0.025474006
-0.03068805 0.05790107 -0.0051456704 0.11169584 0.11062241 -0.07322522 -0.119345695 -0.009530878
-0.12825021 -0.10697876 -0.039749645 0.0441507 -0.001445864 -0.002261422 0.13561685 0.014371233
0.019221488 -0.0026111093 -0.094999574 0.109574236 -0.09538003 0.012088631 0.14882402 -0.13955948
0.08201246 -0.019809412 0.13907628 0.07500962 -0.17378238 0.14452772 0.097551234 -0.08208467
-0.008996489 -0.029065046 -0.06617974 -0.10853247 0.040090896 0.092398845 0.007055122 0.0010769754
0.038363356 0.051453326 -0.0038707496 0.118640475 -0.13600564 0.036527652 -0.047305856 -0.13478516
-0.0014797909 0.030410232 -0.101692654 -0.053967435 0.019518852 -0.09204689 -0.0403833 0.075449586
0.13869196 -0.051610403 0.1374138 -0.07933056 0.0019500656 0.038955245 0.05636662 0.09818592
-0.054056276 0.024459165 0.0070928093 0.087549165 -0.1266533 0.15723822 -0.14669514 -0.0891735
00000000: 3e69 a3bd 8906 d1bd e36b 0bbe f750 e13c
00000010: 775d 323d 3f1d 283d 685c 15bd 378b 943b
00000020: 475f 25bc ce79 03bc 0564 473d d011 7b3b
00000030: 2575 133d c4d8 953d d9e2 82bd 1a51 a7bc
00000040: b423 6ab9 c1cb 9a3d fcff 8cbd 84e6 4cbd
00000050: 15cf b8bd f743 83bd fe6f 0e3b bfb2 ebbc
00000060: fa31 1cbe 952c f53d 8f1c 87bd 9928 c5bd
00000070: 2140 8e3d 6bb0 27be 88a7 993d 6297 1ebd
00000080: 5cc6 983d 78c0 13bd 7d9b c13d f4b2 b33d
00000090: c38c 053d 2f7f 71bc e076 1ebe a4d2 0dbc
000000a0: b211 aabb aa0c 123d 6bfb c9bd dcad a23c
000000b0: f251 803d f524 f93d 7173 68bd ad79 9e3d
000000c0: 1174 c6bc 5398 8a3c ab25 8f3a a655 0a3e
000000d0: 28c5 cebd 8e5e bebd 6db2 d4bd 7c37 5e3d
000000e0: ca07 903d d5ce e93b 7412 ca3d be24 e23d
000000f0: 9497 12bd a831 e73d 735f e3bd 1abf 02be
00000100: 948d 373d 1b1e f83b a9e1 b2bd cfff d93d
00000110: fe2e 63bd e194 babd 7269 f1bd 2b1e fe3d
00000120: 1152 bcbd 30e5 a03d 4d5d ccbd 899e 81bd
00000130: 5b17 603d 03d5 06bd 7e3d 1dbb cc14 edbd
00000140: 9aa1 d8bd a15e 4e3e 26e9 4c3d eab2 6eba
00000150: daf6 473c dbaa adbd d756 893d 6fb6 9ebd
00000160: 249e 4e3b 45f7 8cbb c409 d7bd e359 38bd
00000170: 4cd9 f2bd fb87 1c3e 074f ba3d 4dc5 0ebe
00000180: c931 b03d ae37 52bd daac c0bd 56f5 f13d
00000190: 34ca aebb 9b8f 92bd 208c 123d 5251 be3d
000001a0: 9a45 86bd b2b5 093e 233e 773d 645f 6c3d
000001b0: 2e72 d9bd 2cda 0b3e 8e8b 0c3d 0a41 e33d
000001c0: 24aa 333e dc2f 213d 2188 0cbe 2e8b 3cbd
000001d0: 8e65 f43d 14a9 bbbb db8a f0bd 0256 373c
000001e0: 372a 2bbb db84 0abe 5bff c23d 6a54 aabd
000001f0: 85b0 023c ac48 0d3d cb35 76bd 9e76 52bd
00000200: cf6e 803c 4d2d 433d 55a7 13be 50b8 92bd
00000210: ba23 9abc d8d7 273e 3a42 a7bb 22c9 5a3b
00000220: 0aee 1abd 3816 17bd 5352 843d b189 fe3c
00000230: b1c0 0bbe aae2 b13c 7a4e 383c 7272 62bc
00000240: 8ce0 66be 22a0 4dbd f7ff 803d 190c 65bd
00000250: f842 05be 5fe9 a2bc 43a1 803c f508 d93c
00000260: b816 dabd 94f1 d7bd f86c b33d 1332 893c
00000270: 4677 24bd 55d2 99bd f86b 83bd e7d8 ca3c
00000280: f5e0 b1bd e030 e83a 4940 c6bd 8bb1 dcbd
00000290: 487e aabc de51 8f3c 19c1 54bc 2b06 bf3d
000002a0: fe1d 49bd f0d2 dbbd d8fa 6a3d ba41 003e
000002b0: f390 1c3e e76a 6a3d aa82 853d ad34 bebc
000002c0: 22e9 1a3e a301 b9bc 8ecf f5bc e26b e53d
000002d0: 5b80 06bd a916 243e 1c85 2f3c ddae d03c
000002e0: 8165 fbbc ac29 6d3d 039d a8bb cac0 e43d
000002f0: 018e e23d 1bf7 95bd 846b f4bd 6627 1cbc
00000300: 0654 03be ae17 dbbd 86d0 22bd 5dd7 343d
00000310: 2583 bdba 5e34 14bb 25df 0a3e 5275 6b3c
00000320: 6276 9d3c 251f 2bbb 238f c2bd 7568 e03d
00000330: 9b56 c3bd 650f 463c 5365 183e aee8 0ebe
00000340: 26f6 a73d 5947 a2bc 036a 0e3e a59e 993d
00000350: 02f4 31be 13ff 133e f1c8 c73d 021c a8bd
00000360: 0366 13bc d219 eebc 3e89 87bd 4646 debd
00000370: 5a36 243d 9b3b bd3d a72e e73b 4c29 8d3a
00000380: e522 1d3d b9c0 523d 67ac 7dbb c7f9 f23d
00000390: 1045 0bbe 059e 153d c9c3 41bd 1f05 0abe
000003a0: 8bf5 c1ba e11e f93c 3d44 d0bd f50c 5dbd
000003b0: 00e6 9f3c 1483 bcbd f668 25bd 5085 9a3d
000003c0: 4405 0e3e 6e65 53bd 34b6 0c3e 1078 a2bd
000003d0: 5899 ff3a 898f 1f3d afe0 663d b315 c93d
000003e0: 1d6a 5dbd 965e c83c cc6a e83b fa4c b33d
000003f0: 67b1 01be 0e03 213e 4037 16be 99a0 b6bd

forward_model.2.bias f4 [18]
0.061127063 0.04136673 -0.047748994 0.017205907 0.04863412 0.06941117 -0.01138656 -0.03509519
-0.048222855 0.047986373 0.02162292 -0.064054474 -0.01185991 -0.046736516 0.06357333 0.03254253
0.0193834 0.048298307
00000000: 5f60 7a3d 2970 293d 7394 43bd 67f3 8c3c
00000010: 9234 473d 7227 8e3d b28e 3abc f9bf 0fbd
00000020: 5485 45bd 5c8d 443d 8d22 b13c fe2e 83bd
00000030: 1150 42bc ca6e 3fbd bc32 823d 514b 053d
00000040: f0c9 9e3c 72d4 453d
