models/ppo_model.pth (torch, 27864 bytes, 7 tensors)

actor.0.weight f4 [128, 18]
00000000: ec7e 5d3d acf3 bc3d a1e3 f2be c88d 30be
00000010: 33c9 b53e d923 d53e 659d 603e cdf2 f9bc
00000020: ac1c 1c3d c82e 023e 5831 01be eed9 96bb
00000030: 46a5 41be 81c5 01be b21a af3d 2d1e 87bd
00000040: 5d9c 36be bf46 d43c e757 2c3d 6043 6b3e
00000050: d301 9bbe e017 8e3e 4929 9a3e 5a12 033d
00000060: 36b9 dc3d 8379 193e a77d 43be 41ca a3bd
00000070: 8277 7ebc 822c 363e ef94 033e cfe7 6b3e
00000080: 9624 dbbd cebf 28be b186 8c3d 24f6 38bd
00000090: 6c6f 2d3e 3f5b 84bd 9fd8 6d3d 48c8 bbbe
000000a0: a113 9b3e 467b f73e cdce eebb 9975 023d
000000b0: 7c46 2f3e dd61 a93d 5fb6 0a3e f8ad 073e
000000c0: 2a10 05bb a8ca 4cbe 58ee 3e3d 6e1c 5ebe
000000d0: 11db 06be ded1 6e3c dc97 82bd 0e75 103e
000000e0: ee17 d03d 8638 a83e aa56 ed3c 170c a2be
000000f0: 92a5 b6bd c82a 63be 4296 fabc cab6 593e
00000100: 4fa3 a53d 3526 ffbd cc98 d8bd 12dc c1bd
00000110: d711 debd 28f2 0fbe 4927 17be fd7a c8bb
00000120: 66d4 0ebe 8e36 b83d 8c82 293e 8f0e ebba
00000130: 7935 3ebe d9d4 5cbe 243b 9dbd 312a b5bc
00000140: aeb3 473e 1025 5e3c fda9 4bbe e9c0 d83d
00000150: 7b1b 5a3e fb0a 863d 6e98 94bd 8f96 1abe
00000160: dec0 5c3e af83 703e 31d2 ea3d a1dc ccbd
00000170: 7581 793e 0db7 5a3e 09a4 c4be 1b9e c3be
00000180: d636 54bd 4db4 36be 385a 133e 6610 283e
00000190: 2ea3 3c3e a57a 643e faf7 9bbd 4087 313e
000001a0: f65e 213e 1958 59be ebf6 233c bab7 97bb
000001b0: 12a7 733d 56f2 eabd 3069 de3e 54bc b8bd
000001c0: 0c4d c3be 36f7 1d3e 57c6 363e c551 5f3e
000001d0: 2eb6 e3bc fc60 95bd f9a3 b33d 1769 973d
000001e0: 465d cdbc 209f b4bb ccdd df3d e4e7 a93d
000001f0: c450 403e 7dd9 b83d d596 eb3c 4cb6 193e
00000200: 5865 38be 7692 cdba 518c e93e 3c40 2a3e
00000210: 6fc9 ebbd e998 a6bd 565a 363e 0c63 c03d
00000220: 0d8c bc3b 8ad1 edbc c808 21be 71ae 683c
00000230: 425c 64be ad74 fcbc fb35 643e f07f f23d
00000240: ae38 a6bd 925f 3bbe 10ff 16bd 3aeb e5be
00000250: 45d8 81be 4240 563e 5a4b 623e 8c22 ae3d
00000260: 7611 643e 3526 27be 7d72 e3bd 7311 1c3d
00000270: 93cf 393d ad1f 5dbe dc9a 663e cc0f 1c3d
00000280: ea61 553d ce61 22be 29f4 4dbe bba6 64bd
00000290: 598b a1be 81a8 97be 7a97 b53e 7a27 d43e
000002a0: 3de2 23be 46ba 6dbe 7a9e 1fbe d605 243e
000002b0: f0d3 3bbd 8ea1 ebbd 932d 4ebd 5830 10be
000002c0: 89ab 3e3e 6857 50be 8f4d 9ebd c3be 11be
000002d0: b243 41be 9a50 90bd 6168 1cbd 30c8 c43d
000002e0: 436c 1abe e870 c2be b65c bfbc efe9 5b3e
000002f0: d448 413e 588f 4d3e d19b bcbd cc9a 073e
00000300: 574b afbd 25de 103e e06a 983d da3b 383e
00000310: 3cd7 0bbe 3c37 0abe e07b 983e 183b 503e
00000320: 3e47 77bd f48c e6bd 2384 433b 907b a43e
00000330: 4c5a a3bd d2c1 653d 416c aa3d 5c27 11be
00000340: 08b8 803d e01a 313e 47db fb3d b0aa 48bd
00000350: 805f e33c 1058 533e 3679 d1bc f8fc df3d
00000360: 7f18 823e 4f83 80bd b538 e3bd ae03 44be
00000370: 8292 c83e 47ab 98bd 950d 5fbc 07e2 06bc
00000380: e28b dcbd a0ee 4dbe 93b3 3e3e 8787 27bd
00000390: f7ed 3fbe a286 563e 4fbd 9e3c 22b3 083e
000003a0: e15a 433e e5b3 4e3e c01c 4e3e 24c8 85be
000003b0: 9e03 cfbe 1471 a93e 2b48 af3e bacd 7ebe
000003c0: a97d a03d ce64 913c 7b54 833d 4cbd 6cbd
000003d0: 2507 1cbe 49cb 69bd e954 19bc 5a94 5e3e
000003e0: eafb 123e 6a33 2f3e b809 97bd 853d 383e
000003f0: 5bea 0c3b 7057 943d 6e42 f93d 5285 e03e
0.05407612 0.09226164 -0.47439292 -0.17241585 0.35505065 0.41628912 0.21935041 -0.030511284
0.03811328 0.12713158 -0.1261648 -0.004603616 -0.18910703 -0.12672998 0.085500136 -0.065975524
-0.17833085 0.02591264 0.042076018 0.2297492 -0.3027483 0.2775259 0.30109623 0.031999923
0.10777514 0.1498776 -0.19090901 -0.07997561 -0.015531423 0.17790416 0.12849782 0.23037647
-0.107003376 -0.16479418 0.06861628 -0.045156613 0.16937035 -0.06462716 0.058067914 -0.3667624
0.30288413 0.48336238 -0.007287836 0.03185043 0.17116731 0.08270619 0.13546132 0.13249958
-0.0020303824 -0.19999182 0.04661402 -0.21690533 -0.13169505 0.014576403 -0.06376621 0.14107153
0.10160814 0.32855624 0.028971989 -0.3164985 -0.08918299 -0.22184289 -0.030589227 0.21261135
0.08087789 -0.12458459 -0.10576019 -0.09465803 -0.108432464 -0.14057219 -0.1476108 -0.006118177
-0.13948211 0.089947805 0.16553706 -0.0017933416 -0.18575086 -0.2156557 -0.07677296 -0.022114845
0.19502136 0.013558641 -0.19889064 0.1058367 0.21299545 0.06545063 -0.07255636 -0.15096496
0.21557948 0.23487733 0.11465872 -0.10003019 0.2436579 0.21358891 -0.384064 -0.38206562
-0.051810108 -0.17842217 0.14389884 0.16412506 0.18421623 0.2231241 -0.07615657 0.1733675
0.15758881 -0.21225013 0.0100076 -0.004630056 0.059485503 -0.11472003 0.43439627 -0.09020296
-0.3814472 0.15426335 0.17849098 0.21808536 -0.027796831 -0.07293889 0.0877151 0.07393091
-0.02506889 -0.0055121332 0.10930976 0.08296183 0.1878081 0.090258576 0.028758446 0.15010947
-0.1800741 -0.0015683908 0.45614865 0.16626066 -0.1151303 -0.08134634 0.17807898 0.09393892
0.005754 -0.02903058 -0.15726006 0.014201746 -0.22300819 -0.030817354 0.22286217 0.118408084
-0.081162795 -0.18298176 -0.03686434 -0.44906026 -0.25360313 0.2092295 0.22099057 0.08502683
0.22272286 -0.16323169 -0.11105821 0.03810258 0.045363974 -0.21594115 0.22520012 0.038101003
0.05209533 -0.15857622 -0.20112671 -0.05582307 -0.31551626 -0.29620746 0.3546713 0.41436368
-0.16004272 -0.23215589 -0.15587798 0.16017851 -0.045856416 -0.115054235 -0.05033643 -0.14080942
0.18620123 -0.20345843 -0.07729637 -0.14232926 -0.1887348 -0.070466235 -0.03818548 0.09608495
-0.15080361 -0.37976766 -0.023359638 0.21475957 0.18875438 0.20074213 -0.09209407 0.13242644
-0.08559292 0.14147241 0.0744226 0.17991582 -0.13656324 -0.13497633 0.2978201 0.20335042
-0.060370676 -0.112573534 0.0029833398 0.3212552 -0.07976207 0.056093045 0.08321429 -0.1417517
0.06285101 0.17295408 0.12297683 -0.048990905 0.027755499 0.20639062 -0.025570493 0.10936922
0.25409314 -0.06275045 -0.110948004 -0.19142029 0.39174277 -0.074545436 -0.013614078 -0.0082326
-0.10768868 -0.2011056 0.1862319 -0.040900733 -0.1874312 0.20949796 0.019377379 0.13349584
0.19077636 0.20185812 0.20128155 -0.26129258 -0.40432447 0.33094084 0.34234747 -0.24883166
0.07836468 0.017748263 0.06412598 -0.057797715 -0.152371 -0.057078633 -0.009358623 0.21736279
0.1435391 0.17109457 -0.073749006 0.17992218 0.0021501991 0.0724324 0.121708736 0.43851715

actor.0.bias f4 [128]
00000000: f1b2 a63e 253d 6b3d 6c64 163e 99c0 4a3e
00000010: 8dfa 12be edc3 5e3e 986b 623e 70f7 963e
00000020: 5d96 573e c88a cf3e 5737 183e 57f3 843d
00000030: 2ec3 4bbd 909b c23c ae50 5c3e 3d2d 4c3e
00000040: 717f cc3e 3cbf 8a3e 2589 6f3d bd09 713e
00000050: 5e6c d13e 7520 ac3e 9e77 ca3e 0985 4a3e
00000060: a138 993e ec43 013e 3f63 42be dd6f 513e
00000070: 811c 8a3e 13dc 9d3e b7a8 cf3d d496 5a3e
00000080: 65d9 8e3d db6f 3f3e e7fa 253e 7478 fc3d
00000090: f90e 333e 2993 083f 3178 fc3d 001a 943e
000000a0: b6b1 9b3e 48ac e03d 5231 39ba e772 143e
000000b0: 647a b23b 4888 a73d 57e1 4f3d 7f3b 8c3e
000000c0: bdc3 853e 0d5a 80be 481f 53be 5b88 9b3e
000000d0: df44 153e ee7c c23e ea59 cd3d 9638 433e
000000e0: 4961 283e ba9c 2c3e b0ed 673d 4d61 a83d
000000f0: f006 9a3e 8a35 2b3e 350c cd3c d0ca 0f3e
00000100: 6f41 873e 0cbd 113e 0573 d3bd 22f8 c73e
00000110: 1c76 843e 9f23 963e 8ab1 cb3e 8202 503e
00000120: 85f5 c83e a23b 073f fcb8 9b3e 7f94 ec3c
00000130: a7c8 1a3e 1fd4 9c3e 737c 393e 08c7 ebbd
00000140: 2893 5c3e 0469 7d3e 1a20 513e be35 27be
00000150: 7bec b73d 6c9c b73e e773 dbbd b800 7b3e
00000160: 0535 933d a660 e43e 3a07 a33e e281 45be
00000170: 1021 393b 2ad6 9d3e e16b 953e 3543 59be
00000180: d351 a73c 42f4 8d3e 1958 1f3e 16e6 a23d
00000190: b41a dfbd 0357 873e d0ab 903e 94fc 943e
000001a0: f0ca 853d 5d64 12bd 68f9 44be 449f 6e3e
000001b0: 0f41 7b3e 9ffd 413e 70ce 133d d04b 8c3e
000001c0: 91ac 963e 8a2a b53e 7ce6 cf3d cfca 573e
000001d0: ddef 5cbe 00ce 513e 0c3f 733e 5cea 5f3e
000001e0: 2486 d63e 1301 863e 6359 803d 5794 733e
000001f0: 6908 703e c072 c83e 43ea 9f3e d412 a43e
0.32558396 0.05743136 0.14686745 0.19800033 -0.1435339 0.21754427 0.22111356 0.29485655
0.21053453 0.4053557 0.1486486 0.06491726 -0.049746685 0.023755819 0.21515152 0.19939132
0.3994098 0.27099025 0.0584804 0.23538871 0.4090299 0.33618513 0.39544386 0.19777311
0.29926017 0.12623566 -0.18983172 0.20452829 0.26974872 0.30831966 0.10139602 0.21346599
0.069750585 0.18695013 0.16208993 0.12327662 0.1748618 0.5334955 0.12327612 0.28926086
0.3040902 0.1097036 -0.0007064539 0.14496957 0.005446719 0.081802905 0.05075201 0.27389142
0.261259 -0.25068703 -0.20617402 0.30377468 0.14577053 0.3798594 0.10026915 0.19064555
0.16443361 0.16856661 0.05662316 0.08221684 0.30083418 0.16719642 0.025030235 0.1404221
0.2641711 0.14232272 -0.103246726 0.39056498 0.2587136 0.29324052 0.3978389 0.20313457
0.39249817 0.5282537 0.3041457 0.028879402 0.15115605 0.30630586 0.1811388 -0.115125716
0.2154051 0.24747092 0.20422402 -0.16329095 0.08980652 0.35861528 -0.10715466 0.24511993
0.07187847 0.44604987 0.3184145 -0.19287828 0.0028248467 0.30827457 0.29183868 -0.21217044
0.020424759 0.27725416 0.1556095 0.07954042 -0.10893765 0.26433572 0.28256083 0.29098952
0.06532848 -0.035740245 -0.19235766 0.23302943 0.24536537 0.18944405 0.036085546 0.2740159
0.29428533 0.35384017 0.10151383 0.21073459 -0.21575876 0.20488739 0.23754519 0.21866745
0.41899216 0.26172695 0.06267049 0.23787056 0.23440708 0.39150047 0.31233415 0.32045615

actor.2.weight f4 [9, 128]
00000000: 46ed 3ebe da28 21be 9d89 e1bd 53d0 19be
00000010: ac1c 8abd cb25 ebbd 4f53 06be 7858 42be
00000020: 015d 50be c0f5 44be 6843 25be e909 4bbd
00000030: afb1 92bd 9dc2 61bd ba63 44be add7 53be
00000040: 3eab 82be 30da 6abe 50d6 0fbd 440b 3fbe
00000050: b196 79be dfbf 47be 7a98 83be fea2 01be
00000060: a5a3 45be 7967 42be 6281 d1bd 6983 e9bd
00000070: b181 2cbe 515d a0bd 500c f7bd 6891 6abd
00000080: 505a 87bd 1a5c 18be 6b20 1fbe 5891 ccbd
00000090: a12c c3bd 11e9 14be cbcd 5abe 104e 30be
000000a0: d676 62be bc54 edbd 8feb 26be a4a0 b5bd
000000b0: 747b 43be 3d52 23be df37 27be 2cbc e7bd
000000c0: d2ae 5bbe f6fa 4e3c 7e12 803b 6b7e a3bd
000000d0: 78f5 3abe bf70 86be d574 14be 438e fabd
000000e0: c6c4 eabd 935c b2bd 48f8 d1bc 69db a8bd
000000f0: 9ea9 43be 6c0f 73be 134a 2cbe 1321 5dbe
00000100: 51c5 1dbe 495b 2fbe 2b08 b3bc 48da 51be
00000110: 2cd9 f5bd cada 18be c09c 49be 9bc7 a8bd
00000120: fca4 43be 80d5 86be 884e 5bbe 4010 cfbc
00000130: b1a8 35be 21a9 73be fd65 14be f2c3 803c
00000140: c8c2 79be 35ad 87bd 0446 dabd b2b4 f1b9
00000150: 92bb 20be 83c4 0dbe 7c46 70bc 2c6e 5abe
00000160: 1d1a 19be 0c06 56be 4cb5 70be 5054 99bb
00000170: 96d9 c1bd 2100 16be 8dfb 27be 86f5 b33d
00000180: cf1f cfbd 113a 40be 268d 7cbe 6353 abbd
00000190: 873a eabd 7fe1 1bbe edc9 2dbe 22e8 7cbe
000001a0: b365 07be 07dd 8b3a 5952 c5bd 7f5d 52be
000001b0: f4b0 05be a0af 9fbd 34dc 09bd 9dce 71be
000001c0: c472 39be c2e7 c5bd af75 e1bd 499e 83bd
000001d0: 9dae 2e3c 2200 1bbe dfc0 82be c5f3 26be
000001e0: b989 83be 2543 70be b46c 0abe bd8d 74be
000001f0: 0446 cbbd d8d0 01be 1385 41be e8ba 4fbe
00000200: 2a08 6d3e 1902 25bd 80e2 233e b1be 5bbe
00000210: 082b 24be 5d3d d5bd 59f4 3b3e 030d 313d
00000220: e405 873e 502d 5c3e 7472 2ebe 7761 113e
00000230: ba38 cc3c 3a79 eabd d716 5ebe 09ef 96be
00000240: c73c 083e db85 2ebe 7067 533e c234 523e
00000250: 31f4 583e b8df ff3c d3c3 e63d 9686 503e
00000260: 5aac 133e fd92 2abe d645 42bd b6b8 8fbd
00000270: 5b0d 31be 224a 033d cac0 f43d 7242 5fbe
00000280: 4fc4 4fbe 028f 0f3e 5506 68be f9e5 973d
00000290: 5525 eebd 5b76 143e 7033 6fbe 81e0 093e
000002a0: af81 abbd 8f90 90be 7c06 b5bc 3ea5 74bc
000002b0: 949e 1b3d 76c3 833d b886 abbd ff3c 833e
000002c0: b3d1 88be ccfa e5bb 2da3 cd3d 2a05 873e
000002d0: a4d3 0b3e 6c3b 693e f2a3 be3d fbe7 00be
000002e0: a24a 5b3e 9ea8 9bbb 0983 913e 8897 90bd
000002f0: 5d67 58bc 31c7 903d ecd6 c5bd 653d 59be
00000300: 3d5b 6e3e 0c01 5f3e 9a8a a63c 3f26 873e
00000310: 1d8e 47bd 5e37 983e 64d4 3f3e 957e 743e
00000320: 492c 683e ede6 c63d c9c9 8a3d 21ba 803e
00000330: 252d 783e 87e4 4fbd dde4 54be 953e b13d
00000340: ca61 a83d 152a 5d3e 2751 413e f91e 2a3d
00000350: f64e 55be c39b 763e 58d9 c3bd e6e3 91be
00000360: d571 40be 4fe1 9bbd e412 433e feb5 033d
00000370: d3f3 33be 2774 2fbe 070c a2bd e224 193d
00000380: 5e62 843e 0749 163e a1a6 51be b38b 8d3e
00000390: 9208 643d 120d 0e3e 917b 45be ed8b 883e
000003a0: 40a9 b5bc 9921 a6bd 87e3 22bd dbe8 4f3e
000003b0: 31f2 213e 3d52 4c3e 74a2 0ebe 8bf9 02be
000003c0: fd78 04be 950f 3d3c d960 5bbd 2cc9 ab3d
000003d0: 4a5f 31bd 0aec d3bc 006f 35be b86f 433e
000003e0: 5859 023e ac4b 843e 30cc 56bd bbce 713e
000003f0: ad75 9ebd 0522 8c3e 2165 663e dc19 a73d
-0.186452 -0.1573824 -0.11012576 -0.15020876 -0.0674375 -0.11481818 -0.13117717 -0.1897906
-0.20347978 -0.19234371 -0.16138995 -0.049569998 -0.07162797 -0.05511724 -0.19178668 -0.20687743
-0.25521272 -0.22934794 -0.035116494 -0.18656641 -0.2437389 -0.19506787 -0.25702268 -0.12659833
-0.19300707 -0.18984784 -0.10229756 -0.114020176 -0.16846348 -0.07830299 -0.12062895 -0.057267576
-0.066090226 -0.14878884 -0.1553971 -0.099886596 -0.09529997 -0.14542033 -0.21367566 -0.17217278
-0.22115645 -0.115884274 -0.16300796 -0.088685304 -0.19090062 -0.1594934 -0.16329907 -0.11315188
-0.21453407 0.012633076 0.0039084544 -0.07983097 -0.18257701 -0.26257893 -0.14497693 -0.122341655
-0.11463313 -0.087090634 -0.025631085 -0.08244974 -0.19107673 -0.23736352 -0.16825132 -0.21594648
-0.15407301 -0.17124666 -0.02185448 -0.20493424 -0.12004313 -0.14927211 -0.19688702 -0.08241197
-0.19105905 -0.26334763 -0.21416676 -0.025276303 -0.17740132 -0.23794986 -0.1449203 0.015718434
-0.2439071 -0.066248335 -0.10657886 -0.0004610173 -0.15696552 -0.13844495 -0.014665242 -0.2133109
-0.14951368 -0.20900744 -0.2350666 -0.0046792403 -0.09465329 -0.14648487 -0.16404553 0.08787064
-0.10113489 -0.1877215 -0.24663219 -0.08365514 -0.114369445 -0.15222739 -0.1697156 -0.24697927
-0.13222389 0.001067073 -0.09634847 -0.20543478 -0.13055784 -0.0779717 -0.033657268 -0.23613973
-0.18110186 -0.09663345 -0.110087745 -0.06426675 0.010661748 -0.1513677 -0.25537774 -0.16303928
-0.25691012 -0.23463114 -0.1351803 -0.23882194 -0.09925464 -0.12677324 -0.1889842 -0.20286143
0.23147646 -0.040285204 0.16004372 -0.21459462 -0.1603204 -0.10412095 0.1835493 0.0432253
0.26371682 0.2150166 -0.17035848 0.14197336 0.024929393 -0.114489034 -0.216884 -0.29479244
0.13304435 -0.1704325 0.20644927 0.20527938 0.21186902 0.031234607 0.11267819 0.2036384
0.14421216 -0.16657634 -0.047429882 -0.07017653 -0.17290251 0.03205312 0.11950834 -0.2180269
-0.2028973 0.14019397 -0.22658665 0.07416911 -0.11628214 0.14498274 -0.23359466 0.13464548
-0.083743446 -0.2823529 -0.022097819 -0.014931975 0.03799303 0.064337656 -0.08375305 0.25632474
-0.26722488 -0.0070184227 0.10040889 0.26371127 0.13654953 0.22776574 0.09308614 -0.12588494
0.21415189 -0.0047503253 0.28420284 -0.07060152 -0.0132082375 0.07069243 -0.09660134 -0.21214826
0.23276992 0.21777743 0.020329762 0.26396367 -0.048719514 0.29729742 0.18733364 0.23876412
0.22673143 0.09712014 0.06776769 0.25142005 0.24235971 -0.05075505 -0.2079043 0.08654515
0.08221777 0.21598084 0.18878613 0.041533444 -0.20830902 0.24082856 -0.095629394 -0.28494185
-0.18793423 -0.076113336 0.19050175 0.032155983 -0.1757348 -0.17134152 -0.0791245 0.03738869
0.25856298 0.14676295 -0.2047372 0.27645645 0.055672236 0.13872173 -0.19285418 0.26669255
-0.022175431 -0.08111877 -0.03976777 0.20303671 0.15815045 0.19953246 -0.13929158 -0.12790506
-0.12936778 0.01153936 -0.053559158 0.0838798 -0.043303765 -0.025869388 -0.17718124 0.19085586
0.12729394 0.25838983 -0.052440822 0.23614018 -0.077372886 0.27369705 0.22499515 0.08159229

actor.2.bias f4 [9]
00000000: 9412 38be a89b f03d 2cd3 a8bd 4c2d 283e
00000010: c407 12be 1d36 71bd 253a 79bd 1935 0abd
00000020: 437d 263e
-0.17975837 0.11748439 -0.08243403 0.1642353 -0.14260775 -0.058889497 -0.060846467 -0.033742044
0.16258721

critic.0.weight f4 [128, 18]
00000000: dd79 753d a7e0 55bd c7d8 5a3d f5fe 4dbb
00000010: 7b70 2fbd dd27 af3e 1b08 29be 15be 403e
00000020: 1bea ab3d a5d6 e33b de65 a03d 66a4 333d
00000030: e36a 143e f776 6e3e 0781 81bd 6a25 33be
00000040: 9cc4 e73d 0f73 4d3e 2b2b 213e 2aea 30be
00000050: a71b cd3d 6564 1b3e 9e16 c7bc 1307 4abe
00000060: ae7f 213e cb0a 0f3e 2c72 61be a915 153e
00000070: ea1a 733d dd25 0d3e 0e4d c7ba c983 b43d
00000080: b38b 28be 4f2c 53be a580 393e 9d1d 29be
00000090: 3c90 ebbd d0ea 17be 1094 af3d 12b3 bcbd
000000a0: 7ad7 6cbd 158c 223d 5a1b 82bd f0d7 533e
000000b0: ec52 bbbd e88a cc3b 42e7 29be d688 4bbe
000000c0: 8c69 03bc 8af4 6cbd dcd9 33be 191c 6f3e
000000d0: 51a8 4f3d ac3f 36bd 8b3e efbd f010 503e
000000e0: 2929 623e 6bb7 5d3c a865 0bbe 8d60 9f3d
000000f0: 2cc3 64bc 104b b13d f7f0 9abd 96ef 053e
00000100: 9d1d b73d 5465 8ebd 6cdd 663e 9842 7e3c
00000110: 01d0 253d a158 0e3d be89 473e 591b 68be
00000120: df74 2b3e 429a 293e dd61 a03d 3c57 303e
00000130: 4920 313d bb06 4ebd 4648 27bc bddf 84bd
00000140: 986f dabd c8f4 a9bd 95c9 31be f239 6c3e
00000150: 4792 cebc fb66 053e 1e4d 6c3e 17b4 3fbe
00000160: 1bcc 20bc 3da1 b03c 1b58 573d ce13 97bd
00000170: 68d5 d3bd 7f86 6fbe 1faa e5ba aee3 1ebe
00000180: 9681 693e 9ea3 89bd 84e0 59be 276f efbd
00000190: fedd 2d3e 9db2 16be 6737 38be 27cc 6bbe
000001a0: 108a b5bc 0d28 7f3d 4311 98bd eec1 20be
000001b0: 2a93 a83b 5f7a c73c 74f3 2f3e 14d7 513e
000001c0: aa78 71be 164c 92be cdf9 d8bd 6862 a83b
000001d0: a670 d6bc 561f 4a3e ccca 303e 3bf6 643e
000001e0: 96ee f83d b838 1b3d 562d 8e3d 3538 24bc
000001f0: c122 63be b744 c03d c1e6 8a3d 6dc1 ee3d
00000200: f56c 853d e0b4 f73c 64d7 1cbe 0224 503d
00000210: f391 063d 6f97 9dbd cdc5 8d3d c2fd f7bd
00000220: 0388 533e 177d 2dbe 8df0 673e 4b1e 95bd
00000230: db84 0fbd c964 4ebd a49f 13be 4a4d 7f3c
00000240: 7738 0c3c 1d66 d6bb a54b c6bc 9172 163e
00000250: 437b cfbd f143 99be 37a6 c3bd 957f 9d3d
00000260: bc15 20be 03b3 17bc 09a4 2f3d 5067 2fbd
00000270: 4e88 6abe 5e9f eebd 3a0e 033e 3826 3fbe
00000280: b71b 34be 2003 413e d2d3 8d3d fda6 1ebe
00000290: 142b 0fbc 7c3e 8cbe 30d0 6fbd ffbb a0bd
000002a0: 582a 233e 3dab ae3d cf73 073d 4b25 0e3e
000002b0: 2987 203c 5af3 3dbe c34c 553d 7ff6 553e
000002c0: 1ce4 46be b397 41be a658 963c f708 6abe
000002d0: 7049 48bd a3f5 fe3d 0ffc 82bd ca66 313e
000002e0: 2cd9 063e a3cd 7f3d 890d d7bd 262e 55be
000002f0: 062a 323e 6123 e33d f749 84bd 03fc 59bd
00000300: 15d4 67be c73c 2c3e 3bdb 6b3d 98ae 023e
00000310: 13c2 d2bc d7c7 88bd 9b9c 2c3e d568 4ab8
00000320: b855 54be 6927 fe3d 55a3 953e eb6d 71be
00000330: 97e6 43be 0c35 5b3e ba79 163e c836 473d
00000340: fae1 c2bc 31aa ec3d efc6 b53c d165 3f3e
00000350: f524 22be eb42 ea3d 528c 61be 03e5 423e
00000360: 58b7 573e 5eaa 16be 080c 033e 17ec 2b3e
00000370: 0adf a8bc 6841 6bbe 6db8 86bc 3288 85bc
00000380: 2dd5 3a3d 4088 0abe 92f1 483e 98c8 babd
00000390: 26c7 513e 6814 4b3e 6d4a 40be 1b83 673e
000003a0: fd0a 1c3e bd7b 693b 2474 fbbb fa46 473e
000003b0: b455 39bc 70f5 01be 099b 90be 8cd8 dfbd
000003c0: 6c7d 68be 08ab b53d 1c27 2cbe 2bf2 993d
000003d0: f0c7 8c3c 879a 08bd 7cfd 12bd 5a8a 08bd
000003e0: 96dc d0bc d394 4a3e 76dd 30bb 3ffb 28be
000003f0: 86f2 d73d 7cbc 65be 7435 523c f0d6 22be
0.05993067 -0.0522162 0.05342939 -0.0031432484 -0.04283188 0.342101 -0.16506998 0.1882251
0.083942614 0.006953078 0.078319296 0.043857954 0.14493899 0.23287569 -0.06323438 -0.17494741
0.11316797 0.20063423 0.15739124 -0.17276827 0.1001504 0.15175016 -0.024302777 -0.19729261
0.15771362 0.13968961 -0.2201621 0.14559044 0.05935184 0.13783975 -0.0015205459 0.088141985
-0.16459541 -0.20622371 0.1811548 -0.16515203 -0.1150212 -0.14835668 0.085731626 -0.092138425
-0.057822682 0.039684374 -0.06352873 0.20687842 -0.091466755 0.006242145 -0.16592124 -0.19876418
-0.00802077 -0.057850398 -0.17563576 0.23350562 0.05069763 -0.044494316 -0.11681851 0.20318961
0.22086014 0.0135325 -0.13612998 0.077820875 -0.013962548 0.08656895 -0.07565492 0.13079676
0.08941195 -0.069529206 0.22545403 0.015518807 0.04048157 0.03475249 0.19486138 -0.22666682
0.16743802 0.16562751 0.07831166 0.17220777 0.04324368 -0.050299387 -0.010210102 -0.06487987
-0.10665816 -0.082986414 -0.17362054 0.2306898 -0.025216235 0.13027565 0.23076293 -0.18721043
-0.009814288 0.02156126 0.05257426 -0.07376824 -0.103434384 -0.2339115 -0.0017522014 -0.1551654
0.2280334 -0.067206606 -0.21277052 -0.116911225 0.16979215 -0.14716573 -0.17989884 -0.23027097
-0.02216056 0.062294055 -0.074251674 -0.15698978 0.0051444964 0.024350343 0.17182714 0.20492202
-0.23581186 -0.28573674 -0.10594521 0.005138684 -0.026176762 0.19738516 0.17264861 0.22359554
0.12154882 0.037895888 0.06942241 -0.010023166 -0.22181226 0.09388106 0.06782294 0.11657987
0.065149225 0.030237615 -0.1531654 0.05081559 0.03285403 -0.07694899 0.06922493 -0.12108947
0.20657353 -0.16942249 0.22650357 -0.072811686 -0.03503881 -0.050389085 -0.14416367 0.015582392
0.008558384 -0.0065429346 -0.024205992 0.14692141 -0.10130932 -0.29934648 -0.09553187 0.0769035
-0.15633291 -0.009258988 0.042881045 -0.042823136 -0.22903559 -0.11651491 0.12798396 -0.18666923
-0.17588697 0.18848848 0.06925167 -0.15493388 -0.008738298 -0.27391422 -0.058548152 -0.078483574
0.15934122 0.08528755 0.033069428 0.13881414 0.00979785 -0.18549863 0.05207516 0.20894812
-0.19422954 -0.18905525 0.018352818 -0.22854982 -0.04889816 0.12449195 -0.063957326 0.17324367
0.13168782 0.06245197 -0.105006285 -0.20818385 0.17398843 0.11090732 -0.0645942 -0.053218853
-0.22639497 0.1682006 0.05758212 0.12761915 -0.025727307 -0.066787414 0.16856615 -4.8258185e-05
-0.20735824 0.12409861 0.29226175 -0.23577087 -0.19130932 0.21406955 0.14694872 0.048636228
-0.023789395 0.11555899 0.022189585 0.18691184 -0.1583441 0.11438545 -0.22026184 0.19032674
0.21066034 -0.14713427 0.12797558 0.1678928 -0.020614166 -0.22974169 -0.016445363 -0.016300295
0.045613457 -0.13528538 0.19623402 -0.091202915 0.20486125 0.19832003 -0.18778391 0.22608607
0.15238567 0.0035626732 -0.007673757 0.19460669 -0.011311937 -0.12691283 -0.28243282 -0.10929975
-0.22704095 0.08870512 -0.16811794 0.07516893 0.017185181 -0.033350494 -0.035886273 -0.033335067
-0.025495809 0.19783334 -0.002698747 -0.16502093 0.105443045 -0.22435182 0.012830127 -0.15902305

critic.0.bias f4 [128]
00000000: aabe 12bd af75 bcbd 82c3 c63d 00ae 143e
00000010: 3317 2d3e 9afb 873e 4720 943c 17f8 6a3e
00000020: df5d 1abd d3c9 d33d 0649 17be bb8e c4bd
00000030: 9730 213e c3f4 22be e339 e23d f4c1 133d
00000040: c402 1fbd 16a4 01bd d0eb 553e 9050 1fbe
00000050: 2d8d 8e3e 66b1 45be cf5a 88bd 312d 22bd
00000060: bc00 62be 0501 5c3e 9e4a 49bd 85f7 4dbe
00000070: a7c2 003c b2e7 dd3d 005d d2bd bf45 28bd
00000080: 106e e1bc 71cb 09be f0be 4c3c fb3d c53b
00000090: ba82 5cbe 024b 90bc b60a 29bd d8b2 a0bd
000000a0: 38ed 8ebe fcf2 25be cccc ca3d 21b3 273e
000000b0: fb95 5bbe 0d8b b33d 87a1 8bbd a0d7 6b3e
000000c0: efe2 3abe e44f 103e ad69 5ebd f1a7 0fbe
000000d0: 1f25 c4bd d01d 68bc 1233 febd 2876 823d
000000e0: 600d e4bd 0a42 753e 086b 873c d7d5 febd
000000f0: 3ce0 9a3c cd8d 03bc b51f 7cbe a031 dd3b
00000100: 411a 2abe 601b 66bc 2ba8 08bd 0014 4c3e
00000110: 1924 d73d d883 1e3b 90a4 083d aad1 ebbd
00000120: 9d6d 42bd de7f 76be 490e 8a3c e553 903d
00000130: 5bba dd3d 9a84 423e 8920 51be 1e93 a6bd
00000140: 06f5 8abd 27c3 bb3d 6388 86be db89 52be
00000150: cc69 213d eaaa 8cbe bd8c 0dbd cfd0 4d3e
00000160: 9fc3 003e 0bd6 22be 1051 98bd d52f 90bc
00000170: ec4b afbd 769b 113d 619a 3b3e e262 8b3d
00000180: e07d 733d 1448 5c3e d1c3 273e 0c18 3dbd
00000190: cc18 493c d41d 66bd d43f 06bd 61c6 433c
000001a0: c118 633d b811 5b3d d6ea 373e 7f1b a03d
000001b0: b4a7 203c 059c fcbd 604c a03b 120f fcbc
000001c0: 7427 2b3e cfef 6a3e 8309 063e ec1d 373e
000001d0: 01ef 88be 4149 1dbe 4b8b 21be 9496 17be
000001e0: 64bb 653e 29f7 e63c 7668 89bd e42a 3d3c
000001f0: 782c bfbd 1b64 0f3e 6fdf 2ebe 5d80 0cbe
-0.035826363 -0.09202134 0.09705259 0.145195 0.16903381 0.26559144 0.018081797 0.22946201
-0.03768718 0.10341229 -0.1477395 -0.09597536 0.15741192 -0.15913682 0.11046197 0.03607364
-0.038820997 -0.031650625 0.20890737 -0.15558076 0.27842084 -0.19305953 -0.06657945 -0.03959388
-0.22070593 0.21484764 -0.049143426 -0.20113952 0.007858909 0.10835208 -0.102716446 -0.04108214
-0.027518302 -0.13456513 0.012496695 0.0060193515 -0.21534243 -0.017613892 -0.04126998 -0.07846612
-0.2791536 -0.16205972 0.09902343 0.16376926 -0.21443932 0.08766756 -0.06817918 0.23031473
-0.18250631 0.14092976 -0.0543 -0.14028908 -0.09577393 -0.014167264 -0.12412085 0.06370193
-0.111353636 0.23950973 0.016530529 -0.124431305 0.018905751 -0.008029413 -0.2462147 0.0067503005
-0.16611578 -0.014044613 -0.033363502 0.19929504 0.10504932 0.0024187472 0.033360064 -0.115145996
-0.047467817 -0.24072215 0.016852515 0.070472516 0.1082656 0.18995896 -0.20422567 -0.08133529
-0.06785016 0.09168082 -0.2627593 -0.205604 0.039407536 -0.27474147 -0.034558047 0.20099185
0.12574624 -0.15901963 -0.074373364 -0.017600933 -0.08559403 0.03554865 0.1832061 0.0680597
0.059446216 0.2151187 0.16383292 -0.04616551 0.012273978 -0.05618079 -0.032775715 0.011949153
0.05544353 0.053483695 0.17960677 0.078177445 0.009805609 -0.12334446 0.004891917 -0.030768905
0.16714269 0.22943042 0.13089566 0.17882508 -0.26744846 -0.15359975 -0.15775792 -0.14803535
0.22434765 0.028194027 -0.067093775 0.01154587 -0.093346536 0.14003031 -0.1707742 -0.13720842

critic.2.weight f4 [1, 128]
00000000: 6bbf b93d 2b98 8b3d 577a a8bc f0d3 c23c
00000010: aaad 513d 2f2c 95bc 621c b73d 9515 09bd
00000020: 89cc cc3d 5eb8 9bbd 38fd 973d c657 933d
00000030: ce08 453d 136e 873d a4a6 423d 4abd c9bc
00000040: 93dd 193d 3d2f 6fbd 0bd1 6bbd af99 b23d
00000050: f8ab 76bd 8075 fbbd 2165 263e c0c6 bcbd
00000060: d73a 2d3c 9356 d23c bd75 433e 642e dcbd
00000070: 6f13 0dbe 99ca 8c3c c414 f13d 7c22 113d
00000080: a275 0d3e 07c3 4bbd 8c94 1d3e 853c f0bd
00000090: 79b1 47bc b378 dbbd 72d9 203e 61db e63d
000000a0: 113a 2fbb b589 d33d ad63 023c 7c09 d2bc
000000b0: 17c9 4f3d 1b5d 1ebd 4af4 1e3e b05d 54bd
000000c0: 6bbe f23c f500 863d fad1 3c3e 2e5e d93c
000000d0: 2777 fd3d 9c65 24bd 0315 a23d 8734 d3bd
000000e0: c318 773d 639e 9cbd 77d7 3bbd b431 71bc
000000f0: e02c 6a3d 4b67 b03d 7a21 9ab9 fcf7 8dbc
00000100: 20b3 ab3d 4da5 aebc 1100 1c3e 6861 113d
00000110: 0e77 e3bc 877c 20be 7011 413d 6118 2b3d
00000120: a1f8 1d3e 62e9 53bd 5865 08be 3802 f6bd
00000130: fbab 83bd faf2 213d f2ae 80bd f66f 353e
00000140: a410 023e 88dc fa3d 66cf 2ebd 0f82 d63d
00000150: a9b2 2c3e 4b9e 9ebc 188c 1f3d 5196 34bd
00000160: 7ed1 05bd af47 e43d 49de e53d e6f6 1d3e
00000170: 5e07 ab3d 08f7 573d 7bfa 383d b209 83bd
00000180: 2f7d b53d 7840 e73d 8091 9fbd 607f dbbd
00000190: 8d9c b83c 696c 0a3e c854 21bd 4da3 1e3e
000001a0: 0df7 ad3d 6517 483c 63c7 90bd d868 5b3d
000001b0: 6b4e 7c3d b782 d5bc 3c08 2b3e af17 2b3e
000001c0: 3a39 6dbd 8478 093d 7087 ad3d 93ff 26bc
000001d0: b3bf 52bd 9236 243e 6b1c 2ebd a734 b3bb
000001e0: 9d07 14bd eccf 8f3d 5315 cabd 8994 9a3d
000001f0: 1a31 06be a162 a4bb e545 263d 4ec6 c7bd
0.09069713 0.06816133 -0.020566149 0.0237827 0.05119101 -0.018209545 0.089409605 -0.033467848
0.099999495 -0.076035246 0.074213445 0.07194476 0.0481041 0.06612792 0.047522202 -0.024626393
0.037564825 -0.05839466 -0.057572406 0.08720719 -0.060222596 -0.12278271 0.16249515 -0.09217596
0.010573111 0.025676047 0.19087882 -0.10751036 -0.13776945 0.01718645 0.11771539 0.035433277
0.13814405 -0.04974654 0.15388697 -0.11730293 -0.012188309 -0.10716381 0.15707949 0.11272312
-0.002673749 0.10329 0.007958335 -0.025639288 0.050728884 -0.03866301 0.15522876 -0.05184716
0.029631814 0.06543151 0.18439475 0.026534166 0.12376242 -0.040135965 0.07914164 -0.10312753
0.06032635 -0.07647397 -0.04585978 -0.014721323 0.057171702 0.086134516 -0.0002939811 -0.017330162
0.08383775 -0.021319056 0.152344 0.035493284 -0.02776673 -0.15672503 0.04713577 0.041771296
0.15426876 -0.051736243 -0.1331991 -0.12012142 -0.06429287 0.03953836 -0.06283368 0.17718491
0.1270166 0.12249094 -0.04267826 0.104740255 0.16865028 -0.01936259 0.038951963 -0.044088665
-0.03267049 0.11146485 0.11224038 0.15426216 0.083510146 0.05272582 0.04516075 -0.063983336
0.088617675 0.11291593 -0.07791424 -0.10717654 0.022535587 0.13517918 -0.039387494 0.15491982
0.08494387 0.012212609 -0.0706928 0.053566784 0.061598223 -0.026063306 0.1670236 0.16708253
-0.057915904 0.0335622 0.08473098 -0.01019277 -0.05145235 0.16036442 -0.04250757 -0.005468923
-0.036140073 0.0702208 -0.098673485 0.07547862 -0.13104668 -0.0050166403 0.040594 -0.097546205
